diff --git a/xla/debug_options_flags.cc b/xla/debug_options_flags.cc
index 83659dc71d..db73dc2d66 100644
--- a/xla/debug_options_flags.cc
+++ b/xla/debug_options_flags.cc
@@ -282,6 +282,7 @@ DebugOptions DefaultDebugOptionsIgnoringFlags() {
   opts.set_xla_detailed_logging(true);
   opts.set_xla_enable_dumping(true);
   opts.set_xla_enable_enzyme_comms_opt(false);
+  opts.set_xla_recognize_reduction_optimization_level(0);
 
   opts.set_xla_gpu_enable_dynamic_slice_fusion(false);
   opts.set_xla_gpu_nccl_termination_timeout_seconds(-1);
@@ -2052,6 +2053,12 @@ void MakeDebugOptionsFlags(std::vector<tsl::Flag>* flag_list,
       debug_options->xla_enable_enzyme_comms_opt(),
       "Enable communication optimization patterns specified in Enzyme. More "
       "details in http://shortn/_jXJ2VFoyMN."));
+  flag_list->push_back(tsl::Flag(
+      "xla_recognize_reduction_optimization_level",
+      int32_setter_for(
+          &DebugOptions::set_xla_recognize_reduction_optimization_level),
+      debug_options->xla_recognize_reduction_optimization_level(),
+      "Optimization level for reduction recognition pass."));
   flag_list->push_back(tsl::Flag(
       "xla_partitioning_algorithm", setter_for_xla_partitioning_algorithm,
       DebugOptions::PartitioningAlgorithm_Name(
diff --git a/xla/hlo/tools/hlo_opt/BUILD b/xla/hlo/tools/hlo_opt/BUILD
index c4a7c932aa..085a9e835e 100644
--- a/xla/hlo/tools/hlo_opt/BUILD
+++ b/xla/hlo/tools/hlo_opt/BUILD
@@ -109,6 +109,7 @@ cc_library(
         "//xla/hlo/transforms/simplifiers:host_memory_transfer_asyncifier",
         "//xla/hlo/transforms/simplifiers:instruction_hoister",
         "//xla/hlo/transforms/simplifiers:optimize_input_output_buffer_alias",
+        "//xla/hlo/transforms/simplifiers:recognize_reduce_window",
         "//xla/hlo/transforms/simplifiers:reduce_window_rewriter",
         "//xla/hlo/transforms/simplifiers:reshape_mover",
         "//xla/hlo/transforms/simplifiers:result_caster",
diff --git a/xla/hlo/tools/hlo_opt/opt_lib.cc b/xla/hlo/tools/hlo_opt/opt_lib.cc
index b89dbd4689..c1d94dc9f0 100644
--- a/xla/hlo/tools/hlo_opt/opt_lib.cc
+++ b/xla/hlo/tools/hlo_opt/opt_lib.cc
@@ -104,6 +104,7 @@ limitations under the License.
 #include "xla/hlo/transforms/simplifiers/host_memory_transfer_asyncifier.h"
 #include "xla/hlo/transforms/simplifiers/instruction_hoister.h"
 #include "xla/hlo/transforms/simplifiers/optimize_input_output_buffer_alias.h"
+#include "xla/hlo/transforms/simplifiers/recognize_reduce_window.h"
 #include "xla/hlo/transforms/simplifiers/reduce_window_rewriter.h"
 #include "xla/hlo/transforms/simplifiers/reshape_mover.h"
 #include "xla/hlo/transforms/simplifiers/result_caster.h"
@@ -304,6 +305,7 @@ void OptProvider::RegisterAllHardwareIndependentPasses() {
   RegisterPass<OptimizationBarrierExpander>();
   RegisterPass<OptimizeInputOutputBufferAlias>(true);
   RegisterPass<QrExpander>();
+  RegisterPass<RecognizeReduceWindow>();
   RegisterPass<ReduceDecomposer>();
   RegisterPass<ReduceWindowRewriter>(/*base_length=*/16);
   RegisterPass<ReorderConvertReduceAdd>();
diff --git a/xla/hlo/transforms/simplifiers/BUILD b/xla/hlo/transforms/simplifiers/BUILD
index 9a751d85b0..15d1d23fda 100644
--- a/xla/hlo/transforms/simplifiers/BUILD
+++ b/xla/hlo/transforms/simplifiers/BUILD
@@ -188,6 +188,41 @@ xla_cc_test(
     ],
 )
 
+cc_library(
+    name = "recognize_reduce_window",
+    srcs = ["recognize_reduce_window.cc"],
+    hdrs = ["recognize_reduce_window.h"],
+    deps = [
+        "//xla:literal_util",
+        "//xla:shape_util",
+        "//xla:types",
+        "//xla:window_util",
+        "//xla/hlo/evaluator:hlo_evaluator",
+        "//xla/hlo/ir:hlo",
+        "//xla/hlo/pass:hlo_pass",
+        "//xla/tsl/platform:errors",
+        "//xla/tsl/platform:logging",
+        "//xla/tsl/platform:statusor",
+        "@com_google_absl//absl/algorithm:container",
+        "@com_google_absl//absl/container:flat_hash_set",
+        "@com_google_absl//absl/status:statusor",
+        "@com_google_absl//absl/strings:string_view",
+    ],
+)
+
+xla_cc_test(
+    name = "recognize_reduce_window_test",
+    srcs = ["recognize_reduce_window_test.cc"],
+    deps = [
+        ":recognize_reduce_window",
+        "//xla/hlo/ir:hlo",
+        "//xla/hlo/testlib:hlo_hardware_independent_test_base",
+        "//xla/tests:hlo_test_base",
+        "@com_google_absl//absl/strings:string_view",
+        "@com_google_googletest//:gtest_main",
+    ],
+)
+
 cc_library(
     name = "float_normalization",
     srcs = ["float_normalization.cc"],
diff --git a/xla/hlo/transforms/simplifiers/recognize_reduce_window.cc b/xla/hlo/transforms/simplifiers/recognize_reduce_window.cc
new file mode 100644
index 0000000000..66fc45c130
--- /dev/null
+++ b/xla/hlo/transforms/simplifiers/recognize_reduce_window.cc
@@ -0,0 +1,1071 @@
+/* Copyright 2025 The OpenXLA Authors.
+
+Licensed under the Apache License, Version 2.0 (the "License");
+you may not use this file except in compliance with the License.
+You may obtain a copy of the License at
+
+    http://www.apache.org/licenses/LICENSE-2.0
+
+Unless required by applicable law or agreed to in writing, software
+distributed under the License is distributed on an "AS IS" BASIS,
+WITHOUT WARRANTIES OR CONDITIONS OF ANY KIND, either express or implied.
+See the License for the specific language governing permissions and
+limitations under the License.
+==============================================================================*/
+
+#include "xla/hlo/transforms/simplifiers/recognize_reduce_window.h"
+
+#include <algorithm>
+#include <cstddef>
+#include <cstdint>
+#include <optional>
+#include <vector>
+
+#include "absl/algorithm/container.h"
+#include "absl/container/flat_hash_set.h"
+#include "absl/status/statusor.h"
+#include "absl/strings/string_view.h"
+#include "xla/hlo/evaluator/hlo_evaluator.h"
+#include "xla/hlo/ir/hlo_computation.h"
+#include "xla/hlo/ir/hlo_instruction.h"
+#include "xla/hlo/ir/hlo_module.h"
+#include "xla/hlo/ir/hlo_opcode.h"
+#include "xla/literal_util.h"
+#include "xla/shape_util.h"
+#include "xla/tsl/platform/errors.h"
+#include "xla/tsl/platform/logging.h"
+#include "xla/tsl/platform/statusor.h"
+#include "xla/types.h"
+#include "xla/window_util.h"
+
+namespace xla {
+namespace {
+
+HloComputation* GetOrCreateReducer(HloModule* module, HloOpcode opcode,
+                                   PrimitiveType type) {
+  HloComputation::Builder b("recognize_rw_reducer");
+  auto p0 = b.AddInstruction(HloInstruction::CreateParameter(
+      0, ShapeUtil::MakeShape(type, {}), "lhs"));
+  auto p1 = b.AddInstruction(HloInstruction::CreateParameter(
+      1, ShapeUtil::MakeShape(type, {}), "rhs"));
+  b.AddInstruction(HloInstruction::CreateBinary(ShapeUtil::MakeShape(type, {}),
+                                                opcode, p0, p1));
+  return module->AddEmbeddedComputation(b.Build());
+}
+
+HloInstruction* CreateInitValue(HloComputation* comp, HloOpcode opcode,
+                                PrimitiveType type) {
+  switch (opcode) {
+    case HloOpcode::kAdd:
+      return comp->AddInstruction(
+          HloInstruction::CreateConstant(LiteralUtil::Zero(type)));
+    case HloOpcode::kMultiply:
+      return comp->AddInstruction(
+          HloInstruction::CreateConstant(LiteralUtil::One(type)));
+    case HloOpcode::kMaximum:
+      return comp->AddInstruction(
+          HloInstruction::CreateConstant(LiteralUtil::MinValue(type)));
+    case HloOpcode::kMinimum:
+      return comp->AddInstruction(
+          HloInstruction::CreateConstant(LiteralUtil::MaxValue(type)));
+    case HloOpcode::kAnd:
+      return comp->AddInstruction(
+          HloInstruction::CreateConstant(LiteralUtil::One(type)));
+    case HloOpcode::kOr:
+      return comp->AddInstruction(
+          HloInstruction::CreateConstant(LiteralUtil::Zero(type)));
+    case HloOpcode::kXor:
+      return comp->AddInstruction(
+          HloInstruction::CreateConstant(LiteralUtil::Zero(type)));
+    default:
+      return nullptr;
+  }
+}
+
+struct WeightedSlice {
+  HloInstruction* slice;
+  Literal weight;
+  std::vector<HloInstruction*> array_weights;
+
+  bool is_scalar() const { return array_weights.empty(); }
+};
+
+bool CompareInstruction(const HloInstruction* a, const HloInstruction* b) {
+  if (a->opcode() != b->opcode()) {
+    return a->opcode() < b->opcode();
+  }
+  if (a->opcode() == HloOpcode::kSlice && b->opcode() == HloOpcode::kSlice) {
+    if (a->operand(0)->unique_id() != b->operand(0)->unique_id()) {
+      return CompareInstruction(a->operand(0), b->operand(0));
+    }
+    if (!absl::c_equal(a->slice_starts(), b->slice_starts())) {
+      return absl::c_lexicographical_compare(a->slice_starts(),
+                                             b->slice_starts());
+    }
+    if (!absl::c_equal(a->slice_limits(), b->slice_limits())) {
+      return absl::c_lexicographical_compare(a->slice_limits(),
+                                             b->slice_limits());
+    }
+    if (!absl::c_equal(a->slice_strides(), b->slice_strides())) {
+      return absl::c_lexicographical_compare(a->slice_strides(),
+                                             b->slice_strides());
+    }
+  }
+  if (a->opcode() == HloOpcode::kPad && b->opcode() == HloOpcode::kPad) {
+    if (a->operand(0)->unique_id() != b->operand(0)->unique_id()) {
+      return CompareInstruction(a->operand(0), b->operand(0));
+    }
+    if (a->operand(1)->unique_id() != b->operand(1)->unique_id()) {
+      return CompareInstruction(a->operand(1), b->operand(1));
+    }
+    const PaddingConfig& a_pad = a->padding_config();
+    const PaddingConfig& b_pad = b->padding_config();
+    for (int i = 0; i < a_pad.dimensions_size(); ++i) {
+      if (a_pad.dimensions(i).edge_padding_low() !=
+          b_pad.dimensions(i).edge_padding_low()) {
+        return a_pad.dimensions(i).edge_padding_low() >
+               b_pad.dimensions(i).edge_padding_low();
+      }
+      if (a_pad.dimensions(i).edge_padding_high() !=
+          b_pad.dimensions(i).edge_padding_high()) {
+        return a_pad.dimensions(i).edge_padding_high() <
+               b_pad.dimensions(i).edge_padding_high();
+      }
+      if (a_pad.dimensions(i).interior_padding() !=
+          b_pad.dimensions(i).interior_padding()) {
+        return a_pad.dimensions(i).interior_padding() <
+               b_pad.dimensions(i).interior_padding();
+      }
+    }
+  }
+  if (a->opcode() == HloOpcode::kParameter &&
+      b->opcode() == HloOpcode::kParameter) {
+    return a->parameter_number() < b->parameter_number();
+  }
+  return a->unique_id() < b->unique_id();
+}
+
+bool CompareWeightedSlices(const WeightedSlice& a, const WeightedSlice& b) {
+  if (a.slice->unique_id() != b.slice->unique_id()) {
+    return CompareInstruction(a.slice, b.slice);
+  }
+  if (a.array_weights.size() != b.array_weights.size()) {
+    return a.array_weights.size() < b.array_weights.size();
+  }
+  for (size_t i = 0; i < a.array_weights.size(); ++i) {
+    if (a.array_weights[i]->unique_id() != b.array_weights[i]->unique_id()) {
+      return CompareInstruction(a.array_weights[i], b.array_weights[i]);
+    }
+  }
+  if (a.weight != b.weight) {
+    PrimitiveType type = a.weight.shape().element_type();
+    return primitive_util::ArrayTypeSwitch(
+        [&](auto primitive_type_constant) -> bool {
+          using NativeT = primitive_util::NativeTypeOf<primitive_type_constant>;
+          if constexpr (primitive_util::IsComplexType(
+                            primitive_type_constant)) {
+            auto a_complex = a.weight.template GetFirstElement<NativeT>();
+            auto b_complex = b.weight.template GetFirstElement<NativeT>();
+            if (a_complex.real() != b_complex.real()) {
+              return a_complex.real() < b_complex.real();
+            }
+            return a_complex.imag() < b_complex.imag();
+          } else {
+            return a.weight.template GetFirstElement<NativeT>() <
+                   b.weight.template GetFirstElement<NativeT>();
+          }
+        },
+        type);
+  }
+  return false;
+}
+
+void ExtractWeightedSlices(
+    bool support_additional_factor, HloInstruction* inst,
+    std::vector<WeightedSlice>& slices,
+    std::optional<Literal> current_weight = std::nullopt,
+    const std::vector<HloInstruction*>& array_weights = {}) {
+  if (!support_additional_factor) {
+    CHECK(array_weights.empty());
+  }
+  HloEvaluator evaluator;
+  Literal cw = LiteralUtil::One(inst->shape().element_type());
+  if (current_weight.has_value()) {
+    cw = std::move(current_weight.value());
+  }
+
+  if (inst->opcode() == HloOpcode::kMultiply) {
+    HloInstruction* lhs = inst->mutable_operand(0);
+    HloInstruction* rhs = inst->mutable_operand(1);
+    std::optional<Literal> val = std::nullopt;
+    HloInstruction* other = nullptr;
+
+    auto get_const = [](HloInstruction* op) -> std::optional<Literal> {
+      if (op->opcode() == HloOpcode::kBroadcast) {
+        op = op->mutable_operand(0);
+      }
+      if (op->opcode() == HloOpcode::kConstant) {
+        if (ShapeUtil::IsScalar(op->shape())) {
+          return op->literal().Clone();
+        }
+        if (op->literal().IsAllFirst()) {
+          return LiteralUtil::GetFirstScalarLiteral(op->literal());
+        }
+      }
+      return std::nullopt;
+    };
+
+    if (auto l_val = get_const(lhs)) {
+      val = std::move(*l_val);
+      other = rhs;
+    } else if (auto r_val = get_const(rhs)) {
+      val = std::move(*r_val);
+      other = lhs;
+    }
+
+    if (val.has_value() && other != nullptr) {
+      Literal next_weight =
+          evaluator.EvaluateElementwiseBinaryOp(HloOpcode::kMultiply, cw, *val)
+              .value();
+      ExtractWeightedSlices(support_additional_factor, other, slices,
+                            std::move(next_weight), array_weights);
+      return;
+    } else if (support_additional_factor) {
+      auto is_traversable = [](HloInstruction* op) {
+        return op->opcode() == HloOpcode::kAdd ||
+               op->opcode() == HloOpcode::kSubtract ||
+               op->opcode() == HloOpcode::kMultiply;
+      };
+      if (!is_traversable(lhs) && is_traversable(rhs)) {
+        std::swap(lhs, rhs);
+      }
+      auto new_weights = array_weights;
+      new_weights.push_back(rhs);
+      ExtractWeightedSlices(support_additional_factor, lhs, slices,
+                            std::move(cw), new_weights);
+      return;
+    }
+  }
+
+  if (inst->opcode() == HloOpcode::kAdd) {
+    ExtractWeightedSlices(support_additional_factor, inst->mutable_operand(0),
+                          slices, cw.Clone(), array_weights);
+    ExtractWeightedSlices(support_additional_factor, inst->mutable_operand(1),
+                          slices, std::move(cw), array_weights);
+    return;
+  }
+
+  if (inst->opcode() == HloOpcode::kSubtract) {
+    Literal neg_weight =
+        evaluator.EvaluateElementwiseUnaryOp(HloOpcode::kNegate, cw).value();
+    ExtractWeightedSlices(support_additional_factor, inst->mutable_operand(0),
+                          slices, cw.Clone(), array_weights);
+    ExtractWeightedSlices(support_additional_factor, inst->mutable_operand(1),
+                          slices, std::move(neg_weight), array_weights);
+    return;
+  }
+
+  if (inst->opcode() == HloOpcode::kDot) {
+    HloInstruction* lhs = inst->mutable_operand(0);
+    HloInstruction* rhs = inst->mutable_operand(1);
+
+    if (lhs->opcode() == HloOpcode::kConcatenate &&
+        rhs->opcode() == HloOpcode::kConstant &&
+        inst->dot_dimension_numbers().lhs_contracting_dimensions_size() == 1 &&
+        inst->dot_dimension_numbers().lhs_contracting_dimensions(0) == 0 &&
+        inst->dot_dimension_numbers().rhs_contracting_dimensions_size() == 1 &&
+        inst->dot_dimension_numbers().rhs_contracting_dimensions(0) == 0 &&
+        lhs->shape().dimensions_size() > 0 &&
+        rhs->shape().dimensions_size() == 1 &&
+        lhs->shape().dimensions(0) == rhs->shape().dimensions(0)) {
+      int64_t num_slices = lhs->operand_count();
+      bool all_good = true;
+      std::vector<WeightedSlice> temp_slices;
+      for (int64_t i = 0; i < num_slices; ++i) {
+        HloInstruction* reshape = lhs->mutable_operand(i);
+        if (reshape->opcode() != HloOpcode::kReshape) {
+          all_good = false;
+          break;
+        }
+        std::vector<int64_t> starts = {i};
+        std::vector<int64_t> limits = {i + 1};
+        Literal scalar_w = LiteralUtil::GetFirstScalarLiteral(
+            rhs->literal().Slice(starts, limits));
+        Literal next_w =
+            evaluator
+                .EvaluateElementwiseBinaryOp(HloOpcode::kMultiply, cw, scalar_w)
+                .value();
+        temp_slices.push_back(
+            {reshape->mutable_operand(0), std::move(next_w), array_weights});
+      }
+      if (all_good) {
+        slices.insert(slices.end(),
+                      std::make_move_iterator(temp_slices.begin()),
+                      std::make_move_iterator(temp_slices.end()));
+        return;
+      }
+    }
+  }
+
+  // Universal Element-wise extraction fallback
+  slices.push_back({inst, std::move(cw), array_weights});
+  return;
+}
+
+absl::StatusOr<HloInstruction*> CreateReduceWindow(
+    HloComputation* computation, Shape shape, HloInstruction* new_base_op,
+    HloOpcode opcode, int64_t dim, int64_t current_window_size,
+    int64_t window_dilation) {
+  HloComputation* reducer =
+      GetOrCreateReducer(computation->parent(), opcode, shape.element_type());
+  HloInstruction* init_val =
+      CreateInitValue(computation, opcode, shape.element_type());
+  if (!init_val || !reducer) {
+    return absl::StatusOr<HloInstruction*>{};
+  }
+
+  int rank = new_base_op->shape().dimensions_size();
+  Window window = window_util::MakeWindow(std::vector<int64_t>(rank, 1));
+  window.mutable_dimensions(dim)->set_size(current_window_size);
+  window.mutable_dimensions(dim)->set_window_dilation(window_dilation);
+
+  HloInstruction* rw =
+      computation->AddInstruction(HloInstruction::CreateReduceWindow(
+          shape, new_base_op, init_val, window, reducer));
+  return rw;
+}
+
+absl::StatusOr<bool> RunOnComputation(HloComputation* computation) {
+  bool changed = false;
+  int32_t optimization_level =
+      computation->parent()
+          ->config()
+          .debug_options()
+          .xla_recognize_reduction_optimization_level();
+  if (optimization_level == 0) {
+    return false;
+  }
+  bool support_dot = optimization_level >= 2;
+  bool support_additional_factor = optimization_level >= 3;
+
+  std::vector<HloInstruction*> all_insts =
+      computation->MakeInstructionPostOrder();
+  for (HloInstruction* inst : all_insts) {
+    if (inst->opcode() == HloOpcode::kDynamicSlice) {
+      bool all_static = true;
+      for (int i = 1; i < inst->operand_count(); ++i) {
+        if (inst->operand(i)->opcode() != HloOpcode::kConstant) {
+          all_static = false;
+          break;
+        }
+      }
+      if (all_static) {
+        std::vector<int64_t> starts;
+        std::vector<int64_t> limits;
+        std::vector<int64_t> strides(inst->shape().dimensions_size(), 1);
+        for (int i = 1; i < inst->operand_count(); ++i) {
+          int64_t dim = i - 1;
+          int64_t start = *inst->operand(i)->literal().GetFirstInteger();
+          int64_t size = inst->dynamic_slice_sizes()[dim];
+          int64_t dim_size = inst->operand(0)->shape().dimensions(dim);
+          start =
+              std::max<int64_t>(0, std::min<int64_t>(start, dim_size - size));
+          starts.push_back(start);
+          limits.push_back(start + size);
+        }
+        HloInstruction* static_slice = computation->AddInstruction(
+            HloInstruction::CreateSlice(inst->shape(), inst->mutable_operand(0),
+                                        starts, limits, strides));
+        TF_RETURN_IF_ERROR(inst->ReplaceAllUsesWith(static_slice));
+        changed = true;
+      }
+    }
+  }
+
+  std::vector<HloInstruction*> instructions =
+      computation->MakeInstructionPostOrder();
+
+  for (auto it = instructions.rbegin(); it != instructions.rend(); ++it) {
+    HloInstruction* inst = *it;
+    if (inst->IsDead()) {
+      continue;
+    }
+    if (inst->operand_count() != 2) {
+      continue;
+    }
+    if (!HloOpcodeIsBinaryCommutative(inst->opcode()) &&
+        inst->opcode() != HloOpcode::kSubtract) {
+      continue;
+    }
+    // Don't do anything for scalars.
+    if (inst->shape().dimensions_size() == 0) {
+      continue;
+    }
+
+    HloInstruction* lhs = inst->mutable_operand(0);
+    HloInstruction* rhs = inst->mutable_operand(1);
+
+    int64_t dim = -1;
+    int64_t window_dilation = -1;
+    HloInstruction* new_base_op = nullptr;
+    int64_t current_window_size = 2;
+
+    // Pattern 3: add(reduce_window, slice)
+    if (!new_base_op && (lhs->opcode() == HloOpcode::kReduceWindow ||
+                         rhs->opcode() == HloOpcode::kReduceWindow)) {
+      HloInstruction* rw =
+          (lhs->opcode() == HloOpcode::kReduceWindow) ? lhs : rhs;
+      HloInstruction* other =
+          (lhs->opcode() == HloOpcode::kReduceWindow) ? rhs : lhs;
+
+      bool other_valid = other->opcode() == HloOpcode::kSlice ||
+                         (other->opcode() == HloOpcode::kPad &&
+                          other->operand(1)->opcode() == HloOpcode::kConstant);
+      bool rw_valid =
+          rw->operand(0)->opcode() == HloOpcode::kSlice ||
+          (rw->operand(0)->opcode() == HloOpcode::kPad &&
+           rw->operand(0)->operand(1)->opcode() == HloOpcode::kConstant);
+
+      // Make sure the reducer is the same!
+      if (rw->to_apply()->root_instruction()->opcode() == inst->opcode() &&
+          other_valid && rw_valid) {
+        HloInstruction* rw_slice = rw->mutable_operand(0);
+        if (rw_slice->opcode() == other->opcode() &&
+            rw_slice->operand(0) == other->operand(0)) {
+          bool valid_strides = true;
+          if (rw_slice->opcode() == HloOpcode::kSlice) {
+            valid_strides = absl::c_all_of(rw_slice->slice_strides(),
+                                           [](int64_t s) { return s == 1; }) &&
+                            absl::c_all_of(other->slice_strides(),
+                                           [](int64_t s) { return s == 1; });
+          } else {
+            valid_strides = rw_slice->operand(1)->Identical(*other->operand(1));
+          }
+          if (valid_strides) {
+            int rank = rw_slice->shape().dimensions_size();
+            bool matched = true;
+            std::vector<int64_t> new_starts(rank);
+            std::vector<int64_t> new_limits(rank);
+
+            auto get_start = [&](HloInstruction* op, int d) -> int64_t {
+              if (op->opcode() == HloOpcode::kSlice) {
+                return op->slice_starts(d);
+              }
+              return -op->padding_config().dimensions(d).edge_padding_low();
+            };
+            auto get_limit = [&](HloInstruction* op, int d) -> int64_t {
+              if (op->opcode() == HloOpcode::kSlice) {
+                return op->slice_limits(d);
+              }
+              return op->operand(0)->shape().dimensions(d) +
+                     op->padding_config().dimensions(d).edge_padding_high();
+            };
+            auto get_interior = [&](HloInstruction* op, int d) -> int64_t {
+              if (op->opcode() == HloOpcode::kSlice) {
+                return 0;
+              }
+              return op->padding_config().dimensions(d).interior_padding();
+            };
+
+            for (int i = 0; i < rank; ++i) {
+              if (get_interior(rw_slice, i) != 0 ||
+                  get_interior(other, i) != 0) {
+                matched = false;
+                break;
+              }
+              if (get_start(rw_slice, i) == get_start(other, i) &&
+                  get_limit(rw_slice, i) == get_limit(other, i)) {
+                new_starts[i] = get_start(rw_slice, i);
+                new_limits[i] = get_limit(rw_slice, i);
+              } else if (dim != -1) {
+                matched = false;
+                break;
+              } else {
+                int64_t rw_start = get_start(rw_slice, i);
+                int64_t o_start = get_start(other, i);
+                int64_t rw_limit = get_limit(rw_slice, i);
+                int64_t o_limit = get_limit(other, i);
+                dim = i;
+
+                int64_t D = rw->window().dimensions(dim).window_dilation();
+                int64_t size = rw->window().dimensions(dim).size();
+
+                bool is_append = (o_start == rw_start + D * size) &&
+                                 (o_limit == rw_limit + D);
+                bool is_prepend = (rw_start == o_start + D) &&
+                                  (rw_limit == o_limit + D * size);
+
+                if (is_append || is_prepend) {
+                  window_dilation = D;
+                } else {
+                  matched = false;
+                  break;
+                }
+
+                new_starts[i] = std::min(rw_start, o_start);
+                new_limits[i] = std::max(rw_limit, o_limit);
+                current_window_size = size + 1;
+              }
+            }
+            if (matched && dim != -1) {
+              if (rw_slice->opcode() == HloOpcode::kSlice) {
+                std::vector<int64_t> strides(rank, 1);
+                Shape slice_shape = rw_slice->shape();
+                slice_shape.set_dimensions(dim,
+                                           new_limits[dim] - new_starts[dim]);
+                new_base_op =
+                    computation->AddInstruction(HloInstruction::CreateSlice(
+                        slice_shape, rw_slice->mutable_operand(0), new_starts,
+                        new_limits, strides));
+              } else {
+                PaddingConfig new_pad_config = rw_slice->padding_config();
+                for (int d = 0; d < rank; ++d) {
+                  new_pad_config.mutable_dimensions(d)->set_edge_padding_low(
+                      -new_starts[d]);
+                  new_pad_config.mutable_dimensions(d)->set_edge_padding_high(
+                      new_limits[d] -
+                      rw_slice->operand(0)->shape().dimensions(d));
+                  new_pad_config.mutable_dimensions(d)->set_interior_padding(0);
+                }
+                Shape pad_shape = rw_slice->shape();
+                pad_shape.set_dimensions(dim,
+                                         new_limits[dim] - new_starts[dim]);
+                new_base_op =
+                    computation->AddInstruction(HloInstruction::CreatePad(
+                        pad_shape, rw_slice->mutable_operand(0),
+                        rw_slice->mutable_operand(1), new_pad_config));
+              }
+            }
+          }
+        }
+      }
+    }
+
+    if (new_base_op) {
+      auto opcode = (lhs->opcode() == HloOpcode::kReduceWindow)
+                        ? lhs->to_apply()->root_instruction()->opcode()
+                        : inst->opcode();
+
+      TF_ASSIGN_OR_RETURN(
+          auto rw,
+          CreateReduceWindow(computation, inst->shape(), new_base_op, opcode,
+                             dim, current_window_size, window_dilation));
+
+      TF_RETURN_IF_ERROR(inst->ReplaceAllUsesWith(rw));
+      changed = true;
+      continue;
+    }
+
+    if (inst->opcode() == HloOpcode::kSubtract ||
+        inst->opcode() == HloOpcode::kAdd) {
+      std::vector<WeightedSlice> combined_slices;
+
+      ExtractWeightedSlices(support_additional_factor, inst, combined_slices);
+      {
+        Shape slice_shape = inst->shape();
+        int64_t rank = slice_shape.dimensions_size();
+
+        bool any_array_weights = false;
+        bool all_unit_stride_slices_on_same_operand = true;
+        bool all_pads_on_same_operand = true;
+        for (auto& ws : combined_slices) {
+          if (!ws.array_weights.empty()) {
+            any_array_weights = true;
+          }
+          CHECK_EQ(slice_shape, ws.slice->shape());
+          // TODO here down
+          if (ws.slice->opcode() != HloOpcode::kSlice ||
+              absl::c_any_of(ws.slice->slice_strides(),
+                             [](int64_t s) { return s != 1; })) {
+            all_unit_stride_slices_on_same_operand = false;
+          } else if (all_unit_stride_slices_on_same_operand &&
+                     ws.slice->operand(0) !=
+                         combined_slices[0].slice->operand(0)) {
+            all_unit_stride_slices_on_same_operand = false;
+          }
+
+          if (ws.slice->opcode() != HloOpcode::kPad ||
+              ws.slice->operand(1)->opcode() != HloOpcode::kConstant) {
+            all_pads_on_same_operand = false;
+          } else if (all_pads_on_same_operand &&
+                     (ws.slice->operand(0) !=
+                          combined_slices[0].slice->operand(0) ||
+                      !ws.slice->operand(1)->Identical(
+                          *combined_slices[0].slice->operand(1)))) {
+            all_pads_on_same_operand = false;
+          }
+
+          if (!ws.array_weights.empty()) {
+            std::vector<HloInstruction*> all_terms;
+            all_terms.push_back(ws.slice);
+            for (auto* aw : ws.array_weights) {
+              CHECK_EQ(slice_shape, aw->shape());
+              all_terms.push_back(aw);
+            }
+            absl::c_sort(all_terms, CompareInstruction);
+            ws.slice = all_terms.back();
+            ws.array_weights.assign(all_terms.begin(), all_terms.end() - 1);
+          }
+        }
+
+        // Sort to group identical (slice, array_weight) pairs
+        absl::c_sort(combined_slices, CompareWeightedSlices);
+
+        std::vector<WeightedSlice> folded;
+        for (auto& ws : combined_slices) {
+          if (folded.empty()) {
+            folded.push_back(std::move(ws));
+          } else {
+            if (ws.slice == folded.back().slice &&
+                ws.array_weights == folded.back().array_weights) {
+              HloEvaluator evaluator;
+              folded.back().weight =
+                  evaluator
+                      .EvaluateElementwiseBinaryOp(
+                          HloOpcode::kAdd, folded.back().weight, ws.weight)
+                      .value();
+            } else {
+              folded.push_back(std::move(ws));
+            }
+          }
+        }
+
+        PrimitiveType ptype = inst->shape().element_type();
+        Literal zero = LiteralUtil::Zero(ptype);
+        Literal one = LiteralUtil::One(ptype);
+        Literal minus_one =
+            HloEvaluator{}
+                .EvaluateElementwiseUnaryOp(HloOpcode::kNegate, one)
+                .value();
+
+        folded.erase(std::remove_if(folded.begin(), folded.end(),
+                                    [&](const WeightedSlice& ws) {
+                                      return ws.weight == zero;
+                                    }),
+                     folded.end());
+
+        if (folded.empty()) {
+          auto zero_replacement = computation->AddInstruction(
+              HloInstruction::CreateConstant(LiteralUtil::Zero(ptype)));
+          auto broadcasted_zero =
+              computation->AddInstruction(HloInstruction::CreateBroadcast(
+                  inst->shape(), zero_replacement, {}));
+          TF_RETURN_IF_ERROR(
+              computation->ReplaceInstruction(inst, broadcasted_zero));
+          changed = true;
+          continue;
+        }
+
+        if (folded.size() == 1) {
+          if (folded[0].weight == one && !any_array_weights) {
+            TF_RETURN_IF_ERROR(
+                computation->ReplaceInstruction(inst, folded[0].slice));
+            changed = true;
+            continue;
+          }
+          if (!folded[0].array_weights.empty()) {
+            HloInstruction* replacement = folded[0].slice;
+            for (auto* aw : folded[0].array_weights) {
+              replacement =
+                  computation->AddInstruction(HloInstruction::CreateBinary(
+                      inst->shape(), HloOpcode::kMultiply, replacement, aw));
+            }
+            if (folded[0].weight != one) {
+              auto literal_replacement = computation->AddInstruction(
+                  HloInstruction::CreateConstant(std::move(folded[0].weight)));
+              auto broadcasted =
+                  computation->AddInstruction(HloInstruction::CreateBroadcast(
+                      inst->shape(), literal_replacement, {}));
+              replacement =
+                  computation->AddInstruction(HloInstruction::CreateBinary(
+                      inst->shape(), HloOpcode::kMultiply, replacement,
+                      broadcasted));
+            }
+            TF_RETURN_IF_ERROR(
+                computation->ReplaceInstruction(inst, replacement));
+            changed = true;
+            continue;
+          }
+          auto literal_replacement = computation->AddInstruction(
+              HloInstruction::CreateConstant(std::move(folded[0].weight)));
+          auto broadcasted =
+              computation->AddInstruction(HloInstruction::CreateBroadcast(
+                  inst->shape(), literal_replacement, {}));
+          HloInstruction* replacement = computation->AddInstruction(
+              HloInstruction::CreateBinary(inst->shape(), HloOpcode::kMultiply,
+                                           folded[0].slice, broadcasted));
+          TF_RETURN_IF_ERROR(
+              computation->ReplaceInstruction(inst, replacement));
+          changed = true;
+          continue;
+        }
+
+        // Pattern 2: add(slice, slice, ..., slice)
+        bool all_weights_one = true;
+        for (const auto& ws : folded) {
+          if (ws.weight != one) {
+            all_weights_one = false;
+            break;
+          }
+        }
+
+        if ((all_unit_stride_slices_on_same_operand ||
+             all_pads_on_same_operand) &&
+            !any_array_weights && all_weights_one && folded.size() >= 2) {
+          int rank = folded[0].slice->shape().dimensions_size();
+          bool matched = true;
+          std::vector<int64_t> new_starts(rank);
+          std::vector<int64_t> new_limits(rank);
+
+          int64_t dim = -1;
+          int64_t window_dilation = -1;
+          int64_t expected_size = -1;
+
+          auto get_start = [&](HloInstruction* op, int d) -> int64_t {
+            if (op->opcode() == HloOpcode::kSlice) return op->slice_starts(d);
+            return -op->padding_config().dimensions(d).edge_padding_low();
+          };
+          auto get_limit = [&](HloInstruction* op, int d) -> int64_t {
+            if (op->opcode() == HloOpcode::kSlice) return op->slice_limits(d);
+            return op->operand(0)->shape().dimensions(d) +
+                   op->padding_config().dimensions(d).edge_padding_high();
+          };
+          auto get_interior = [&](HloInstruction* op, int d) -> int64_t {
+            if (op->opcode() == HloOpcode::kSlice) return 0;
+            return op->padding_config().dimensions(d).interior_padding();
+          };
+
+          for (int i = 0; i < rank; ++i) {
+            bool all_same = true;
+            for (size_t j = 1; j < folded.size(); ++j) {
+              if (get_start(folded[j].slice, i) !=
+                      get_start(folded[0].slice, i) ||
+                  get_limit(folded[j].slice, i) !=
+                      get_limit(folded[0].slice, i) ||
+                  get_interior(folded[j].slice, i) !=
+                      get_interior(folded[0].slice, i) ||
+                  get_interior(folded[j].slice, i) != 0) {
+                all_same = false;
+                break;
+              }
+            }
+            if (get_interior(folded[0].slice, i) != 0) {
+              matched = false;
+              break;
+            }
+            if (all_same) {
+              new_starts[i] = get_start(folded[0].slice, i);
+              new_limits[i] = get_limit(folded[0].slice, i);
+            } else if (dim != -1) {
+              matched = false;
+              break;
+            } else {
+              int64_t first_start = get_start(folded[0].slice, i);
+              int64_t first_limit = get_limit(folded[0].slice, i);
+              expected_size = first_limit - first_start;
+              dim = i;
+
+              window_dilation =
+                  get_start(folded[1].slice, i) - get_start(folded[0].slice, i);
+              if (window_dilation <= 0) {
+                matched = false;
+                break;
+              }
+
+              for (size_t j = 0; j < folded.size(); ++j) {
+                int64_t s = get_start(folded[j].slice, i);
+                int64_t l = get_limit(folded[j].slice, i);
+                if (l - s != expected_size ||
+                    s != first_start + j * window_dilation) {
+                  matched = false;
+                  break;
+                }
+              }
+
+              if (matched) {
+                new_starts[i] = first_start;
+                new_limits[i] = get_limit(folded.back().slice, i);
+              }
+            }
+          }
+
+          if (matched && dim != -1) {
+            HloInstruction* new_base_op = nullptr;
+            if (all_unit_stride_slices_on_same_operand) {
+              std::vector<int64_t> strides(rank, 1);
+              Shape slice_shape = folded[0].slice->shape();
+              slice_shape.set_dimensions(dim,
+                                         new_limits[dim] - new_starts[dim]);
+              new_base_op =
+                  computation->AddInstruction(HloInstruction::CreateSlice(
+                      slice_shape, folded[0].slice->mutable_operand(0),
+                      new_starts, new_limits, strides));
+            } else {
+              PaddingConfig new_pad_config = folded[0].slice->padding_config();
+              for (int d = 0; d < rank; ++d) {
+                new_pad_config.mutable_dimensions(d)->set_edge_padding_low(
+                    -new_starts[d]);
+                new_pad_config.mutable_dimensions(d)->set_edge_padding_high(
+                    new_limits[d] -
+                    folded[0].slice->operand(0)->shape().dimensions(d));
+                new_pad_config.mutable_dimensions(d)->set_interior_padding(0);
+              }
+              Shape pad_shape = folded[0].slice->shape();
+              pad_shape.set_dimensions(
+                  dim, folded[0].slice->shape().dimensions(dim) +
+                           (folded.size() - 1) * window_dilation);
+              new_base_op =
+                  computation->AddInstruction(HloInstruction::CreatePad(
+                      pad_shape, folded[0].slice->mutable_operand(0),
+                      folded[0].slice->mutable_operand(1), new_pad_config));
+            }
+            int64_t current_window_size = folded.size();
+            TF_ASSIGN_OR_RETURN(
+                HloInstruction * replacement,
+                CreateReduceWindow(computation, inst->shape(), new_base_op,
+                                   HloOpcode::kAdd, dim, current_window_size,
+                                   window_dilation));
+            TF_RETURN_IF_ERROR(
+                computation->ReplaceInstruction(inst, replacement));
+            changed = true;
+            continue;
+          }
+        }
+
+        if (folded.size() == 2 && !any_array_weights &&
+            !(all_unit_stride_slices_on_same_operand ||
+              all_pads_on_same_operand)) {
+          if (folded[0].weight == one && folded[1].weight == one) {
+            if (folded[0].slice == inst->operand(0) &&
+                folded[1].slice == inst->operand(1)) {
+              if (inst->opcode() == HloOpcode::kAdd) {
+                continue;
+              }
+            }
+            if (folded[0].slice == inst->operand(1) &&
+                folded[1].slice == inst->operand(0)) {
+              if (inst->opcode() == HloOpcode::kAdd) {
+                continue;
+              }
+            }
+
+            HloInstruction* replacement = computation->AddInstruction(
+                HloInstruction::CreateBinary(inst->shape(), HloOpcode::kAdd,
+                                             folded[0].slice, folded[1].slice));
+            TF_RETURN_IF_ERROR(
+                computation->ReplaceInstruction(inst, replacement));
+            changed = true;
+            continue;
+          }
+          if (folded[0].weight == one && folded[1].weight == minus_one) {
+            if (folded[0].slice == inst->operand(0) &&
+                folded[1].slice == inst->operand(1)) {
+              if (inst->opcode() == HloOpcode::kSubtract) {
+                continue;
+              }
+            }
+            HloInstruction* replacement =
+                computation->AddInstruction(HloInstruction::CreateBinary(
+                    inst->shape(), HloOpcode::kSubtract, folded[0].slice,
+                    folded[1].slice));
+            TF_RETURN_IF_ERROR(
+                computation->ReplaceInstruction(inst, replacement));
+            changed = true;
+            continue;
+          }
+
+          if (folded[0].weight == minus_one && folded[1].weight == one) {
+            if (folded[0].slice == inst->operand(1) &&
+                folded[1].slice == inst->operand(0)) {
+              if (inst->opcode() == HloOpcode::kSubtract) {
+                continue;
+              }
+            }
+            HloInstruction* replacement =
+                computation->AddInstruction(HloInstruction::CreateBinary(
+                    inst->shape(), HloOpcode::kSubtract, folded[1].slice,
+                    folded[0].slice));
+            TF_RETURN_IF_ERROR(
+                computation->ReplaceInstruction(inst, replacement));
+            changed = true;
+            continue;
+          }
+        }
+
+        int64_t num_with_real_data = 0;
+        for (const auto& ws : folded) {
+          if (ws.slice->opcode() == HloOpcode::kBroadcast &&
+              ws.slice->operand(0)->shape().dimensions_size() == 0) {
+            continue;
+          }
+          if (ws.slice->opcode() == HloOpcode::kIota) {
+            continue;
+          }
+          num_with_real_data++;
+        }
+
+        if (num_with_real_data >= 2 && support_dot) {
+          Shape reshape_shape = slice_shape;
+          std::vector<int64_t> concat_dims = {1};
+          for (int64_t d : reshape_shape.dimensions()) concat_dims.push_back(d);
+          Shape new_shape =
+              ShapeUtil::MakeShape(reshape_shape.element_type(), concat_dims);
+
+          std::vector<HloInstruction*> reshaped_slices;
+          std::vector<HloInstruction*> reshaped_array_weights;
+
+          for (auto& ws : folded) {
+            reshaped_slices.push_back(computation->AddInstruction(
+                HloInstruction::CreateReshape(new_shape, ws.slice)));
+            if (any_array_weights) {
+              HloInstruction* aw = nullptr;
+              for (auto* inner_aw : ws.array_weights) {
+                if (aw == nullptr) {
+                  aw = inner_aw;
+                } else {
+                  aw = computation->AddInstruction(HloInstruction::CreateBinary(
+                      aw->shape(), HloOpcode::kMultiply, aw, inner_aw));
+                }
+              }
+              if (aw) {
+                aw = computation->AddInstruction(
+                    HloInstruction::CreateReshape(new_shape, aw));
+              }
+              if (!aw) {
+                HloInstruction* scalar = computation->AddInstruction(
+                    HloInstruction::CreateConstant(ws.weight.Clone()));
+                aw = computation->AddInstruction(
+                    HloInstruction::CreateBroadcast(new_shape, scalar, {}));
+              } else if (ws.weight != one) {
+                HloInstruction* scalar = computation->AddInstruction(
+                    HloInstruction::CreateConstant(ws.weight.Clone()));
+                HloInstruction* weight = computation->AddInstruction(
+                    HloInstruction::CreateBroadcast(aw->shape(), scalar, {}));
+                aw = computation->AddInstruction(HloInstruction::CreateBinary(
+                    aw->shape(), HloOpcode::kMultiply, aw, weight));
+              }
+              reshaped_array_weights.push_back(aw);
+            }
+          }
+
+          Shape concat_shape = new_shape;
+          concat_shape.set_dimensions(0, folded.size());
+          HloInstruction* concat =
+              computation->AddInstruction(HloInstruction::CreateConcatenate(
+                  concat_shape, reshaped_slices, 0));
+
+          HloInstruction* replacement = nullptr;
+
+          if (any_array_weights) {
+            HloInstruction* concat_weights =
+                computation->AddInstruction(HloInstruction::CreateConcatenate(
+                    concat_shape, reshaped_array_weights, 0));
+
+            DotDimensionNumbers dnums;
+            dnums.add_lhs_contracting_dimensions(0);
+            dnums.add_rhs_contracting_dimensions(0);
+            for (int i = 1; i <= rank; ++i) {
+              dnums.add_lhs_batch_dimensions(i);
+              dnums.add_rhs_batch_dimensions(i);
+            }
+            PrecisionConfig precision_config;
+            precision_config.add_operand_precision(PrecisionConfig::DEFAULT);
+            precision_config.add_operand_precision(PrecisionConfig::DEFAULT);
+
+            replacement = computation->AddInstruction(
+                HloInstruction::CreateDot(inst->shape(), concat, concat_weights,
+                                          dnums, precision_config));
+            TF_RETURN_IF_ERROR(
+                computation->ReplaceInstruction(inst, replacement));
+            changed = true;
+            continue;
+          } else {
+            Literal weights_literal = primitive_util::PrimitiveTypeSwitch<
+                Literal>(
+                [&](auto primitive_type_constant) -> Literal {
+                  if constexpr (primitive_util::IsArrayType(
+                                    primitive_type_constant)) {
+                    if constexpr (primitive_type_constant == PRED) {
+                      std::unique_ptr<bool[]> bool_vals(
+                          new bool[folded.size()]);
+                      for (size_t i = 0; i < folded.size(); ++i) {
+                        bool_vals[i] = folded[i].weight.GetFirstElement<bool>();
+                      }
+                      return LiteralUtil::CreateR1<bool>(absl::Span<const bool>(
+                          bool_vals.get(), folded.size()));
+                    } else {
+                      using NativeT =
+                          primitive_util::NativeTypeOf<primitive_type_constant>;
+                      std::vector<NativeT> vals;
+                      vals.reserve(folded.size());
+                      for (auto& ws : folded) {
+                        vals.push_back(ws.weight.GetFirstElement<NativeT>());
+                      }
+                      return LiteralUtil::CreateR1<NativeT>(vals);
+                    }
+                  }
+                  LOG(FATAL) << "Unsupported array type";
+                },
+                ptype);
+
+            HloInstruction* weights = computation->AddInstruction(
+                HloInstruction::CreateConstant(std::move(weights_literal)));
+            DotDimensionNumbers dnums;
+            dnums.add_lhs_contracting_dimensions(0);
+            dnums.add_rhs_contracting_dimensions(0);
+            PrecisionConfig precision_config;
+            precision_config.add_operand_precision(PrecisionConfig::DEFAULT);
+            precision_config.add_operand_precision(PrecisionConfig::DEFAULT);
+
+            replacement = computation->AddInstruction(HloInstruction::CreateDot(
+                inst->shape(), concat, weights, dnums, precision_config));
+            TF_RETURN_IF_ERROR(
+                computation->ReplaceInstruction(inst, replacement));
+            changed = true;
+            continue;
+          }
+        }
+      }
+    }
+  }
+
+  return changed;
+}
+
+}  // namespace
+
+absl::StatusOr<bool> RecognizeReduceWindow::RunImpl(
+    HloModule* module,
+    const absl::flat_hash_set<absl::string_view>& execution_threads) {
+  bool changed = false;
+  std::vector<HloComputation*> computations =
+      module->MakeNonfusionComputations(execution_threads);
+  for (HloComputation* computation : computations) {
+    TF_ASSIGN_OR_RETURN(bool computation_changed,
+                        RunOnComputation(computation));
+    changed |= computation_changed;
+
+    // Post-order traversal for DCE
+    if (computation_changed) {
+      bool dce_changed = true;
+      while (dce_changed) {
+        dce_changed = false;
+        std::vector<HloInstruction*> dce_instructions =
+            computation->MakeInstructionPostOrder();
+        for (auto it = dce_instructions.rbegin(); it != dce_instructions.rend();
+             ++it) {
+          HloInstruction* dce_inst = *it;
+          if (dce_inst->user_count() == 0 && !dce_inst->HasSideEffect() &&
+              computation->root_instruction() != dce_inst &&
+              computation->IsSafelyRemovable(dce_inst)) {
+            TF_RETURN_IF_ERROR(computation->RemoveInstruction(dce_inst));
+            dce_changed = true;
+          }
+        }
+      }
+    }
+  }
+  return changed;
+}
+
+}  // namespace xla
diff --git a/xla/hlo/transforms/simplifiers/recognize_reduce_window.h b/xla/hlo/transforms/simplifiers/recognize_reduce_window.h
new file mode 100644
index 0000000000..716c098021
--- /dev/null
+++ b/xla/hlo/transforms/simplifiers/recognize_reduce_window.h
@@ -0,0 +1,43 @@
+/* Copyright 2026 The OpenXLA Authors.
+
+Licensed under the Apache License, Version 2.0 (the "License");
+you may not use this file except in compliance with the License.
+You may obtain a copy of the License at
+
+    http://www.apache.org/licenses/LICENSE-2.0
+
+Unless required by applicable law or agreed to in writing, software
+distributed under the License is distributed on an "AS IS" BASIS,
+WITHOUT WARRANTIES OR CONDITIONS OF ANY KIND, either express or implied.
+See the License for the specific language governing permissions and
+limitations under the License.
+==============================================================================*/
+
+#ifndef XLA_HLO_TRANSFORMS_SIMPLIFIERS_RECOGNIZE_REDUCE_WINDOW_H_
+#define XLA_HLO_TRANSFORMS_SIMPLIFIERS_RECOGNIZE_REDUCE_WINDOW_H_
+
+#include "absl/container/flat_hash_set.h"
+#include "absl/status/statusor.h"
+#include "absl/strings/string_view.h"
+#include "xla/hlo/ir/hlo_module.h"
+#include "xla/hlo/pass/hlo_pass_interface.h"
+
+namespace xla {
+
+// An HLO pass that recognizes overlapping slices and pads being combined via
+// elementwise operations and transforms them into reduce_window operations.
+class RecognizeReduceWindow : public HloModulePass {
+ public:
+  RecognizeReduceWindow() = default;
+
+  absl::string_view name() const override { return "recognize-reduce-window"; }
+
+ protected:
+  absl::StatusOr<bool> RunImpl(
+      HloModule* module,
+      const absl::flat_hash_set<absl::string_view>& execution_threads) override;
+};
+
+}  // namespace xla
+
+#endif  // XLA_HLO_TRANSFORMS_SIMPLIFIERS_RECOGNIZE_REDUCE_WINDOW_H_
diff --git a/xla/hlo/transforms/simplifiers/recognize_reduce_window_test.cc b/xla/hlo/transforms/simplifiers/recognize_reduce_window_test.cc
new file mode 100644
index 0000000000..5e4e12179e
--- /dev/null
+++ b/xla/hlo/transforms/simplifiers/recognize_reduce_window_test.cc
@@ -0,0 +1,922 @@
+/* Copyright 2025 The OpenXLA Authors.
+
+Licensed under the Apache License, Version 2.0 (the "License");
+you may not use this file except in compliance with the License.
+You may obtain a copy of the License at
+
+    http://www.apache.org/licenses/LICENSE-2.0
+
+Unless required by applicable law or agreed to in writing, software
+distributed under the License is distributed on an "AS IS" BASIS,
+WITHOUT WARRANTIES OR CONDITIONS OF ANY KIND, either express or implied.
+See the License for the specific language governing permissions and
+limitations under the License.
+==============================================================================*/
+
+#include "xla/hlo/transforms/simplifiers/recognize_reduce_window.h"
+
+#include <memory>
+#include <string>
+
+#include <gtest/gtest.h>
+#include "absl/strings/string_view.h"
+#include "xla/hlo/ir/hlo_computation.h"
+#include "xla/hlo/ir/hlo_instruction.h"
+#include "xla/hlo/ir/hlo_module.h"
+#include "xla/hlo/testlib/hlo_hardware_independent_test_base.h"
+#include "xla/tests/hlo_test_base.h"
+
+namespace xla {
+namespace {
+
+class RecognizeReduceWindowTest : public HloHardwareIndependentTestBase {
+ public:
+  void CheckRecognizeReduceWindow(absl::string_view hlo,
+                                  std::optional<absl::string_view> expected,
+                                  int32_t optimization_level = 1) {
+    auto config = GetModuleConfigForTest();
+    config.mutable_debug_options()
+        .set_xla_recognize_reduction_optimization_level(optimization_level);
+
+    RunAndFilecheckHloRewrite(
+        hlo, RecognizeReduceWindow{}, expected, [](HloModule*) {}, &config);
+  }
+};
+
+TEST_F(RecognizeReduceWindowTest, NonMatchingOpcode) {
+  const absl::string_view hlo_string = R"(
+HloModule NonMatchingOpcode
+
+ENTRY main {
+  x = f32[10] parameter(0)
+  slice_1 = f32[8] slice(x), slice={[0:8]}
+  slice_2 = f32[8] slice(x), slice={[2:10]}
+  ROOT div = f32[8] divide(slice_1, slice_2)
+}
+)";
+  // Should not match because divide is not commutative.
+  CheckRecognizeReduceWindow(hlo_string, std::nullopt);
+}
+
+TEST_F(RecognizeReduceWindowTest, UserExample) {
+  const absl::string_view hlo_string = R"(
+HloModule UserExample
+
+ENTRY main {
+  %concatenate.136 = f64[4,760,1534]{2,1,0} parameter(0)
+  %slice.446 = f64[4,760,1528]{2,1,0} slice(%concatenate.136), slice={[0:4], [0:760], [3:1531]}
+  %slice.447 = f64[4,760,1528]{2,1,0} slice(%concatenate.136), slice={[0:4], [0:760], [2:1530]}
+  ROOT %add = f64[4,760,1528]{2,1,0} add(%slice.446, %slice.447)
+}
+)";
+  const absl::string_view expected = R"(
+// CHECK: reduce-window
+  )";
+  CheckRecognizeReduceWindow(hlo_string, expected);
+}
+
+TEST_F(RecognizeReduceWindowTest, AddTwoSlices) {
+  const absl::string_view hlo_string = R"(
+HloModule AddTwoSlices
+
+ENTRY main {
+  x = f32[10] parameter(0)
+  slice_1 = f32[8] slice(x), slice={[0:8]}
+  slice_2 = f32[8] slice(x), slice={[2:10]}
+  ROOT add = f32[8] add(slice_1, slice_2)
+}
+)";
+  CheckRecognizeReduceWindow(hlo_string, R"(
+// CHECK: %[[REDUCER_NAME:.*]] ({{.*}}) -> f32[] {
+// CHECK:   [[LHS:%.*]] = f32[] parameter(0)
+// CHECK:   [[RHS:%.*]] = f32[] parameter(1)
+// CHECK:   ROOT {{.*}} = f32[] add([[LHS]], [[RHS]])
+// CHECK: }
+// CHECK: ENTRY %main ({{.*}}: f32[10]) -> f32[8] {
+// CHECK:   [[X:%.*]] = f32[10]{0} parameter(0)
+// CHECK:   [[SLICE:%.*]] = f32[10]{0} slice([[X]]), slice={[0:10]}
+// CHECK:   [[ZERO:%.*]] = f32[] constant(0)
+// CHECK:   ROOT {{.*}} = f32[8]{0} reduce-window([[SLICE]], [[ZERO]]), window={size=2 rhs_dilate=2}, to_apply=%[[REDUCER_NAME]]
+// CHECK: }
+)");
+}
+
+TEST_F(RecognizeReduceWindowTest, AddTwoPads) {
+  const absl::string_view hlo_string = R"(
+HloModule AddTwoPads
+
+ENTRY main {
+  x = f32[10] parameter(0)
+  pad_val = f32[] constant(0.0)
+  pad_1 = f32[12] pad(x, pad_val), padding=2_0
+  pad_2 = f32[12] pad(x, pad_val), padding=0_2
+  ROOT add = f32[12] add(pad_1, pad_2)
+}
+)";
+  CheckRecognizeReduceWindow(hlo_string, R"(
+// CHECK: %[[REDUCER_NAME:.*]] ({{.*}}) -> f32[] {
+// CHECK:   [[LHS:%.*]] = f32[] parameter(0)
+// CHECK:   [[RHS:%.*]] = f32[] parameter(1)
+// CHECK:   ROOT {{.*}} = f32[] add([[LHS]], [[RHS]])
+// CHECK: }
+// CHECK: ENTRY %main ({{.*}}: f32[10]) -> f32[12] {
+// CHECK:   [[X:%.*]] = f32[10]{0} parameter(0)
+// CHECK:   [[PAD_VAL:%.*]] = f32[] constant(0)
+// CHECK:   [[PAD_UNION:%.*]] = f32[14]{0} pad([[X]], [[PAD_VAL]]), padding=2_2
+// CHECK:   [[ZERO:%.*]] = f32[] constant(0)
+// CHECK:   ROOT {{.*}} = f32[12]{0} reduce-window([[PAD_UNION]], [[ZERO]]), window={size=2 rhs_dilate=2}, to_apply=%[[REDUCER_NAME]]
+// CHECK: }
+)");
+}
+
+TEST_F(RecognizeReduceWindowTest, AddChainedPads) {
+  const absl::string_view hlo_string = R"(
+HloModule AddChainedPads
+
+ENTRY main {
+  x = f32[10] parameter(0)
+  pad_val = f32[] constant(0.0)
+  pad_1 = f32[14] pad(x, pad_val), padding=4_0
+  pad_2 = f32[14] pad(x, pad_val), padding=2_2
+  pad_3 = f32[14] pad(x, pad_val), padding=0_4
+  add_1 = f32[14] add(pad_1, pad_2)
+  ROOT add_2 = f32[14] add(add_1, pad_3)
+}
+)";
+  CheckRecognizeReduceWindow(hlo_string, R"(
+// CHECK: %[[REDUCER_NAME:.*]] ({{.*}}) -> f32[] {
+// CHECK:   [[LHS:%.*]] = f32[] parameter(0)
+// CHECK:   [[RHS:%.*]] = f32[] parameter(1)
+// CHECK:   ROOT {{.*}} = f32[] add([[LHS]], [[RHS]])
+// CHECK: }
+// CHECK: ENTRY %main ({{.*}}: f32[10]) -> f32[14] {
+// CHECK:   [[X:%.*]] = f32[10]{0} parameter(0)
+// CHECK:   [[PAD_VAL:%.*]] = f32[] constant(0)
+// CHECK:   [[PAD_UNION:%.*]] = f32[18]{0} pad([[X]], [[PAD_VAL]]), padding=4_4
+// CHECK:   [[ZERO:%.*]] = f32[] constant(0)
+// CHECK:   ROOT {{.*}} = f32[14]{0} reduce-window([[PAD_UNION]], [[ZERO]]), window={size=3 rhs_dilate=2}, to_apply=%[[REDUCER_NAME]]
+// CHECK: }
+)");
+}
+
+TEST_F(RecognizeReduceWindowTest, AddFourChainedSlices) {
+  const absl::string_view hlo_string = R"(
+HloModule AddFourChainedSlices
+
+ENTRY main {
+  x = f32[10] parameter(0)
+  slice_1 = f32[4] slice(x), slice={[0:4]}
+  slice_2 = f32[4] slice(x), slice={[2:6]}
+  slice_3 = f32[4] slice(x), slice={[4:8]}
+  slice_4 = f32[4] slice(x), slice={[6:10]}
+  add_1 = f32[4] add(slice_1, slice_2)
+  add_2 = f32[4] add(add_1, slice_3)
+  ROOT add_3 = f32[4] add(add_2, slice_4)
+}
+)";
+  CheckRecognizeReduceWindow(hlo_string, R"(
+// CHECK: %[[REDUCER_NAME:.*]] ({{.*}}) -> f32[] {
+// CHECK:   [[LHS:%.*]] = f32[] parameter(0)
+// CHECK:   [[RHS:%.*]] = f32[] parameter(1)
+// CHECK:   ROOT {{.*}} = f32[] add([[LHS]], [[RHS]])
+// CHECK: }
+// CHECK: ENTRY %main ({{.*}}: f32[10]) -> f32[4] {
+// CHECK:   [[X:%.*]] = f32[10]{0} parameter(0)
+// CHECK:   [[SLICE:%.*]] = f32[10]{0} slice([[X]]), slice={[0:10]}
+// CHECK:   [[ZERO:%.*]] = f32[] constant(0)
+// CHECK:   ROOT {{.*}} = f32[4]{0} reduce-window([[SLICE]], [[ZERO]]), window={size=4 rhs_dilate=2}, to_apply=%[[REDUCER_NAME]]
+// CHECK: }
+)");
+}
+
+TEST_F(RecognizeReduceWindowTest, AddChainedSlices) {
+  const absl::string_view hlo_string = R"(
+HloModule AddChainedSlices
+
+ENTRY main {
+  x = f32[10] parameter(0)
+  slice_1 = f32[6] slice(x), slice={[0:6]}
+  slice_2 = f32[6] slice(x), slice={[2:8]}
+  slice_3 = f32[6] slice(x), slice={[4:10]}
+  add_1 = f32[6] add(slice_1, slice_2)
+  ROOT add_2 = f32[6] add(add_1, slice_3)
+}
+)";
+  CheckRecognizeReduceWindow(hlo_string, R"(
+// CHECK: %[[REDUCER_NAME:.*]] ({{.*}}) -> f32[] {
+// CHECK:   [[LHS:%.*]] = f32[] parameter(0)
+// CHECK:   [[RHS:%.*]] = f32[] parameter(1)
+// CHECK:   ROOT {{.*}} = f32[] add([[LHS]], [[RHS]])
+// CHECK: }
+// CHECK: ENTRY %main ({{.*}}: f32[10]) -> f32[6] {
+// CHECK:   [[X:%.*]] = f32[10]{0} parameter(0)
+// CHECK:   [[SLICE:%.*]] = f32[10]{0} slice([[X]]), slice={[0:10]}
+// CHECK:   [[ZERO:%.*]] = f32[] constant(0)
+// CHECK:   ROOT {{.*}} = f32[6]{0} reduce-window([[SLICE]], [[ZERO]]), window={size=3 rhs_dilate=2}, to_apply=%[[REDUCER_NAME]]
+// CHECK: }
+)");
+}
+
+TEST_F(RecognizeReduceWindowTest, SubtractSlicesToDotGeneral) {
+  const absl::string_view hlo_string = R"(
+HloModule SubtractSlices
+
+ENTRY main {
+  x = f32[10] parameter(0)
+  slice_1 = f32[8] slice(x), slice={[0:8]}
+  slice_2 = f32[8] slice(x), slice={[2:10]}
+  ROOT sub = f32[8] subtract(slice_1, slice_2)
+}
+)";
+  CheckRecognizeReduceWindow(hlo_string, R"(
+// CHECK: ENTRY %main ({{.*}}: f32[10]) -> f32[8] {
+// CHECK:   [[X:%.*]] = f32[10]{0} parameter(0)
+// CHECK:   [[SLICE_1:%.*]] = f32[8]{0} slice([[X]]), slice={[0:8]}
+// CHECK:   [[RESHAPE:%.*]] = f32[1,8]{1,0} reshape([[SLICE_1]])
+// CHECK:   [[SLICE_2:%.*]] = f32[8]{0} slice([[X]]), slice={[2:10]}
+// CHECK:   [[RESHAPE_1:%.*]] = f32[1,8]{1,0} reshape([[SLICE_2]])
+// CHECK:   [[CONCAT:%.*]] = f32[2,8]{1,0} concatenate([[RESHAPE]], [[RESHAPE_1]]), dimensions={0}
+// CHECK:   [[CONSTANT:%.*]] = f32[2]{0} constant({1, -1})
+// CHECK:   ROOT {{.*}} = f32[8]{0} dot([[CONCAT]], [[CONSTANT]]), lhs_contracting_dims={0}, rhs_contracting_dims={0}
+// CHECK: }
+)",
+                             2);
+  CheckRecognizeReduceWindow(hlo_string, std::nullopt, 1);
+}
+
+TEST_F(RecognizeReduceWindowTest, FlattenAndSortWeightedSlices) {
+  const absl::string_view hlo_string = R"(
+HloModule FlattenSlices
+
+ENTRY main {
+  x = f32[10] parameter(0)
+  slice_0 = f32[8] slice(x), slice={[1:9]}
+  slice_1 = f32[8] slice(x), slice={[0:8]}
+  slice_2 = f32[8] slice(x), slice={[2:10]}
+  sub_1 = f32[8] subtract(slice_1, slice_2)
+  ROOT add = f32[8] add(sub_1, slice_0)
+}
+)";
+  CheckRecognizeReduceWindow(hlo_string, R"(
+// CHECK: ENTRY %main ({{.*}}: f32[10]) -> f32[8] {
+// CHECK:   [[X:%.*]] = f32[10]{0} parameter(0)
+// CHECK:   [[SLICE_1:%.*]] = f32[8]{0} slice([[X]]), slice={[0:8]}
+// CHECK:   [[RESHAPE_1:%.*]] = f32[1,8]{1,0} reshape([[SLICE_1]])
+// CHECK:   [[SLICE_0:%.*]] = f32[8]{0} slice([[X]]), slice={[1:9]}
+// CHECK:   [[RESHAPE_0:%.*]] = f32[1,8]{1,0} reshape([[SLICE_0]])
+// CHECK:   [[SLICE_2:%.*]] = f32[8]{0} slice([[X]]), slice={[2:10]}
+// CHECK:   [[RESHAPE_2:%.*]] = f32[1,8]{1,0} reshape([[SLICE_2]])
+// CHECK:   [[CONCAT:%.*]] = f32[3,8]{1,0} concatenate([[RESHAPE_1]], [[RESHAPE_0]], [[RESHAPE_2]]), dimensions={0}
+// CHECK:   [[CONSTANT:%.*]] = f32[3]{0} constant({1, 1, -1})
+// CHECK:   ROOT {{.*}} = f32[8]{0} dot([[CONCAT]], [[CONSTANT]]), lhs_contracting_dims={0}, rhs_contracting_dims={0}
+// CHECK: }
+)",
+                             2);
+  CheckRecognizeReduceWindow(hlo_string, std::nullopt, 1);
+}
+
+TEST_F(RecognizeReduceWindowTest, HeterogeneousConvolutionToDot) {
+  const absl::string_view hlo_string = R"(
+HloModule HeterogeneousConvolutionToDot
+
+ENTRY main {
+  x = f32[10] parameter(0)
+  w1 = f32[10] parameter(1)
+  x_1 = f32[8] slice(x), slice={[0:8]}
+  w_1 = f32[8] slice(w1), slice={[0:8]}
+  m_1 = f32[8] multiply(x_1, w_1)
+  
+  y = f32[10] parameter(2)
+  w2 = f32[10] parameter(3)
+  x_2 = f32[8] slice(y), slice={[2:10]}
+  w_2 = f32[8] slice(w2), slice={[2:10]}
+  m_2 = f32[8] multiply(x_2, w_2)
+  
+  ROOT add = f32[8] add(m_1, m_2)
+}
+)";
+  CheckRecognizeReduceWindow(hlo_string, R"(
+// CHECK: ENTRY %main ({{.*}}: f32[10], {{.*}}: f32[10], {{.*}}: f32[10], {{.*}}: f32[10]) -> f32[8] {
+// CHECK:   [[W1:%.*]] = f32[10]{0} parameter(1)
+// CHECK:   [[SLICE_W1:%.*]] = f32[8]{0} slice([[W1]]), slice={[0:8]}
+// CHECK:   [[RESHAPE_W1:%.*]] = f32[1,8]{1,0} reshape([[SLICE_W1]])
+// CHECK:   [[W2:%.*]] = f32[10]{0} parameter(3)
+// CHECK:   [[SLICE_W2:%.*]] = f32[8]{0} slice([[W2]]), slice={[2:10]}
+// CHECK:   [[RESHAPE_W2:%.*]] = f32[1,8]{1,0} reshape([[SLICE_W2]])
+// CHECK:   [[CONCAT_W:%.*]] = f32[2,8]{1,0} concatenate([[RESHAPE_W1]], [[RESHAPE_W2]]), dimensions={0}
+// CHECK:   [[X:%.*]] = f32[10]{0} parameter(0)
+// CHECK:   [[SLICE_X1:%.*]] = f32[8]{0} slice([[X]]), slice={[0:8]}
+// CHECK:   [[RESHAPE_X1:%.*]] = f32[1,8]{1,0} reshape([[SLICE_X1]])
+// CHECK:   [[Y:%.*]] = f32[10]{0} parameter(2)
+// CHECK:   [[SLICE_Y2:%.*]] = f32[8]{0} slice([[Y]]), slice={[2:10]}
+// CHECK:   [[RESHAPE_Y2:%.*]] = f32[1,8]{1,0} reshape([[SLICE_Y2]])
+// CHECK:   [[CONCAT_XY:%.*]] = f32[2,8]{1,0} concatenate([[RESHAPE_X1]], [[RESHAPE_Y2]]), dimensions={0}
+// CHECK:   ROOT {{.*}} = f32[8]{0} dot([[CONCAT_W]], [[CONCAT_XY]]), lhs_batch_dims={1}, lhs_contracting_dims={0}, rhs_batch_dims={1}, rhs_contracting_dims={0}
+// CHECK: }
+)",
+                             3);
+  CheckRecognizeReduceWindow(hlo_string, std::nullopt, 2);
+}
+
+TEST_F(RecognizeReduceWindowTest, WeightedSlicesToDotGeneral) {
+  const absl::string_view hlo_string = R"(
+HloModule WeightedSlices
+
+ENTRY main {
+  x = f32[10] parameter(0)
+  slice_1 = f32[8] slice(x), slice={[0:8]}
+  c1 = f32[] constant(3)
+  b1 = f32[8] broadcast(c1), dimensions={}
+  m1 = f32[8] multiply(slice_1, b1)
+  slice_2 = f32[8] slice(x), slice={[2:10]}
+  c2 = f32[] constant(4)
+  b2 = f32[8] broadcast(c2), dimensions={}
+  m2 = f32[8] multiply(slice_2, b2)
+  ROOT add = f32[8] add(m1, m2)
+}
+)";
+  CheckRecognizeReduceWindow(hlo_string, R"(
+// CHECK: ENTRY %main ({{.*}}: f32[10]) -> f32[8] {
+// CHECK:   [[X:%.*]] = f32[10]{0} parameter(0)
+// CHECK:   [[SLICE_1:%.*]] = f32[8]{0} slice([[X]]), slice={[0:8]}
+// CHECK:   [[RESHAPE_1:%.*]] = f32[1,8]{1,0} reshape([[SLICE_1]])
+// CHECK:   [[SLICE_2:%.*]] = f32[8]{0} slice([[X]]), slice={[2:10]}
+// CHECK:   [[RESHAPE_2:%.*]] = f32[1,8]{1,0} reshape([[SLICE_2]])
+// CHECK:   [[CONCAT:%.*]] = f32[2,8]{1,0} concatenate([[RESHAPE_1]], [[RESHAPE_2]]), dimensions={0}
+// CHECK:   [[CONSTANT:%.*]] = f32[2]{0} constant({3, 4})
+// CHECK:   ROOT {{.*}} = f32[8]{0} dot([[CONCAT]], [[CONSTANT]]), lhs_contracting_dims={0}, rhs_contracting_dims={0}
+// CHECK: }
+)",
+                             2);
+  CheckRecognizeReduceWindow(hlo_string, std::nullopt, 1);
+}
+
+TEST_F(RecognizeReduceWindowTest, AddChainedDynamicSlices) {
+  const absl::string_view hlo_string = R"(
+HloModule AddChainedDynamicSlices
+
+ENTRY main {
+  x = f32[10] parameter(0)
+  c_0 = s32[] constant(0)
+  slice_1 = f32[6] dynamic-slice(x, c_0), dynamic_slice_sizes={6}
+  c_2 = s32[] constant(2)
+  slice_2 = f32[6] dynamic-slice(x, c_2), dynamic_slice_sizes={6}
+  c_4 = s32[] constant(4)
+  slice_3 = f32[6] dynamic-slice(x, c_4), dynamic_slice_sizes={6}
+  add_1 = f32[6] add(slice_1, slice_2)
+  ROOT add_2 = f32[6] add(add_1, slice_3)
+}
+)";
+  CheckRecognizeReduceWindow(hlo_string, R"(
+// CHECK: %[[REDUCER_NAME:.*]] ({{.*}}) -> f32[] {
+// CHECK:   [[LHS:%.*]] = f32[] parameter(0)
+// CHECK:   [[RHS:%.*]] = f32[] parameter(1)
+// CHECK:   ROOT {{.*}} = f32[] add([[LHS]], [[RHS]])
+// CHECK: }
+// CHECK: ENTRY %main ({{.*}}: f32[10]) -> f32[6] {
+// CHECK:   [[X:%.*]] = f32[10]{0} parameter(0)
+// CHECK:   [[SLICE:%.*]] = f32[10]{0} slice([[X]]), slice={[0:10]}
+// CHECK:   [[ZERO:%.*]] = f32[] constant(0)
+// CHECK:   ROOT {{.*}} = f32[6]{0} reduce-window([[SLICE]], [[ZERO]]), window={size=3 rhs_dilate=2}, to_apply=%[[REDUCER_NAME]]
+// CHECK: }
+)");
+}
+
+TEST_F(RecognizeReduceWindowTest, DynamicSliceOutOfBoundsClamping) {
+  const absl::string_view hlo_string = R"(
+HloModule DynamicSliceOutOfBoundsClamping
+
+ENTRY main {
+  x = f32[10] parameter(0)
+  c_neg = s32[] constant(-5)
+  slice_1 = f32[6] dynamic-slice(x, c_neg), dynamic_slice_sizes={6}
+  c_15 = s32[] constant(15)
+  slice_2 = f32[6] dynamic-slice(x, c_15), dynamic_slice_sizes={6}
+  ROOT add = f32[6] add(slice_1, slice_2)
+}
+)";
+  CheckRecognizeReduceWindow(hlo_string, R"(
+// CHECK: %[[REDUCER_NAME:.*]] ({{.*}}) -> f32[] {
+// CHECK:   [[LHS:%.*]] = f32[] parameter(0)
+// CHECK:   [[RHS:%.*]] = f32[] parameter(1)
+// CHECK:   ROOT {{.*}} = f32[] add([[LHS]], [[RHS]])
+// CHECK: }
+// CHECK: ENTRY %main ({{.*}}: f32[10]) -> f32[6] {
+// CHECK:   [[X:%.*]] = f32[10]{0} parameter(0)
+// CHECK:   [[SLICE:%.*]] = f32[10]{0} slice([[X]]), slice={[0:10]}
+// CHECK:   [[ZERO:%.*]] = f32[] constant(0)
+// CHECK:   ROOT {{.*}} = f32[6]{0} reduce-window([[SLICE]], [[ZERO]]), window={size=2 rhs_dilate=4}, to_apply=%[[REDUCER_NAME]]
+// CHECK: }
+)");
+}
+
+TEST_F(RecognizeReduceWindowTest, ArrayWeightConvolution) {
+  const absl::string_view hlo_string = R"(
+HloModule ArrayWeightConvolution
+
+ENTRY main {
+  x = f32[10] parameter(0)
+  w = f32[10] parameter(1)
+  x_1 = f32[8] slice(x), slice={[0:8]}
+  w_1 = f32[8] slice(w), slice={[0:8]}
+  m_1 = f32[8] multiply(x_1, w_1)
+  x_2 = f32[8] slice(x), slice={[2:10]}
+  w_2 = f32[8] slice(w), slice={[2:10]}
+  m_2 = f32[8] multiply(x_2, w_2)
+  ROOT add = f32[8] add(m_1, m_2)
+}
+)";
+  CheckRecognizeReduceWindow(hlo_string, R"(
+// CHECK: ENTRY %main ({{.*}}: f32[10], {{.*}}: f32[10]) -> f32[8] {
+// CHECK:   [[W:%.*]] = f32[10]{0} parameter(1)
+// CHECK:   [[SLICE_W1:%.*]] = f32[8]{0} slice([[W]]), slice={[0:8]}
+// CHECK:   [[RESHAPE_W1:%.*]] = f32[1,8]{1,0} reshape([[SLICE_W1]])
+// CHECK:   [[SLICE_W2:%.*]] = f32[8]{0} slice([[W]]), slice={[2:10]}
+// CHECK:   [[RESHAPE_W2:%.*]] = f32[1,8]{1,0} reshape([[SLICE_W2]])
+// CHECK:   [[CONCAT_W:%.*]] = f32[2,8]{1,0} concatenate([[RESHAPE_W1]], [[RESHAPE_W2]]), dimensions={0}
+// CHECK:   [[X:%.*]] = f32[10]{0} parameter(0)
+// CHECK:   [[SLICE_X1:%.*]] = f32[8]{0} slice([[X]]), slice={[0:8]}
+// CHECK:   [[RESHAPE_X1:%.*]] = f32[1,8]{1,0} reshape([[SLICE_X1]])
+// CHECK:   [[SLICE_X2:%.*]] = f32[8]{0} slice([[X]]), slice={[2:10]}
+// CHECK:   [[RESHAPE_X2:%.*]] = f32[1,8]{1,0} reshape([[SLICE_X2]])
+// CHECK:   [[CONCAT_X:%.*]] = f32[2,8]{1,0} concatenate([[RESHAPE_X1]], [[RESHAPE_X2]]), dimensions={0}
+// CHECK:   ROOT {{.*}} = f32[8]{0} dot([[CONCAT_W]], [[CONCAT_X]]), lhs_batch_dims={1}, lhs_contracting_dims={0}, rhs_batch_dims={1}, rhs_contracting_dims={0}
+// CHECK: }
+)",
+                             3);
+  CheckRecognizeReduceWindow(hlo_string, std::nullopt, 2);
+}
+
+}  // namespace
+
+TEST_F(RecognizeReduceWindowTest, UniversalDotGeneralFusion) {
+  const absl::string_view hlo_string = R"(
+HloModule UniversalDotGeneralFusion
+
+ENTRY main {
+  x = f32[10] parameter(0)
+  w1 = f32[10] parameter(1)
+  
+  // Create non-slice matching geometry arrays
+  x_1 = f32[10] reshape(x)
+  w_1 = f32[10] reshape(w1)
+  
+  m_1 = f32[10] multiply(x_1, w_1)
+  
+  y = f32[10] parameter(2)
+  w2 = f32[10] parameter(3)
+
+  x_2 = f32[10] reshape(y)
+  w_2 = f32[10] reshape(w2)
+
+  m_2 = f32[10] multiply(x_2, w_2)
+  
+  ROOT add = f32[10] add(m_1, m_2)
+}
+)";
+  CheckRecognizeReduceWindow(hlo_string, R"(
+// CHECK: ENTRY %main (x: f32[10], w1: f32[10], y: f32[10], w2: f32[10]) -> f32[10] {
+// CHECK:   %w1 = f32[10]{0} parameter(1)
+// CHECK:   %w_1 = f32[10]{0} reshape(%w1)
+// CHECK:   %reshape = f32[1,10]{1,0} reshape(%w_1)
+// CHECK:   %w2 = f32[10]{0} parameter(3)
+// CHECK:   %w_2 = f32[10]{0} reshape(%w2)
+// CHECK:   %reshape.2 = f32[1,10]{1,0} reshape(%w_2)
+// CHECK:   %concatenate = f32[2,10]{1,0} concatenate(%reshape, %reshape.2), dimensions={0}
+// CHECK:   %x = f32[10]{0} parameter(0)
+// CHECK:   %x_1 = f32[10]{0} reshape(%x)
+// CHECK:   %reshape.1 = f32[1,10]{1,0} reshape(%x_1)
+// CHECK:   %y = f32[10]{0} parameter(2)
+// CHECK:   %x_2 = f32[10]{0} reshape(%y)
+// CHECK:   %reshape.3 = f32[1,10]{1,0} reshape(%x_2)
+// CHECK:   %concatenate.1 = f32[2,10]{1,0} concatenate(%reshape.1, %reshape.3), dimensions={0}
+// CHECK:   ROOT %dot = f32[10]{0} dot(%concatenate, %concatenate.1), lhs_batch_dims={1}, lhs_contracting_dims={0}, rhs_batch_dims={1}, rhs_contracting_dims={0}
+// CHECK: }
+)",
+                             3);
+  CheckRecognizeReduceWindow(hlo_string, std::nullopt, 2);
+}
+
+TEST_F(RecognizeReduceWindowTest, DeadParameterDoesNotCrash) {
+  const absl::string_view hlo_string = R"(
+HloModule DeadParameterDoesNotCrash
+
+ENTRY main {
+  x = f32[10] parameter(0)
+  dead = f32[10] parameter(1)
+  
+  slice_1 = f32[8] slice(x), slice={[0:8]}
+  slice_2 = f32[8] slice(x), slice={[2:10]}
+  
+  ROOT add = f32[8] add(slice_1, slice_2)
+}
+)";
+  CheckRecognizeReduceWindow(hlo_string, R"(
+// CHECK: %[[REDUCER_NAME:.*]] ({{.*}}) -> f32[] {
+// CHECK:   [[LHS:%.*]] = f32[] parameter(0)
+// CHECK:   [[RHS:%.*]] = f32[] parameter(1)
+// CHECK:   ROOT {{.*}} = f32[] add([[LHS]], [[RHS]])
+// CHECK: }
+// CHECK: ENTRY %main ({{.*}}: f32[10], {{.*}}: f32[10]) -> f32[8] {
+// CHECK-DAG:   [[DEAD:%.*]] = f32[10]{0} parameter(1)
+// CHECK-DAG:   [[X:%.*]] = f32[10]{0} parameter(0)
+// CHECK:   [[SLICE:%.*]] = f32[10]{0} slice([[X]]), slice={[0:10]}
+// CHECK:   [[ZERO:%.*]] = f32[] constant(0)
+// CHECK:   ROOT {{.*}} = f32[8]{0} reduce-window([[SLICE]], [[ZERO]]), window={size=2 rhs_dilate=2}, to_apply=%[[REDUCER_NAME]]
+// CHECK: }
+)");
+}
+
+TEST_F(RecognizeReduceWindowTest, XMinusX) {
+  const absl::string_view hlo_string = R"(
+HloModule XMinusX
+
+ENTRY main {
+  x = f32[10] parameter(0)
+  ROOT res = f32[10] subtract(x, x)
+}
+)";
+  CheckRecognizeReduceWindow(hlo_string, R"(
+// CHECK: %main ({{.*}}) -> f32[10] {
+// CHECK:   [[ZERO:%.*]] = f32[] constant(0)
+// CHECK:   ROOT {{.*}} = f32[10]{0} broadcast([[ZERO]]), dimensions={}
+// CHECK: }
+)");
+}
+
+TEST_F(RecognizeReduceWindowTest, ThreeXMinusTwoX) {
+  // 3 * x + (-2) * x -> x
+  const absl::string_view hlo_string = R"(
+HloModule ThreeXMinusTwoX
+
+ENTRY main {
+  x = f32[10] parameter(0)
+  p3 = f32[] constant(3)
+  b3 = f32[10] broadcast(p3), dimensions={}
+  m3 = f32[10] multiply(x, b3)
+  
+  p2 = f32[] constant(2)
+  b2 = f32[10] broadcast(p2), dimensions={}
+  m2 = f32[10] multiply(x, b2)
+  
+  ROOT res = f32[10] subtract(m3, m2)
+}
+)";
+  CheckRecognizeReduceWindow(hlo_string, R"(
+// CHECK: %main ({{.*}}) -> f32[10] {
+// CHECK:   ROOT [[X:%.*]] = f32[10]{0} parameter(0)
+// CHECK: }
+)");
+}
+
+TEST_F(RecognizeReduceWindowTest, XPlusX) {
+  const absl::string_view hlo_string = R"(
+HloModule XPlusX
+
+ENTRY main {
+  x = f32[10] parameter(0)
+  ROOT res = f32[10] add(x, x)
+}
+)";
+  CheckRecognizeReduceWindow(hlo_string, R"(
+// CHECK: %main ({{.*}}) -> f32[10] {
+// CHECK:   [[X:%.*]] = f32[10]{0} parameter(0)
+// CHECK:   [[TWO:%.*]] = f32[] constant(2)
+// CHECK:   [[BTWO:%.*]] = f32[10]{0} broadcast([[TWO]]), dimensions={}
+// CHECK:   ROOT {{.*}} = f32[10]{0} multiply([[X]], [[BTWO]])
+// CHECK: }
+)");
+}
+
+TEST_F(RecognizeReduceWindowTest, XPlusY) {
+  const absl::string_view hlo_string = R"(
+HloModule XPlusY
+
+ENTRY main {
+  x = f32[10] parameter(0)
+  y = f32[10] parameter(1)
+  ROOT res = f32[10] add(x, y)
+}
+)";
+  CheckRecognizeReduceWindow(hlo_string, std::nullopt);
+}
+
+TEST_F(RecognizeReduceWindowTest, XMinusY) {
+  const absl::string_view hlo_string = R"(
+HloModule XMinusY
+
+ENTRY main {
+  x = f32[10] parameter(0)
+  y = f32[10] parameter(1)
+  ROOT res = f32[10] subtract(x, y)
+}
+)";
+  CheckRecognizeReduceWindow(hlo_string, std::nullopt);
+}
+
+TEST_F(RecognizeReduceWindowTest, YPlusX) {
+  const absl::string_view hlo_string = R"(
+HloModule YPlusX
+
+ENTRY main {
+  x = f32[10] parameter(0)
+  y = f32[10] parameter(1)
+  ROOT res = f32[10] add(y, x)
+}
+)";
+  CheckRecognizeReduceWindow(hlo_string, std::nullopt);
+}
+
+TEST_F(RecognizeReduceWindowTest, YMinusX) {
+  const absl::string_view hlo_string = R"(
+HloModule YMinusX
+
+ENTRY main {
+  x = f32[10] parameter(0)
+  y = f32[10] parameter(1)
+  ROOT res = f32[10] subtract(y, x)
+}
+)";
+  CheckRecognizeReduceWindow(hlo_string, std::nullopt);
+}
+
+TEST_F(RecognizeReduceWindowTest, ScalarAdd) {
+  const absl::string_view hlo_string = R"(
+HloModule ScalarAdd
+
+ENTRY main {
+  x = f32[] parameter(0)
+  y = f32[] parameter(1)
+  ROOT res = f32[] add(x, y)
+}
+)";
+  CheckRecognizeReduceWindow(hlo_string, std::nullopt);
+}
+
+TEST_F(RecognizeReduceWindowTest, ScalarXPlusX) {
+  const absl::string_view hlo_string = R"(
+HloModule ScalarXPlusX
+
+ENTRY main {
+  x = f32[] parameter(0)
+  ROOT res = f32[] add(x, x)
+}
+)";
+  CheckRecognizeReduceWindow(hlo_string, std::nullopt);
+}
+
+TEST_F(RecognizeReduceWindowTest, DotChainMWE) {
+  const absl::string_view hlo_string = R"(
+HloModule DotChainMWE
+
+ENTRY main {
+  x = f32[10] parameter(0)
+  y = f32[10] parameter(1)
+  z = f32[10] parameter(2)
+  c = f32[] constant(0.1)
+  c_bcast = f32[10] broadcast(c), dimensions={}
+  mul1 = f32[10] multiply(x, c_bcast)
+  add1 = f32[10] add(mul1, y)
+  mul2 = f32[10] multiply(z, c_bcast)
+  ROOT res = f32[10] add(mul2, add1)
+}
+)";
+  CheckRecognizeReduceWindow(hlo_string, R"(
+// CHECK: ENTRY %main ({{.*}}: f32[10], {{.*}}: f32[10], {{.*}}: f32[10]) -> f32[10] {
+// CHECK:   [[X:%.*]] = f32[10]{0} parameter(0)
+// CHECK:   [[RESHAPE_X:%.*]] = f32[1,10]{1,0} reshape([[X]])
+// CHECK:   [[Y:%.*]] = f32[10]{0} parameter(1)
+// CHECK:   [[RESHAPE_Y:%.*]] = f32[1,10]{1,0} reshape([[Y]])
+// CHECK:   [[Z:%.*]] = f32[10]{0} parameter(2)
+// CHECK:   [[RESHAPE_Z:%.*]] = f32[1,10]{1,0} reshape([[Z]])
+// CHECK:   [[CONCAT:%.*]] = f32[3,10]{1,0} concatenate([[RESHAPE_X]], [[RESHAPE_Y]], [[RESHAPE_Z]]), dimensions={0}
+// CHECK:   [[CONSTANT:%.*]] = f32[3]{0} constant({0.1, 1, 0.1})
+// CHECK:   ROOT {{.*}} = f32[10]{0} dot([[CONCAT]], [[CONSTANT]]), lhs_contracting_dims={0}, rhs_contracting_dims={0}
+// CHECK: }
+)",
+                             2);
+  CheckRecognizeReduceWindow(hlo_string, std::nullopt, 1);
+}
+
+TEST_F(RecognizeReduceWindowTest, DotOfDotMWE) {
+  const absl::string_view hlo_string = R"(
+HloModule DotOfDotMWE
+
+ENTRY main {
+  x = f32[10] parameter(0)
+  y = f32[10] parameter(1)
+  
+  // inner scalar weights
+  c1 = f32[] constant(2.0)
+  c1_b = f32[10] broadcast(c1), dimensions={}
+  mul1 = f32[10] multiply(x, c1_b)
+  
+  c2 = f32[] constant(3.0)
+  c2_b = f32[10] broadcast(c2), dimensions={}
+  mul2 = f32[10] multiply(y, c2_b)
+  
+  // inner add
+  add_inner = f32[10] add(mul1, mul2)
+  
+  // outer array weight
+  w = f32[10] parameter(2)
+  mul_outer = f32[10] multiply(add_inner, w) // multiply array weight by an add tree
+  
+  z = f32[10] parameter(3)
+  
+  // outer add
+  ROOT res = f32[10] add(mul_outer, z)
+}
+)";
+  // We expect ONE DOT containing all of x, y, and z since the array weight w
+  // should distribute over add_inner.
+  CheckRecognizeReduceWindow(hlo_string, R"(
+// CHECK: ENTRY %main ({{.*}}: f32[10], {{.*}}: f32[10], {{.*}}: f32[10], {{.*}}: f32[10]) -> f32[10] {
+// CHECK:   [[W:%.*]] = f32[10]{0} parameter(2)
+// CHECK:   [[RESHAPE:%.*]] = f32[1,10]{1,0} reshape([[W]])
+// CHECK:   [[RESHAPE_2:%.*]] = f32[1,10]{1,0} reshape([[W]])
+// CHECK:   [[Z:%.*]] = f32[10]{0} parameter(3)
+// CHECK:   [[RESHAPE_4:%.*]] = f32[1,10]{1,0} reshape([[Z]])
+// CHECK:   [[CONCATENATE:%.*]] = f32[3,10]{1,0} concatenate([[RESHAPE]], [[RESHAPE_2]], [[RESHAPE_4]]), dimensions={0}
+// CHECK:   [[X:%.*]] = f32[10]{0} parameter(0)
+// CHECK:   [[RESHAPE_1:%.*]] = f32[1,10]{1,0} reshape([[X]])
+// CHECK:   [[CONSTANT:%.*]] = f32[] constant(2)
+// CHECK:   [[BROADCAST:%.*]] = f32[1,10]{1,0} broadcast([[CONSTANT]]), dimensions={}
+// CHECK:   [[MULTIPLY:%.*]] = f32[1,10]{1,0} multiply([[RESHAPE_1]], [[BROADCAST]])
+// CHECK:   [[Y:%.*]] = f32[10]{0} parameter(1)
+// CHECK:   [[RESHAPE_3:%.*]] = f32[1,10]{1,0} reshape([[Y]])
+// CHECK:   [[CONSTANT_1:%.*]] = f32[] constant(3)
+// CHECK:   [[BROADCAST_1:%.*]] = f32[1,10]{1,0} broadcast([[CONSTANT_1]]), dimensions={}
+// CHECK:   [[MULTIPLY_1:%.*]] = f32[1,10]{1,0} multiply([[RESHAPE_3]], [[BROADCAST_1]])
+// CHECK:   [[CONSTANT_2:%.*]] = f32[] constant(1)
+// CHECK:   [[BROADCAST_2:%.*]] = f32[1,10]{1,0} broadcast([[CONSTANT_2]]), dimensions={}
+// CHECK:   [[CONCATENATE_1:%.*]] = f32[3,10]{1,0} concatenate([[MULTIPLY]], [[MULTIPLY_1]], [[BROADCAST_2]]), dimensions={0}
+// CHECK:   ROOT {{.*}} = f32[10]{0} dot([[CONCATENATE]], [[CONCATENATE_1]]), lhs_batch_dims={1}, lhs_contracting_dims={0}, rhs_batch_dims={1}, rhs_contracting_dims={0}
+// CHECK: }
+)",
+                             3);
+}
+
+TEST_F(RecognizeReduceWindowTest, DotOfDotMWE2) {
+  const char* hlo_string = R"(
+HloModule DotOfDotMWE2
+
+ENTRY %main (x: f32[10], y: f32[10], w1: f32[10], w2: f32[10], z: f32[10]) -> f32[10] {
+  x = f32[10] parameter(0)
+  c1 = f32[] constant(2)
+  b1 = f32[10] broadcast(c1), dimensions={}
+  mul_x_1 = f32[10] multiply(x, b1)
+  
+  y = f32[10] parameter(1)
+  c2 = f32[] constant(3)
+  b2 = f32[10] broadcast(c2), dimensions={}
+  mul_y_2 = f32[10] multiply(y, b2)
+  
+  // inner add
+  add_inner = f32[10] add(mul_x_1, mul_y_2)
+  
+  // outer array weight 1
+  w1 = f32[10] parameter(2)
+  mul_outer_1 = f32[10] multiply(add_inner, w1)
+  
+  // outer array weight 2
+  w2 = f32[10] parameter(3)
+  mul_outer_2 = f32[10] multiply(mul_outer_1, w2)
+
+  z = f32[10] parameter(4)
+  
+  // outer add
+  ROOT res = f32[10] add(mul_outer_2, z)
+}
+)";
+  CheckRecognizeReduceWindow(hlo_string, R"(
+// CHECK: ENTRY %main ({{.*}}: f32[10], {{.*}}: f32[10], {{.*}}: f32[10], {{.*}}: f32[10], {{.*}}: f32[10]) -> f32[10] {
+// CHECK:   [[W2:%.*]] = f32[10]{0} parameter(3)
+// CHECK:   [[RESHAPE:%.*]] = f32[1,10]{1,0} reshape([[W2]])
+// CHECK:   [[RESHAPE_2:%.*]] = f32[1,10]{1,0} reshape([[W2]])
+// CHECK:   [[Z:%.*]] = f32[10]{0} parameter(4)
+// CHECK:   [[RESHAPE_4:%.*]] = f32[1,10]{1,0} reshape([[Z]])
+// CHECK:   [[CONCATENATE:%.*]] = f32[3,10]{1,0} concatenate([[RESHAPE]], [[RESHAPE_2]], [[RESHAPE_4]]), dimensions={0}
+// CHECK:   [[X:%.*]] = f32[10]{0} parameter(0)
+// CHECK:   [[W1:%.*]] = f32[10]{0} parameter(2)
+// CHECK:   [[MULTIPLY:%.*]] = f32[10]{0} multiply([[X]], [[W1]])
+// CHECK:   [[RESHAPE_1:%.*]] = f32[1,10]{1,0} reshape([[MULTIPLY]])
+// CHECK:   [[CONSTANT:%.*]] = f32[] constant(2)
+// CHECK:   [[BROADCAST:%.*]] = f32[1,10]{1,0} broadcast([[CONSTANT]]), dimensions={}
+// CHECK:   [[MULTIPLY_1:%.*]] = f32[1,10]{1,0} multiply([[RESHAPE_1]], [[BROADCAST]])
+// CHECK:   [[Y:%.*]] = f32[10]{0} parameter(1)
+// CHECK:   [[MULTIPLY_2:%.*]] = f32[10]{0} multiply([[Y]], [[W1]])
+// CHECK:   [[RESHAPE_3:%.*]] = f32[1,10]{1,0} reshape([[MULTIPLY_2]])
+// CHECK:   [[CONSTANT_1:%.*]] = f32[] constant(3)
+// CHECK:   [[BROADCAST_1:%.*]] = f32[1,10]{1,0} broadcast([[CONSTANT_1]]), dimensions={}
+// CHECK:   [[MULTIPLY_3:%.*]] = f32[1,10]{1,0} multiply([[RESHAPE_3]], [[BROADCAST_1]])
+// CHECK:   [[CONSTANT_2:%.*]] = f32[] constant(1)
+// CHECK:   [[BROADCAST_2:%.*]] = f32[1,10]{1,0} broadcast([[CONSTANT_2]]), dimensions={}
+// CHECK:   [[CONCATENATE_1:%.*]] = f32[3,10]{1,0} concatenate([[MULTIPLY_1]], [[MULTIPLY_3]], [[BROADCAST_2]]), dimensions={0}
+// CHECK:   ROOT {{.*}} = f32[10]{0} dot([[CONCATENATE]], [[CONCATENATE_1]]), lhs_batch_dims={1}, lhs_contracting_dims={0}, rhs_batch_dims={1}, rhs_contracting_dims={0}
+// CHECK: }
+)",
+                             3);
+}
+
+TEST_F(RecognizeReduceWindowTest, DotOfDotMWE_NoFactor) {
+  const absl::string_view hlo_string = R"(
+HloModule DotOfDotMWE_NoFactor
+
+ENTRY main {
+  x = f32[10] parameter(0)
+  y = f32[10] parameter(1)
+  
+  // inner scalar weights
+  c1 = f32[] constant(2.0)
+  c1_b = f32[10] broadcast(c1), dimensions={}
+  mul1 = f32[10] multiply(x, c1_b)
+  
+  c2 = f32[] constant(3.0)
+  c2_b = f32[10] broadcast(c2), dimensions={}
+  mul2 = f32[10] multiply(y, c2_b)
+  
+  // inner add
+  add_inner = f32[10] add(mul1, mul2)
+  
+  // outer array weight
+  w = f32[10] parameter(2)
+  mul_outer = f32[10] multiply(add_inner, w) // multiply array weight by an add tree
+  
+  z = f32[10] parameter(3)
+  
+  // outer add
+  ROOT res = f32[10] add(mul_outer, z)
+}
+)";
+  CheckRecognizeReduceWindow(hlo_string, R"(
+// CHECK: ENTRY %main ({{.*}}: f32[10], {{.*}}: f32[10], {{.*}}: f32[10], {{.*}}: f32[10]) -> f32[10] {
+// CHECK:   [[X:%.*]] = f32[10]{0} parameter(0)
+// CHECK:   [[RESHAPE:%.*]] = f32[1,10]{1,0} reshape([[X]])
+// CHECK:   [[Y:%.*]] = f32[10]{0} parameter(1)
+// CHECK:   [[RESHAPE_1:%.*]] = f32[1,10]{1,0} reshape([[Y]])
+// CHECK:   [[CONCATENATE:%.*]] = f32[2,10]{1,0} concatenate([[RESHAPE]], [[RESHAPE_1]]), dimensions={0}
+// CHECK:   [[CONSTANT:%.*]] = f32[2]{0} constant({2, 3})
+// CHECK:   [[DOT:%.*]] = f32[10]{0} dot([[CONCATENATE]], [[CONSTANT]]), lhs_contracting_dims={0}, rhs_contracting_dims={0}
+// CHECK:   [[W:%.*]] = f32[10]{0} parameter(2)
+// CHECK:   [[MUL_OUTER:%.*]] = f32[10]{0} multiply([[DOT]], [[W]])
+// CHECK:   [[Z:%.*]] = f32[10]{0} parameter(3)
+// CHECK:   ROOT {{.*}} = f32[10]{0} add([[MUL_OUTER]], [[Z]])
+// CHECK: }
+)",
+                             2);
+}
+
+TEST_F(RecognizeReduceWindowTest, DotOfDotMWE2_NoFactor) {
+  const char* hlo_string = R"(
+HloModule DotOfDotMWE2_NoFactor
+
+ENTRY %main (x: f32[10], y: f32[10], w1: f32[10], w2: f32[10], z: f32[10]) -> f32[10] {
+  x = f32[10] parameter(0)
+  c1 = f32[] constant(2)
+  b1 = f32[10] broadcast(c1), dimensions={}
+  mul_x_1 = f32[10] multiply(x, b1)
+  
+  y = f32[10] parameter(1)
+  c2 = f32[] constant(3)
+  b2 = f32[10] broadcast(c2), dimensions={}
+  mul_y_2 = f32[10] multiply(y, b2)
+  
+  // inner add
+  add_inner = f32[10] add(mul_x_1, mul_y_2)
+  
+  // outer array weight 1
+  w1 = f32[10] parameter(2)
+  mul_outer_1 = f32[10] multiply(add_inner, w1)
+  
+  // outer array weight 2
+  w2 = f32[10] parameter(3)
+  mul_outer_2 = f32[10] multiply(mul_outer_1, w2)
+
+  z = f32[10] parameter(4)
+  
+  // outer add
+  ROOT res = f32[10] add(mul_outer_2, z)
+}
+)";
+  CheckRecognizeReduceWindow(hlo_string, R"(
+// CHECK: ENTRY %main ({{.*}}: f32[10], {{.*}}: f32[10], {{.*}}: f32[10], {{.*}}: f32[10], {{.*}}: f32[10]) -> f32[10] {
+// CHECK:   [[X:%.*]] = f32[10]{0} parameter(0)
+// CHECK:   [[RESHAPE:%.*]] = f32[1,10]{1,0} reshape([[X]])
+// CHECK:   [[Y:%.*]] = f32[10]{0} parameter(1)
+// CHECK:   [[RESHAPE_1:%.*]] = f32[1,10]{1,0} reshape([[Y]])
+// CHECK:   [[CONCATENATE:%.*]] = f32[2,10]{1,0} concatenate([[RESHAPE]], [[RESHAPE_1]]), dimensions={0}
+// CHECK:   [[CONSTANT:%.*]] = f32[2]{0} constant({2, 3})
+// CHECK:   [[DOT:%.*]] = f32[10]{0} dot([[CONCATENATE]], [[CONSTANT]]), lhs_contracting_dims={0}, rhs_contracting_dims={0}
+// CHECK:   [[W1:%.*]] = f32[10]{0} parameter(2)
+// CHECK:   [[MUL_OUTER_1:%.*]] = f32[10]{0} multiply([[DOT]], [[W1]])
+// CHECK:   [[W2:%.*]] = f32[10]{0} parameter(3)
+// CHECK:   [[MUL_OUTER_2:%.*]] = f32[10]{0} multiply([[MUL_OUTER_1]], [[W2]])
+// CHECK:   [[Z:%.*]] = f32[10]{0} parameter(4)
+// CHECK:   ROOT {{.*}} = f32[10]{0} add([[MUL_OUTER_2]], [[Z]])
+// CHECK: }
+)",
+                             2);
+}
+
+}  // namespace xla
diff --git a/xla/service/cpu/BUILD b/xla/service/cpu/BUILD
index 4ab5b8d6c9..16cab5864c 100644
--- a/xla/service/cpu/BUILD
+++ b/xla/service/cpu/BUILD
@@ -210,6 +210,7 @@ cc_library(
         "//xla/hlo/transforms/simplifiers:hlo_dce",
         "//xla/hlo/transforms/simplifiers:hlo_memory_scheduler",
         "//xla/hlo/transforms/simplifiers:optimize_input_output_buffer_alias",
+        "//xla/hlo/transforms/simplifiers:recognize_reduce_window",
         "//xla/hlo/transforms/simplifiers:reduce_window_resizer",
         "//xla/hlo/transforms/simplifiers:reduce_window_rewriter",
         "//xla/hlo/transforms/simplifiers:reshape_mover",
diff --git a/xla/service/cpu/cpu_compiler.cc b/xla/service/cpu/cpu_compiler.cc
index ed58b6347d..b7a50be0b7 100644
--- a/xla/service/cpu/cpu_compiler.cc
+++ b/xla/service/cpu/cpu_compiler.cc
@@ -141,6 +141,7 @@ limitations under the License.
 #include "xla/hlo/transforms/simplifiers/hlo_dce.h"
 #include "xla/hlo/transforms/simplifiers/hlo_memory_scheduler.h"
 #include "xla/hlo/transforms/simplifiers/optimize_input_output_buffer_alias.h"
+#include "xla/hlo/transforms/simplifiers/recognize_reduce_window.h"
 #include "xla/hlo/transforms/simplifiers/reduce_window_resizer.h"
 #include "xla/hlo/transforms/simplifiers/reduce_window_rewriter.h"
 #include "xla/hlo/transforms/simplifiers/reshape_mover.h"
@@ -604,6 +605,9 @@ absl::Status CpuCompiler::RunHloPassesThroughLayoutAssn(
     }
     spmd_pipeline.AddPass<spmd::StatefulRngSpmdPartitioner>(
         num_partitions, module->config().replica_count());
+    if (module->config().debug_options().xla_enable_enzyme_comms_opt()) {
+      spmd_pipeline.AddPass<RecognizeReduceWindow>();
+    }
     spmd_pipeline.AddPass<xla::CallInliner>(
         /*single_call_site=*/false,
         /*update_domain=*/false,
diff --git a/xla/service/gpu/BUILD b/xla/service/gpu/BUILD
index 6bf263d5bd..2b8168aa04 100644
--- a/xla/service/gpu/BUILD
+++ b/xla/service/gpu/BUILD
@@ -2761,6 +2761,7 @@ cc_library(
         "//xla/hlo/transforms/simplifiers:hlo_constant_folding",
         "//xla/hlo/transforms/simplifiers:hlo_constant_splitter",
         "//xla/hlo/transforms/simplifiers:hlo_dce",
+        "//xla/hlo/transforms/simplifiers:recognize_reduce_window",
         "//xla/hlo/transforms/simplifiers:reshape_mover",
         "//xla/hlo/transforms/simplifiers:sort_simplifier",
         "//xla/hlo/transforms/simplifiers:tuple_simplifier",
diff --git a/xla/service/gpu/gpu_spmd_pipeline.cc b/xla/service/gpu/gpu_spmd_pipeline.cc
index c4e554f4be..b61e25b8f0 100644
--- a/xla/service/gpu/gpu_spmd_pipeline.cc
+++ b/xla/service/gpu/gpu_spmd_pipeline.cc
@@ -33,6 +33,7 @@ limitations under the License.
 #include "xla/hlo/transforms/simplifiers/hlo_constant_folding.h"
 #include "xla/hlo/transforms/simplifiers/hlo_constant_splitter.h"
 #include "xla/hlo/transforms/simplifiers/hlo_dce.h"
+#include "xla/hlo/transforms/simplifiers/recognize_reduce_window.h"
 #include "xla/hlo/transforms/simplifiers/reshape_mover.h"
 #include "xla/hlo/transforms/simplifiers/sort_simplifier.h"
 #include "xla/hlo/transforms/simplifiers/tuple_simplifier.h"
@@ -134,6 +135,9 @@ void AddSPMDPasses(
       /*disable_ag_rewrite_for_multiple_consumers=*/true,
       /*enable_partial_windowed_einsums=*/true, oper_size_threshold,
       max_windowed_einsum_iteration);
+  if (hlo_module->config().debug_options().xla_enable_enzyme_comms_opt()) {
+    spmd_pipeline.AddPass<RecognizeReduceWindow>();
+  }
   // NOTE: even though the inliner is called in `RunPreSPMDPartitionerPasses`,
   // it doesn't inline functions needed for ShardyXLA. ShardyXLA will also leave
   // functions called `kInlineableManualComputationFuncName` not inlined, so
diff --git a/xla/tools/hlo_opt/BUILD b/xla/tools/hlo_opt/BUILD
index 4d7e4d293a..79a1c31e45 100644
--- a/xla/tools/hlo_opt/BUILD
+++ b/xla/tools/hlo_opt/BUILD
@@ -174,6 +174,7 @@ cc_library(
         "//xla/hlo/tools/hlo_opt:opt_lib",
         "//xla/hlo/transforms:host_offloader",
         "//xla/hlo/transforms/simplifiers:hlo_memory_scheduler",
+        "//xla/hlo/transforms/simplifiers:recognize_reduce_window",
         "//xla/service:batchnorm_expander",
         "//xla/service:buffer_value",
         "//xla/service:change_op_data_type",
diff --git a/xla/tools/hlo_opt/cpu_opt.cc b/xla/tools/hlo_opt/cpu_opt.cc
index 32e08fc10f..8057e72086 100644
--- a/xla/tools/hlo_opt/cpu_opt.cc
+++ b/xla/tools/hlo_opt/cpu_opt.cc
@@ -39,6 +39,7 @@ limitations under the License.
 #include "xla/hlo/tools/hlo_opt/opt_lib.h"
 #include "xla/hlo/transforms/host_offloader.h"
 #include "xla/hlo/transforms/simplifiers/hlo_memory_scheduler.h"
+#include "xla/hlo/transforms/simplifiers/recognize_reduce_window.h"
 #include "xla/service/batchnorm_expander.h"
 #include "xla/service/buffer_value.h"
 #include "xla/service/change_op_data_type.h"
@@ -145,6 +146,9 @@ class CpuOptProvider : public CompiledOptProvider {
 
     RegisterPass<spmd::StatefulRngSpmdPartitioner>(
         module_config.num_partitions(), module_config.replica_count());
+    if (module_config.debug_options().xla_enable_enzyme_comms_opt()) {
+      RegisterPass<RecognizeReduceWindow>();
+    }
     RegisterPass<BatchNormExpander>(
         /*rewrite_training_op=*/true,
         /*rewrite_inference_op=*/true,
diff --git a/xla/xla.proto b/xla/xla.proto
index 55e52a2c32..49dc37b1e2 100644
--- a/xla/xla.proto
+++ b/xla/xla.proto
@@ -169,6 +169,12 @@ message DebugOptions {
   optional bool xla_unsupported_crash_on_hlo_pass_noop_change = 379;
   // Crash if a pass reports that it did not change the HLO but in fact it did.
   optional bool xla_unsupported_crash_on_hlo_pass_silent_hlo_change = 380;
+  // Enable reduction recognition pass, at various levels
+  // 0: disable reduction recognition pass.
+  // 1: enable only reduce-window recognition.
+  // 2: recognize dot general against constants.
+  // 3: recognize dot operations with additional multiplicative factors.
+  optional int32 xla_recognize_reduction_optimization_level = 463;
   // go/keep-sorted end
 
   //--------------------------------------------------------------------------//
@@ -1421,7 +1427,7 @@ message DebugOptions {
   // Note: when adding a new flag, please add it to one of the hardware-specific
   // or hardware-agnostic sections at the top of this proto message.
 
-  // Next id: 463
+  // Next id: 464
 
   // Extra options to pass to the compilation backend (e.g. LLVM); specific
   // interpretation of these values is left to the backend.
