diff --git a/xla/hlo/transforms/collectives/BUILD b/xla/hlo/transforms/collectives/BUILD
index 03bc9c77a0..ec7169dd4f 100644
--- a/xla/hlo/transforms/collectives/BUILD
+++ b/xla/hlo/transforms/collectives/BUILD
@@ -411,6 +411,7 @@ cc_library(
         "//xla/tsl/platform:errors",
         "//xla/tsl/platform:statusor",
         "@com_google_absl//absl/algorithm:container",
+        "@com_google_absl//absl/container:flat_hash_map",
         "@com_google_absl//absl/container:flat_hash_set",
         "@com_google_absl//absl/functional:function_ref",
         "@com_google_absl//absl/log",
diff --git a/xla/hlo/transforms/collectives/collective_permute_combiner.cc b/xla/hlo/transforms/collectives/collective_permute_combiner.cc
index 4c617e231d..3609bfdbc1 100644
--- a/xla/hlo/transforms/collectives/collective_permute_combiner.cc
+++ b/xla/hlo/transforms/collectives/collective_permute_combiner.cc
@@ -22,6 +22,7 @@ limitations under the License.
 #include <vector>
 
 #include "absl/algorithm/container.h"
+#include "absl/container/flat_hash_map.h"
 #include "absl/container/flat_hash_set.h"
 #include "absl/functional/function_ref.h"
 #include "absl/log/log.h"
@@ -56,9 +57,21 @@ absl::Status CombineCollectivePermutes(
   HloComputation& computation = *to_combine.back()->parent();
 
   // Create a single bigger CollectivePermute of the operands of the smaller
-  // CollectivePermutes.
+  // CollectivePermutes, deduplicating identical operands if
+  // xla_enable_enzyme_comms_opt is true.
   std::vector<HloInstruction*> operands;
   std::vector<const Shape*> operand_shapes;
+
+  const bool enable_enzyme_comms_opt = to_combine.front()
+                                           ->parent()
+                                           ->parent()
+                                           ->config()
+                                           .debug_options()
+                                           .xla_enable_enzyme_comms_opt();
+
+  absl::flat_hash_map<HloInstruction*, int64_t> op_to_index;
+  std::vector<int64_t> forward_indices;
+
   const auto source_target_pairs = to_combine.at(0)->source_target_pairs();
   VLOG(1) << "Combining set";
   for (HloInstruction* hlo : to_combine) {
@@ -83,24 +96,50 @@ absl::Status CombineCollectivePermutes(
     } else {
       TF_RET_CHECK(hlo->source_target_pairs() == source_target_pairs);
     }
-    operands.push_back(hlo->operands().front());
-    operand_shapes.push_back(&hlo->operands().front()->shape());
+    HloInstruction* op = hlo->operands().front();
+    if (enable_enzyme_comms_opt) {
+      auto it = op_to_index.find(op);
+      if (it == op_to_index.end()) {
+        int64_t new_index = operands.size();
+        op_to_index[op] = new_index;
+        operands.push_back(op);
+        operand_shapes.push_back(&op->shape());
+        forward_indices.push_back(new_index);
+      } else {
+        forward_indices.push_back(it->second);
+      }
+    } else {
+      operands.push_back(op);
+      operand_shapes.push_back(&op->shape());
+    }
   }
 
   HloInstruction* combined;
-  // CollectivePermute ops with more than one operand produce a tuple.
-  TF_RET_CHECK(operands.size() >= 2);
-  combined = computation.AddInstruction(HloInstruction::CreateCollectivePermute(
-      ShapeUtil::MakeTupleShapeWithPtrs(operand_shapes), operands,
-      source_target_pairs, to_combine.front()->channel_id()));
-
-  // Replace all the smaller CollectivePermutes with elements of the tuple
-  // output of the single bigger CollectivePermute.
+  if (operands.size() == 1) {
+    combined =
+        computation.AddInstruction(HloInstruction::CreateCollectivePermute(
+            to_combine.front()->shape(), operands.front(), source_target_pairs,
+            to_combine.front()->channel_id()));
+  } else {
+    combined =
+        computation.AddInstruction(HloInstruction::CreateCollectivePermute(
+            ShapeUtil::MakeTupleShapeWithPtrs(operand_shapes), operands,
+            source_target_pairs, to_combine.front()->channel_id()));
+  }
+
+  // Replace all the smaller CollectivePermutes with either the combined
+  // CollectivePermute or elements of the tuple output.
   for (int64_t i = 0; i < to_combine.size(); ++i) {
-    auto replace_with = HloInstruction::CreateGetTupleElement(
-        to_combine[i]->shape(), combined, i);
-    TF_RETURN_IF_ERROR(computation.ReplaceWithNewInstruction(
-        to_combine[i], std::move(replace_with)));
+    if (operands.size() == 1) {
+      TF_RETURN_IF_ERROR(
+          computation.ReplaceInstruction(to_combine[i], combined));
+    } else {
+      int64_t index = enable_enzyme_comms_opt ? forward_indices[i] : i;
+      auto replace_with = HloInstruction::CreateGetTupleElement(
+          to_combine[i]->shape(), combined, index);
+      TF_RETURN_IF_ERROR(computation.ReplaceWithNewInstruction(
+          to_combine[i], std::move(replace_with)));
+    }
   }
   return absl::OkStatus();
 }
diff --git a/xla/hlo/transforms/collectives/collective_permute_combiner_test.cc b/xla/hlo/transforms/collectives/collective_permute_combiner_test.cc
index 58a12f0fdc..7982ff9c5a 100644
--- a/xla/hlo/transforms/collectives/collective_permute_combiner_test.cc
+++ b/xla/hlo/transforms/collectives/collective_permute_combiner_test.cc
@@ -439,5 +439,104 @@ TEST_F(CollectivePermuteCombinerTest,
   EXPECT_EQ(CollectivePermuteCount(*module), 3);
 }
 
+TEST_F(CollectivePermuteCombinerTest, DeduplicateCombinedOperandsEnabled) {
+  const char* const hlo_string = R"(
+HloModule Deduplicate, entry_computation_layout={()->(f32[256]{0}, f32[256]{0}, f32[256]{0})}
+
+ENTRY %Deduplicate () -> (f32[256], f32[256], f32[256]) {
+  %constant = f32[256]{0} constant({...})
+  %op1 = f32[256]{0} copy(%constant)
+  %op2 = f32[256]{0} copy(%constant)
+  %cp1 = f32[256]{0} collective-permute(%op1), source_target_pairs={{0,1}}, channel_id=1
+  %cp2 = f32[256]{0} collective-permute(%op2), source_target_pairs={{0,1}}, channel_id=1
+  %cp3 = f32[256]{0} collective-permute(%op1), source_target_pairs={{0,1}}, channel_id=1
+  ROOT %tuple = (f32[256], f32[256], f32[256]) tuple(%cp1, %cp2, %cp3)
+})";
+  HloModuleConfig config = GetModuleConfigForTest();
+  config.mutable_debug_options().set_xla_enable_enzyme_comms_opt(true);
+  TF_ASSERT_OK_AND_ASSIGN(auto module,
+                          ParseAndReturnVerifiedModule(hlo_string, config));
+
+  CollectivePermuteCombiner combine(1024 * 1024, kMaxCombineCount);
+  TF_ASSERT_OK_AND_ASSIGN(bool changed, combine.Run(module.get()));
+  EXPECT_TRUE(changed);
+  EXPECT_EQ(CollectivePermuteCount(*module), 1);
+
+  const HloInstruction* root = module->entry_computation()->root_instruction();
+  const HloInstruction* combined = root->operand(0)->operand(0);
+  ASSERT_EQ(combined->opcode(), HloOpcode::kCollectivePermute);
+  // Identical operands %op1 are deduplicated, so we have %op1 and %op2.
+  EXPECT_EQ(combined->operand_count(), 2);
+
+  // %cp1 -> GTE(0), %cp2 -> GTE(1), %cp3 -> GTE(0)
+  EXPECT_EQ(root->operand(0)->tuple_index(), 0);
+  EXPECT_EQ(root->operand(1)->tuple_index(), 1);
+  EXPECT_EQ(root->operand(2)->tuple_index(), 0);
+}
+
+TEST_F(CollectivePermuteCombinerTest, DeduplicateCombinedOperandsDisabled) {
+  const char* const hlo_string = R"(
+HloModule Deduplicate, entry_computation_layout={()->(f32[256]{0}, f32[256]{0}, f32[256]{0})}
+
+ENTRY %Deduplicate () -> (f32[256], f32[256], f32[256]) {
+  %constant = f32[256]{0} constant({...})
+  %op1 = f32[256]{0} copy(%constant)
+  %op2 = f32[256]{0} copy(%constant)
+  %cp1 = f32[256]{0} collective-permute(%op1), source_target_pairs={{0,1}}, channel_id=1
+  %cp2 = f32[256]{0} collective-permute(%op2), source_target_pairs={{0,1}}, channel_id=1
+  %cp3 = f32[256]{0} collective-permute(%op1), source_target_pairs={{0,1}}, channel_id=1
+  ROOT %tuple = (f32[256], f32[256], f32[256]) tuple(%cp1, %cp2, %cp3)
+})";
+  HloModuleConfig config = GetModuleConfigForTest();
+  config.mutable_debug_options().set_xla_enable_enzyme_comms_opt(false);
+  TF_ASSERT_OK_AND_ASSIGN(auto module,
+                          ParseAndReturnVerifiedModule(hlo_string, config));
+
+  CollectivePermuteCombiner combine(1024 * 1024, kMaxCombineCount);
+  TF_ASSERT_OK_AND_ASSIGN(bool changed, combine.Run(module.get()));
+  EXPECT_TRUE(changed);
+  EXPECT_EQ(CollectivePermuteCount(*module), 1);
+
+  const HloInstruction* root = module->entry_computation()->root_instruction();
+  const HloInstruction* combined = root->operand(0)->operand(0);
+  ASSERT_EQ(combined->opcode(), HloOpcode::kCollectivePermute);
+  // No deduplication.
+  EXPECT_EQ(combined->operand_count(), 3);
+
+  EXPECT_EQ(root->operand(0)->tuple_index(), 0);
+  EXPECT_EQ(root->operand(1)->tuple_index(), 1);
+  EXPECT_EQ(root->operand(2)->tuple_index(), 2);
+}
+
+TEST_F(CollectivePermuteCombinerTest, DeduplicateToOneOperandEnabled) {
+  const char* const hlo_string = R"(
+HloModule Deduplicate, entry_computation_layout={()->(f32[256]{0}, f32[256]{0})}
+
+ENTRY %Deduplicate () -> (f32[256], f32[256]) {
+  %constant = f32[256]{0} constant({...})
+  %op1 = f32[256]{0} copy(%constant)
+  %cp1 = f32[256]{0} collective-permute(%op1), source_target_pairs={{0,1}}, channel_id=1
+  %cp2 = f32[256]{0} collective-permute(%op1), source_target_pairs={{0,1}}, channel_id=1
+  ROOT %tuple = (f32[256], f32[256]) tuple(%cp1, %cp2)
+})";
+  HloModuleConfig config = GetModuleConfigForTest();
+  config.mutable_debug_options().set_xla_enable_enzyme_comms_opt(true);
+  TF_ASSERT_OK_AND_ASSIGN(auto module,
+                          ParseAndReturnVerifiedModule(hlo_string, config));
+
+  CollectivePermuteCombiner combine(1024 * 1024, kMaxCombineCount);
+  TF_ASSERT_OK_AND_ASSIGN(bool changed, combine.Run(module.get()));
+  EXPECT_TRUE(changed);
+  EXPECT_EQ(CollectivePermuteCount(*module), 1);
+
+  const HloInstruction* root = module->entry_computation()->root_instruction();
+  // Both %cp1 and %cp2 should be replaced by the same non-tuple %combined.
+  const HloInstruction* combined = root->operand(0);
+  EXPECT_EQ(combined, root->operand(1));
+  ASSERT_EQ(combined->opcode(), HloOpcode::kCollectivePermute);
+  EXPECT_EQ(combined->operand_count(), 1);
+  EXPECT_TRUE(combined->shape().IsArray());
+}
+
 }  // namespace
 }  // namespace xla
