module @"reactant_loop!" attributes {mhlo.num_partitions = 4 : i64, mhlo.num_replicas = 1 : i64} {
  sdy.mesh @mesh = <["x"=2, "y"=2]>
  llvm.module_flags [#llvm.mlir.module_flag<warning, "Dwarf Version", 2 : i32>, #llvm.mlir.module_flag<warning, "Debug Info Version", 3 : i32>]
  llvm.module_flags [#llvm.mlir.module_flag<warning, "Dwarf Version", 2 : i32>, #llvm.mlir.module_flag<warning, "Debug Info Version", 3 : i32>]
  llvm.module_flags [#llvm.mlir.module_flag<warning, "Dwarf Version", 2 : i32>, #llvm.mlir.module_flag<warning, "Debug Info Version", 3 : i32>]
  llvm.module_flags [#llvm.mlir.module_flag<warning, "Dwarf Version", 2 : i32>, #llvm.mlir.module_flag<warning, "Debug Info Version", 3 : i32>]
  llvm.module_flags [#llvm.mlir.module_flag<warning, "Dwarf Version", 2 : i32>, #llvm.mlir.module_flag<warning, "Debug Info Version", 3 : i32>]
  llvm.module_flags [#llvm.mlir.module_flag<warning, "Dwarf Version", 2 : i32>, #llvm.mlir.module_flag<warning, "Debug Info Version", 3 : i32>]
  llvm.module_flags [#llvm.mlir.module_flag<warning, "Dwarf Version", 2 : i32>, #llvm.mlir.module_flag<warning, "Debug Info Version", 3 : i32>]
  llvm.module_flags [#llvm.mlir.module_flag<warning, "Dwarf Version", 2 : i32>, #llvm.mlir.module_flag<warning, "Debug Info Version", 3 : i32>]
  llvm.module_flags [#llvm.mlir.module_flag<warning, "Dwarf Version", 2 : i32>, #llvm.mlir.module_flag<warning, "Debug Info Version", 3 : i32>]
  llvm.module_flags [#llvm.mlir.module_flag<warning, "Dwarf Version", 2 : i32>, #llvm.mlir.module_flag<warning, "Debug Info Version", 3 : i32>]
  llvm.module_flags [#llvm.mlir.module_flag<warning, "Dwarf Version", 2 : i32>, #llvm.mlir.module_flag<warning, "Debug Info Version", 3 : i32>]
  llvm.module_flags [#llvm.mlir.module_flag<warning, "Dwarf Version", 2 : i32>, #llvm.mlir.module_flag<warning, "Debug Info Version", 3 : i32>]
  llvm.module_flags [#llvm.mlir.module_flag<warning, "Dwarf Version", 2 : i32>, #llvm.mlir.module_flag<warning, "Debug Info Version", 3 : i32>]
  llvm.module_flags [#llvm.mlir.module_flag<warning, "Dwarf Version", 2 : i32>, #llvm.mlir.module_flag<warning, "Debug Info Version", 3 : i32>]
  llvm.module_flags [#llvm.mlir.module_flag<warning, "Dwarf Version", 2 : i32>, #llvm.mlir.module_flag<warning, "Debug Info Version", 3 : i32>]
  llvm.module_flags [#llvm.mlir.module_flag<warning, "Dwarf Version", 2 : i32>, #llvm.mlir.module_flag<warning, "Debug Info Version", 3 : i32>]
  llvm.module_flags [#llvm.mlir.module_flag<warning, "Dwarf Version", 2 : i32>, #llvm.mlir.module_flag<warning, "Debug Info Version", 3 : i32>]
  llvm.module_flags [#llvm.mlir.module_flag<warning, "Dwarf Version", 2 : i32>, #llvm.mlir.module_flag<warning, "Debug Info Version", 3 : i32>]
  llvm.module_flags [#llvm.mlir.module_flag<warning, "Dwarf Version", 2 : i32>, #llvm.mlir.module_flag<warning, "Debug Info Version", 3 : i32>]
  llvm.module_flags [#llvm.mlir.module_flag<warning, "Dwarf Version", 2 : i32>, #llvm.mlir.module_flag<warning, "Debug Info Version", 3 : i32>]
  llvm.module_flags [#llvm.mlir.module_flag<warning, "Dwarf Version", 2 : i32>, #llvm.mlir.module_flag<warning, "Debug Info Version", 3 : i32>]
  llvm.module_flags [#llvm.mlir.module_flag<warning, "Dwarf Version", 2 : i32>, #llvm.mlir.module_flag<warning, "Debug Info Version", 3 : i32>]
  llvm.module_flags [#llvm.mlir.module_flag<warning, "Dwarf Version", 2 : i32>, #llvm.mlir.module_flag<warning, "Debug Info Version", 3 : i32>]
  llvm.module_flags [#llvm.mlir.module_flag<warning, "Dwarf Version", 2 : i32>, #llvm.mlir.module_flag<warning, "Debug Info Version", 3 : i32>]
  llvm.module_flags [#llvm.mlir.module_flag<warning, "Dwarf Version", 2 : i32>, #llvm.mlir.module_flag<warning, "Debug Info Version", 3 : i32>]
  func.func @main(%arg0: tensor<21xf64> {enzymexla.memory_effects = [], sdy.sharding = #sdy.sharding<@mesh, [{}]>}, %arg1: tensor<20xf64> {enzymexla.memory_effects = [], sdy.sharding = #sdy.sharding<@mesh, [{}]>}, %arg2: tensor<21xf64> {enzymexla.memory_effects = [], sdy.sharding = #sdy.sharding<@mesh, [{}]>}, %arg3: tensor<20xf64> {enzymexla.memory_effects = [], sdy.sharding = #sdy.sharding<@mesh, [{}]>}, %arg4: tensor<1536xf64> {enzymexla.memory_effects = [], sdy.sharding = #sdy.sharding<@mesh, [{"y"}]>}, %arg5: tensor<1536xf64> {enzymexla.memory_effects = [], sdy.sharding = #sdy.sharding<@mesh, [{"y"}]>}, %arg6: tensor<1536xf64> {enzymexla.memory_effects = [], sdy.sharding = #sdy.sharding<@mesh, [{"y"}]>}, %arg7: tensor<1536xf64> {enzymexla.memory_effects = [], sdy.sharding = #sdy.sharding<@mesh, [{"y"}]>}, %arg8: tensor<1536xf64> {enzymexla.memory_effects = [], sdy.sharding = #sdy.sharding<@mesh, [{"y"}]>}, %arg9: tensor<1536xf64> {enzymexla.memory_effects = [], sdy.sharding = #sdy.sharding<@mesh, [{"y"}]>}, %arg10: tensor<1536xf64> {enzymexla.memory_effects = [], sdy.sharding = #sdy.sharding<@mesh, [{"y"}]>}, %arg11: tensor<1536xf64> {enzymexla.memory_effects = [], sdy.sharding = #sdy.sharding<@mesh, [{"y"}]>}, %arg12: tensor<f64> {enzymexla.memory_effects = [], sdy.sharding = #sdy.sharding<@mesh, []>, tf.aliasing_output = 0 : i32}, %arg13: tensor<i64> {enzymexla.memory_effects = [], sdy.sharding = #sdy.sharding<@mesh, []>, tf.aliasing_output = 1 : i32}, %arg14: tensor<1x1536x3072xf64> {enzymexla.memory_effects = [], sdy.sharding = #sdy.sharding<@mesh, [{}, {"y"}, {"x"}]>, tf.aliasing_output = 2 : i32}, %arg15: tensor<1x1536x3072xf64> {enzymexla.memory_effects = [], sdy.sharding = #sdy.sharding<@mesh, [{}, {"y"}, {"x"}]>, tf.aliasing_output = 3 : i32}, %arg16: tensor<1x1536x3072xf64> {enzymexla.memory_effects = [], sdy.sharding = #sdy.sharding<@mesh, [{}, {"y"}, {"x"}]>, tf.aliasing_output = 4 : i32}, %arg17: tensor<1x1536x3072xf64> {enzymexla.memory_effects = [], sdy.sharding = #sdy.sharding<@mesh, [{}, {"y"}, {"x"}]>, tf.aliasing_output = 5 : i32}, %arg18: tensor<1x1536x3072xf64> {enzymexla.memory_effects = [], sdy.sharding = #sdy.sharding<@mesh, [{}, {"y"}, {"x"}]>, tf.aliasing_output = 6 : i32}, %arg19: tensor<1x1536x3072xf64> {enzymexla.memory_effects = [], sdy.sharding = #sdy.sharding<@mesh, [{}, {"y"}, {"x"}]>, tf.aliasing_output = 7 : i32}, %arg20: tensor<20x1536x3072xf64> {enzymexla.memory_effects = [], sdy.sharding = #sdy.sharding<@mesh, [{}, {"y"}, {"x"}]>, tf.aliasing_output = 8 : i32}, %arg21: tensor<20x1536x3072xf64> {enzymexla.memory_effects = [], sdy.sharding = #sdy.sharding<@mesh, [{}, {"y"}, {"x"}]>, tf.aliasing_output = 9 : i32}, %arg22: tensor<20x1536x3072xf64> {enzymexla.memory_effects = [], sdy.sharding = #sdy.sharding<@mesh, [{}, {"y"}, {"x"}]>, tf.aliasing_output = 10 : i32}, %arg23: tensor<20x1536x3072xf64> {enzymexla.memory_effects = [], sdy.sharding = #sdy.sharding<@mesh, [{}, {"y"}, {"x"}]>, tf.aliasing_output = 11 : i32}, %arg24: tensor<20x1536x3072xf64> {enzymexla.memory_effects = [], sdy.sharding = #sdy.sharding<@mesh, [{}, {"y"}, {"x"}]>, tf.aliasing_output = 12 : i32}, %arg25: tensor<20x1536x3072xf64> {enzymexla.memory_effects = [], sdy.sharding = #sdy.sharding<@mesh, [{}, {"y"}, {"x"}]>, tf.aliasing_output = 13 : i32}, %arg26: tensor<20x1536x3072xf64> {enzymexla.memory_effects = [], sdy.sharding = #sdy.sharding<@mesh, [{}, {"y"}, {"x"}]>, tf.aliasing_output = 14 : i32}, %arg27: tensor<20x1536x3072xf64> {enzymexla.memory_effects = [], sdy.sharding = #sdy.sharding<@mesh, [{}, {"y"}, {"x"}]>, tf.aliasing_output = 15 : i32}, %arg28: tensor<1x1536x3072xf64> {enzymexla.memory_effects = [], sdy.sharding = #sdy.sharding<@mesh, [{}, {"y"}, {"x"}]>, tf.aliasing_output = 16 : i32}, %arg29: tensor<1x1536x3072xf64> {enzymexla.memory_effects = [], sdy.sharding = #sdy.sharding<@mesh, [{}, {"y"}, {"x"}]>, tf.aliasing_output = 17 : i32}, %arg30: tensor<20x1536x3072xf64> {enzymexla.memory_effects = [], sdy.sharding = #sdy.sharding<@mesh, [{}, {"y"}, {"x"}]>, tf.aliasing_output = 18 : i32}, %arg31: tensor<20x1536x3072xf64> {enzymexla.memory_effects = [], sdy.sharding = #sdy.sharding<@mesh, [{}, {"y"}, {"x"}]>, tf.aliasing_output = 19 : i32}, %arg32: tensor<20x1536x3072xf64> {enzymexla.memory_effects = [], sdy.sharding = #sdy.sharding<@mesh, [{}, {"y"}, {"x"}]>, tf.aliasing_output = 20 : i32}, %arg33: tensor<20x1536x3072xf64> {enzymexla.memory_effects = [], sdy.sharding = #sdy.sharding<@mesh, [{}, {"y"}, {"x"}]>, tf.aliasing_output = 21 : i32}, %arg34: tensor<1x1536x3072xf64> {enzymexla.memory_effects = [], sdy.sharding = #sdy.sharding<@mesh, [{}, {"y"}, {"x"}]>, tf.aliasing_output = 22 : i32}, %arg35: tensor<1x1536x3072xf64> {enzymexla.memory_effects = [], sdy.sharding = #sdy.sharding<@mesh, [{}, {"y"}, {"x"}]>, tf.aliasing_output = 23 : i32}, %arg36: tensor<20x1536x3072xf64> {enzymexla.memory_effects = [], sdy.sharding = #sdy.sharding<@mesh, [{}, {"y"}, {"x"}]>, tf.aliasing_output = 24 : i32}, %arg37: tensor<20x1536x3072xf64> {enzymexla.memory_effects = [], sdy.sharding = #sdy.sharding<@mesh, [{}, {"y"}, {"x"}]>, tf.aliasing_output = 25 : i32}, %arg38: tensor<i64> {enzymexla.memory_effects = [], sdy.sharding = #sdy.sharding<@mesh, []>}) -> (tensor<f64> {sdy.sharding = #sdy.sharding<@mesh, []>}, tensor<i64> {sdy.sharding = #sdy.sharding<@mesh, []>}, tensor<1x1536x3072xf64> {sdy.sharding = #sdy.sharding<@mesh, [{}, {"y"}, {"x"}]>}, tensor<1x1536x3072xf64> {sdy.sharding = #sdy.sharding<@mesh, [{}, {"y"}, {"x"}]>}, tensor<1x1536x3072xf64> {sdy.sharding = #sdy.sharding<@mesh, [{}, {"y"}, {"x"}]>}, tensor<1x1536x3072xf64> {sdy.sharding = #sdy.sharding<@mesh, [{}, {"y"}, {"x"}]>}, tensor<1x1536x3072xf64> {sdy.sharding = #sdy.sharding<@mesh, [{}, {"y"}, {"x"}]>}, tensor<1x1536x3072xf64> {sdy.sharding = #sdy.sharding<@mesh, [{}, {"y"}, {"x"}]>}, tensor<20x1536x3072xf64> {sdy.sharding = #sdy.sharding<@mesh, [{}, {"y"}, {"x"}]>}, tensor<20x1536x3072xf64> {sdy.sharding = #sdy.sharding<@mesh, [{}, {"y"}, {"x"}]>}, tensor<20x1536x3072xf64> {sdy.sharding = #sdy.sharding<@mesh, [{}, {"y"}, {"x"}]>}, tensor<20x1536x3072xf64> {sdy.sharding = #sdy.sharding<@mesh, [{}, {"y"}, {"x"}]>}, tensor<20x1536x3072xf64> {sdy.sharding = #sdy.sharding<@mesh, [{}, {"y"}, {"x"}]>}, tensor<20x1536x3072xf64> {sdy.sharding = #sdy.sharding<@mesh, [{}, {"y"}, {"x"}]>}, tensor<20x1536x3072xf64> {sdy.sharding = #sdy.sharding<@mesh, [{}, {"y"}, {"x"}]>}, tensor<20x1536x3072xf64> {sdy.sharding = #sdy.sharding<@mesh, [{}, {"y"}, {"x"}]>}, tensor<1x1536x3072xf64> {sdy.sharding = #sdy.sharding<@mesh, [{}, {"y"}, {"x"}]>}, tensor<1x1536x3072xf64> {sdy.sharding = #sdy.sharding<@mesh, [{}, {"y"}, {"x"}]>}, tensor<20x1536x3072xf64> {sdy.sharding = #sdy.sharding<@mesh, [{}, {"y"}, {"x"}]>}, tensor<20x1536x3072xf64> {sdy.sharding = #sdy.sharding<@mesh, [{}, {"y"}, {"x"}]>}, tensor<20x1536x3072xf64> {sdy.sharding = #sdy.sharding<@mesh, [{}, {"y"}, {"x"}]>}, tensor<20x1536x3072xf64> {sdy.sharding = #sdy.sharding<@mesh, [{}, {"y"}, {"x"}]>}, tensor<1x1536x3072xf64> {sdy.sharding = #sdy.sharding<@mesh, [{}, {"y"}, {"x"}]>}, tensor<1x1536x3072xf64> {sdy.sharding = #sdy.sharding<@mesh, [{}, {"y"}, {"x"}]>}, tensor<20x1536x3072xf64> {sdy.sharding = #sdy.sharding<@mesh, [{}, {"y"}, {"x"}]>}, tensor<20x1536x3072xf64> {sdy.sharding = #sdy.sharding<@mesh, [{}, {"y"}, {"x"}]>}) attributes {enzymexla.memory_effects = []} {
    %cst = stablehlo.constant dense<0.000000e+00> : tensor<4x1519x3056xf64>
    %cst_0 = stablehlo.constant dense<-6.500000e+00> : tensor<4x1516x3056xf64>
    %cst_1 = stablehlo.constant dense<2.500000e+00> : tensor<4x1516x3056xf64>
    %cst_2 = stablehlo.constant dense<5.000000e+00> : tensor<4x1516x3056xf64>
    %cst_3 = stablehlo.constant dense<2.000000e+00> : tensor<4x1516x3056xf64>
    %cst_4 = stablehlo.constant dense<-6.500000e+00> : tensor<4x1515x3056xf64>
    %cst_5 = stablehlo.constant dense<-9.500000e+00> : tensor<4x1516x3056xf64>
    %cst_6 = stablehlo.constant dense<5.500000e+00> : tensor<4x1516x3056xf64>
    %cst_7 = stablehlo.constant dense<-1.300000e+01> : tensor<4x1515x3056xf64>
    %cst_8 = stablehlo.constant dense<2.500000e+00> : tensor<4x1515x3056xf64>
    %cst_9 = stablehlo.constant dense<2.000000e+00> : tensor<4x1515x3056xf64>
    %cst_10 = stablehlo.constant dense<6.500000e+00> : tensor<4x1516x3056xf64>
    %cst_11 = stablehlo.constant dense<-1.550000e+01> : tensor<4x1516x3056xf64>
    %cst_12 = stablehlo.constant dense<1.250000e+01> : tensor<4x1516x3056xf64>
    %cst_13 = stablehlo.constant dense<5.000000e+00> : tensor<4x1515x3056xf64>
    %cst_14 = stablehlo.constant dense<-9.500000e+00> : tensor<4x1515x3056xf64>
    %cst_15 = stablehlo.constant dense<5.500000e+00> : tensor<4x1515x3056xf64>
    %cst_16 = stablehlo.constant dense<-1.900000e+01> : tensor<4x1515x3056xf64>
    %cst_17 = stablehlo.constant dense<1.100000e+01> : tensor<4x1515x3056xf64>
    %cst_18 = stablehlo.constant dense<6.500000e+00> : tensor<4x1515x3056xf64>
    %cst_19 = stablehlo.constant dense<-1.550000e+01> : tensor<4x1515x3056xf64>
    %cst_20 = stablehlo.constant dense<1.250000e+01> : tensor<4x1515x3056xf64>
    %cst_21 = stablehlo.constant dense<1.300000e+01> : tensor<4x1515x3056xf64>
    %cst_22 = stablehlo.constant dense<-3.100000e+01> : tensor<4x1515x3056xf64>
    %cst_23 = stablehlo.constant dense<2.500000e+01> : tensor<4x1515x3056xf64>
    %cst_24 = stablehlo.constant dense<4.000000e+00> : tensor<4x1516x3056xf64>
    %cst_25 = stablehlo.constant dense<1.000000e+01> : tensor<4x1516x3056xf64>
    %cst_26 = stablehlo.constant dense<4.000000e+00> : tensor<4x1515x3056xf64>
    %cst_27 = stablehlo.constant dense<1.000000e+01> : tensor<4x1515x3056xf64>
    %cst_28 = stablehlo.constant dense<-2.000000e+00> : tensor<4x1517x3056xf64>
    %cst_29 = stablehlo.constant dense<5.000000e-01> : tensor<4x1516x3056xf64>
    %cst_30 = stablehlo.constant dense<0.000000e+00> : tensor<3x1520x3056xf64>
    %cst_31 = stablehlo.constant dense<9.9999999392252903E-9> : tensor<4x1515x3056xf64>
    %cst_32 = stablehlo.constant dense<-5.000000e-01> : tensor<4x1516x3056xf64>
    %cst_33 = stablehlo.constant dense<9.9999999392252903E-9> : tensor<4x1516x3056xf64>
    %cst_34 = stablehlo.constant dense<9.9999999392252903E-9> : tensor<4x1518x3056xf64>
    %cst_35 = stablehlo.constant dense<-2.000000e+00> : tensor<3x1520x3056xf64>
    %cst_36 = stablehlo.constant dense<1.000000e+00> : tensor<4x1515x3056xf32>
    %cst_37 = stablehlo.constant dense<9.9999999392252903E-9> : tensor<4x1517x3056xf64>
    %cst_38 = stablehlo.constant dense<1.000000e+00> : tensor<4x1516x3056xf32>
    %cst_39 = stablehlo.constant dense<1.000000e+00> : tensor<4x1518x3056xf32>
    %cst_40 = stablehlo.constant dense<1.000000e+00> : tensor<4x1517x3056xf32>
    %cst_41 = stablehlo.constant dense<-11704.729120479866> : tensor<4x1516x3056xf64>
    %cst_42 = stablehlo.constant dense<11704.729120479866> : tensor<4x1515x3056xf64>
    %cst_43 = stablehlo.constant dense<5.000000e-01> : tensor<4x1514x3056xf64>
    %cst_44 = stablehlo.constant dense<-5.000000e-01> : tensor<4x1514x3056xf64>
    %cst_45 = stablehlo.constant dense<1.000000e+00> : tensor<1516xf64>
    %cst_46 = stablehlo.constant dense<9.9999999392252903E-9> : tensor<3x1520x3056xf64>
    %cst_47 = stablehlo.constant dense<6.000000e-01> : tensor<4x1515x3056xf64>
    %cst_48 = stablehlo.constant dense<3.000000e-01> : tensor<4x1515x3056xf64>
    %cst_49 = stablehlo.constant dense<11704.729120479866> : tensor<4x1516x3056xf64>
    %cst_50 = stablehlo.constant dense<6.000000e-01> : tensor<4x1516x3056xf64>
    %cst_51 = stablehlo.constant dense<3.000000e-01> : tensor<4x1516x3056xf64>
    %cst_52 = stablehlo.constant dense<-5.000000e-01> : tensor<4x1515x3056xf64>
    %cst_53 = stablehlo.constant dense<5.000000e-01> : tensor<4x1515x3056xf64>
    %cst_54 = stablehlo.constant dense<5.000000e-01> : tensor<3x1519x3056xf64>
    %cst_55 = stablehlo.constant dense<1.000000e+00> : tensor<3x1520x3056xf32>
    %cst_56 = stablehlo.constant dense<-0.083333333333333329> : tensor<3x1515x3056xf64>
    %cst_57 = stablehlo.constant dense<-0.083333333333333259> : tensor<3x1515x3056xf64>
    %cst_58 = stablehlo.constant {enzymexla.non_negative = [#enzymexla<guaranteed GUARANTEED>]} dense<0.58333333333333326> : tensor<3x1515x3056xf64>
    %cst_59 = stablehlo.constant dense<-0.16666666666666674> : tensor<4x1515x3056xf64>
    %cst_60 = stablehlo.constant dense<0.83333333333333337> : tensor<4x1515x3056xf64>
    %cst_61 = stablehlo.constant dense<0.33333333333333337> : tensor<4x1515x3056xf64>
    %cst_62 = stablehlo.constant dense<0.33333333333333348> : tensor<4x1515x3056xf64>
    %cst_63 = stablehlo.constant dense<-0.16666666666666669> : tensor<4x1515x3056xf64>
    %cst_64 = stablehlo.constant dense<0.83333333333333326> : tensor<4x1515x3056xf64>
    %cst_65 = stablehlo.constant dense<1.000000e+00> : tensor<4x1515x3056xf64>
    %cst_66 = stablehlo.constant dense<1.000000e-01> : tensor<4x1515x3056xf64>
    %cst_67 = stablehlo.constant dense<1.8333333333333335> : tensor<4x1515x3056xf64>
    %cst_68 = stablehlo.constant dense<-1.1666666666666667> : tensor<4x1515x3056xf64>
    %cst_69 = stablehlo.constant dense<0.33333333333333326> : tensor<4x1515x3056xf64>
    %cst_70 = stablehlo.constant dense<0.66666666666666663> : tensor<4x1517x3056xf64>
    %cst_71 = stablehlo.constant dense<0.33333333333333331> : tensor<4x1517x3056xf64>
    %cst_72 = stablehlo.constant dense<0.000000e+00> : tensor<1517x4xf64>
    %cst_73 = stablehlo.constant dense<-0.083333333333333329> : tensor<3x1520x3056xf64>
    %cst_74 = stablehlo.constant dense<-0.083333333333333259> : tensor<3x1520x3056xf64>
    %cst_75 = stablehlo.constant dense<0.58333333333333326> : tensor<3x1520x3056xf64>
    %cst_76 = stablehlo.constant dense<-0.16666666666666674> : tensor<4x1516x3056xf64>
    %cst_77 = stablehlo.constant dense<0.83333333333333337> : tensor<4x1516x3056xf64>
    %cst_78 = stablehlo.constant dense<0.33333333333333337> : tensor<4x1516x3056xf64>
    %cst_79 = stablehlo.constant dense<0.83333333333333326> : tensor<4x1516x3056xf64>
    %cst_80 = stablehlo.constant dense<0.33333333333333348> : tensor<4x1516x3056xf64>
    %cst_81 = stablehlo.constant dense<-0.16666666666666669> : tensor<4x1516x3056xf64>
    %cst_82 = stablehlo.constant dense<1.000000e+00> : tensor<4x1516x3056xf64>
    %cst_83 = stablehlo.constant dense<1.000000e-01> : tensor<4x1516x3056xf64>
    %cst_84 = stablehlo.constant dense<1.8333333333333335> : tensor<4x1516x3056xf64>
    %cst_85 = stablehlo.constant dense<-1.1666666666666667> : tensor<4x1516x3056xf64>
    %cst_86 = stablehlo.constant dense<0.33333333333333326> : tensor<4x1516x3056xf64>
    %cst_87 = stablehlo.constant dense<0.66666666666666663> : tensor<4x1518x3056xf64>
    %cst_88 = stablehlo.constant dense<0.33333333333333331> : tensor<4x1518x3056xf64>
    %cst_89 = stablehlo.constant dense<11704.729120479866> : tensor<4x1518x3056xf64>
    %cst_90 = stablehlo.constant dense<0.000000e+00> : tensor<4x1534x3070xf64>
    %cst_91 = stablehlo.constant dense<0.000000e+00> : tensor<1x1520x3056xf64>
    %cst_92 = stablehlo.constant dense<0.0048071813725490192> : tensor<1522x3058xf64>
    %cst_93 = stablehlo.constant dense<-0.0048071813725490192> : tensor<3x1522x3058xf64>
    %cst_94 = stablehlo.constant {enzymexla.non_negative = [#enzymexla<guaranteed GUARANTEED>]} dense<5.000000e-01> : tensor<3x1520x3056xf64>
    %cst_95 = stablehlo.constant dense<0.66666666666666663> : tensor<3x1520x3056xf64>
    %cst_96 = stablehlo.constant dense<0.33333333333333331> : tensor<3x1520x3056xf64>
    %cst_97 = stablehlo.constant dense<1.000000e+00> : tensor<3x1520x3056xf64>
    %cst_98 = stablehlo.constant dense<-5.000000e-01> : tensor<3x1520x3056xf64>
    %cst_99 = stablehlo.constant dense<1.500000e+00> : tensor<3x1520x3056xf64>
    %cst_100 = stablehlo.constant dense<-8.5435552562279404E-5> : tensor<4x1520x3056xf64>
    %cst_101 = stablehlo.constant dense<1.000000e+00> : tensor<1519xf64>
    %cst_102 = stablehlo.constant dense<5.000000e-01> : tensor<f64>
    %cst_103 = stablehlo.constant dense<7.2921149999999999E-5> : tensor<1520xf64>
    %cst_104 = stablehlo.constant dense<-0.083333333333333329> : tensor<4x1515x3056xf64>
    %cst_105 = stablehlo.constant dense<-0.083333333333333259> : tensor<4x1515x3056xf64>
    %cst_106 = stablehlo.constant dense<0.58333333333333326> : tensor<4x1515x3056xf64>
    %cst_107 = stablehlo.constant dense<5.000000e-01> : tensor<4x1517x3056xf64>
    %cst_108 = stablehlo.constant dense<1.000000e+00> : tensor<4x1517x3056xf64>
    %cst_109 = stablehlo.constant dense<-5.000000e-01> : tensor<4x1517x3056xf64>
    %cst_110 = stablehlo.constant dense<1.500000e+00> : tensor<4x1517x3056xf64>
    %cst_111 = stablehlo.constant dense<1.000000e+00> : tensor<4x1519x3056xf64>
    %cst_112 = stablehlo.constant dense<-0.083333333333333329> : tensor<4x1517x3056xf64>
    %cst_113 = stablehlo.constant dense<-0.083333333333333259> : tensor<4x1517x3056xf64>
    %cst_114 = stablehlo.constant dense<0.58333333333333326> : tensor<4x1517x3056xf64>
    %cst_115 = stablehlo.constant dense<0.000000e+00> : tensor<1519x4xf64>
    %cst_116 = stablehlo.constant dense<-9.500000e+00> : tensor<4x1519x3056xf64>
    %cst_117 = stablehlo.constant dense<-6.500000e+00> : tensor<4x1519x3056xf64>
    %cst_118 = stablehlo.constant dense<2.000000e+00> : tensor<4x1519x3056xf64>
    %cst_119 = stablehlo.constant dense<-1.550000e+01> : tensor<4x1519x3056xf64>
    %cst_120 = stablehlo.constant {enzymexla.non_negative = [#enzymexla<guaranteed GUARANTEED>]} dense<8.5435552562279404E-5> : tensor<4x1520x3056xf64>
    %cst_121 = stablehlo.constant dense<2926.1822801199664> : tensor<4x1520x3056xf64>
    %cst_122 = stablehlo.constant dense<2.500000e-01> : tensor<4x1520x3056xf64>
    %cst_123 = stablehlo.constant {enzymexla.non_negative = [#enzymexla<guaranteed GUARANTEED>]} dense<2.500000e-01> : tensor<1520xf64>
    %cst_124 = stablehlo.constant dense<2.000000e+00> : tensor<f64>
    %cst_125 = stablehlo.constant dense<0.000000e+00> : tensor<1xf64>
    %cst_126 = stablehlo.constant dense<2.000000e+00> : tensor<1519xf64>
    %cst_127 = stablehlo.constant dense<-7.2921149999999999E-5> : tensor<1520xf64>
    %c = stablehlo.constant dense<-759> : tensor<1520xi64>
    %cst_128 = stablehlo.constant dense<0.0018371886863098204> : tensor<1520xf64>
    %cst_129 = stablehlo.constant dense<0.000000e+00> : tensor<1520xf64>
    %c_130 = stablehlo.constant dense<-760> : tensor<1520xi64>
    %cst_131 = stablehlo.constant dense<-1.550000e+01> : tensor<4x1520x3056xf64>
    %cst_132 = stablehlo.constant dense<-9.500000e+00> : tensor<4x1520x3056xf64>
    %cst_133 = stablehlo.constant dense<1.250000e+01> : tensor<4x1520x3056xf64>
    %cst_134 = stablehlo.constant dense<-6.500000e+00> : tensor<4x1520x3056xf64>
    %cst_135 = stablehlo.constant dense<2.000000e+00> : tensor<4x1520x3056xf64>
    %cst_136 = stablehlo.constant dense<-0.083333333333333329> : tensor<4x1518x3056xf64>
    %cst_137 = stablehlo.constant dense<-0.083333333333333259> : tensor<4x1518x3056xf64>
    %cst_138 = stablehlo.constant dense<0.58333333333333326> : tensor<4x1518x3056xf64>
    %cst_139 = stablehlo.constant dense<-5.000000e-01> : tensor<4x1519x3056xf64>
    %cst_140 = stablehlo.constant dense<5.000000e-01> : tensor<4x1519x3056xf64>
    %cst_141 = stablehlo.constant dense<1.000000e+00> : tensor<1520x4xf64>
    %cst_142 = stablehlo.constant dense<-2.000000e+00> : tensor<4x1520x3056xf64>
    %c_143 = stablehlo.constant dense<-2> : tensor<4xi64>
    %c_144 = stablehlo.constant dense<[false, true, true, true]> : tensor<4xi1>
    %c_145 = stablehlo.constant dense<-1> : tensor<4xi64>
    %cst_146 = stablehlo.constant dense<-0.083333333333333329> : tensor<4x1520x3056xf64>
    %cst_147 = stablehlo.constant dense<-0.083333333333333259> : tensor<4x1520x3056xf64>
    %cst_148 = stablehlo.constant dense<2.500000e+01> : tensor<4x1520x3056xf64>
    %cst_149 = stablehlo.constant dense<-1.900000e+01> : tensor<4x1520x3056xf64>
    %cst_150 = stablehlo.constant dense<-1.300000e+01> : tensor<4x1520x3056xf64>
    %cst_151 = stablehlo.constant dense<-3.100000e+01> : tensor<4x1520x3056xf64>
    %cst_152 = stablehlo.constant dense<0.58333333333333326> : tensor<4x1520x3056xf64>
    %cst_153 = stablehlo.constant dense<0.000000e+00> : tensor<1520x4xf64>
    %cst_154 = stablehlo.constant dense<5.000000e-01> : tensor<4x1518x3056xf64>
    %cst_155 = stablehlo.constant dense<1.000000e+00> : tensor<4x1518x3056xf64>
    %cst_156 = stablehlo.constant dense<-5.000000e-01> : tensor<4x1518x3056xf64>
    %cst_157 = stablehlo.constant dense<1.500000e+00> : tensor<4x1518x3056xf64>
    %cst_158 = stablehlo.constant dense<1.500000e+00> : tensor<4x1520x3056xf64>
    %cst_159 = stablehlo.constant dense<0.33333333333333331> : tensor<4x1520x3056xf64>
    %cst_160 = stablehlo.constant dense<0.66666666666666663> : tensor<4x1520x3056xf64>
    %cst_161 = stablehlo.constant dense<-0.16666666666666674> : tensor<4x1520x3056xf64>
    %cst_162 = stablehlo.constant dense<1.000000e-01> : tensor<4x1520x3056xf64>
    %cst_163 = stablehlo.constant dense<6.000000e-01> : tensor<4x1520x3056xf64>
    %cst_164 = stablehlo.constant dense<3.000000e-01> : tensor<4x1520x3056xf64>
    %cst_165 = stablehlo.constant dense<1.000000e+00> : tensor<4x1520x3056xf32>
    %cst_166 = stablehlo.constant dense<9.9999999392252903E-9> : tensor<4x1520x3056xf64>
    %cst_167 = stablehlo.constant dense<-5.000000e-01> : tensor<4x1520x3056xf64>
    %cst_168 = stablehlo.constant dense<1.000000e+01> : tensor<4x1520x3056xf64>
    %cst_169 = stablehlo.constant dense<6.500000e+00> : tensor<4x1520x3056xf64>
    %cst_170 = stablehlo.constant dense<4.000000e+00> : tensor<4x1520x3056xf64>
    %cst_171 = stablehlo.constant dense<1.000000e+00> : tensor<4x1520x3056xf64>
    %cst_172 = stablehlo.constant dense<2.500000e+00> : tensor<4x1519x3056xf64>
    %cst_173 = stablehlo.constant dense<2.500000e+00> : tensor<4x1520x3056xf64>
    %cst_174 = stablehlo.constant dense<5.000000e+00> : tensor<4x1520x3056xf64>
    %cst_175 = stablehlo.constant dense<-0.16666666666666669> : tensor<4x1520x3056xf64>
    %cst_176 = stablehlo.constant dense<0.33333333333333348> : tensor<4x1520x3056xf64>
    %cst_177 = stablehlo.constant dense<0.83333333333333326> : tensor<4x1520x3056xf64>
    %cst_178 = stablehlo.constant dense<-1.1666666666666667> : tensor<4x1520x3056xf64>
    %cst_179 = stablehlo.constant dense<1.8333333333333335> : tensor<4x1520x3056xf64>
    %cst_180 = stablehlo.constant dense<0.33333333333333326> : tensor<4x1520x3056xf64>
    %cst_181 = stablehlo.constant dense<5.500000e+00> : tensor<4x1519x3056xf64>
    %cst_182 = stablehlo.constant dense<5.000000e+00> : tensor<4x1519x3056xf64>
    %cst_183 = stablehlo.constant dense<5.500000e+00> : tensor<4x1520x3056xf64>
    %cst_184 = stablehlo.constant dense<1.300000e+01> : tensor<4x1520x3056xf64>
    %cst_185 = stablehlo.constant dense<1.100000e+01> : tensor<4x1520x3056xf64>
    %cst_186 = stablehlo.constant dense<-11704.729120479866> : tensor<4x1519x3056xf64>
    %cst_187 = stablehlo.constant dense<11704.729120479866> : tensor<4x1519x3056xf64>
    %cst_188 = stablehlo.constant {enzymexla.non_negative = [#enzymexla<guaranteed GUARANTEED>]} dense<11704.729120479866> : tensor<4x1520x3056xf64>
    %cst_189 = stablehlo.constant dense<0.83333333333333337> : tensor<4x1520x3056xf64>
    %cst_190 = stablehlo.constant dense<0.33333333333333337> : tensor<4x1520x3056xf64>
    %cst_191 = stablehlo.constant dense<0.000000e+00> : tensor<4x1520x3056xf64>
    %cst_192 = stablehlo.constant dense<5.000000e-01> : tensor<4x1520x3056xf64>
    %c_193 = stablehlo.constant dense<[0, 1, 2, 3]> : tensor<4xi64>
    %cst_194 = stablehlo.constant dense<1.020000e+03> : tensor<3x1522x3058xf64>
    %cst_195 = stablehlo.constant dense<801.89615746000004> : tensor<3x1522x3058xf64>
    %cst_196 = stablehlo.constant dense<866.72408165000002> : tensor<3x1522x3058xf64>
    %cst_197 = stablehlo.constant dense<-1786.4682637000001> : tensor<3x1522x3058xf64>
    %cst_198 = stablehlo.constant dense<2037.5295546> : tensor<3x1522x3058xf64>
    %cst_199 = stablehlo.constant dense<-1284.9161071000001> : tensor<3x1522x3058xf64>
    %cst_200 = stablehlo.constant dense<-60.579916611999998> : tensor<3x1522x3058xf64>
    %cst_201 = stablehlo.constant dense<432.27585684000002> : tensor<3x1522x3058xf64>
    %cst_202 = stablehlo.constant dense<26.010145068> : tensor<3x1522x3058xf64>
    %cst_203 = stablehlo.constant dense<-65.281885265> : tensor<3x1522x3058xf64>
    %cst_204 = stablehlo.constant dense<81.770425107999997> : tensor<3x1522x3058xf64>
    %cst_205 = stablehlo.constant dense<-56.888046320999997> : tensor<3x1522x3058xf64>
    %cst_206 = stablehlo.constant dense<-1.9193502195000001> : tensor<3x1522x3058xf64>
    %cst_207 = stablehlo.constant dense<17.681814114000002> : tensor<3x1522x3058xf64>
    %cst_208 = stablehlo.constant dense<-37.074170416999998> : tensor<3x1522x3058xf64>
    %cst_209 = stablehlo.constant dense<61.548258126999997> : tensor<3x1522x3058xf64>
    %cst_210 = stablehlo.constant dense<-60.362551500999999> : tensor<3x1522x3058xf64>
    %cst_211 = stablehlo.constant dense<-5.4723692739000001> : tensor<3x1522x3058xf64>
    %cst_212 = stablehlo.constant dense<29.130021252999999> : tensor<3x1522x3058xf64>
    %cst_213 = stablehlo.constant dense<21.661789529> : tensor<3x1522x3058xf64>
    %cst_214 = stablehlo.constant dense<-33.449108469000002> : tensor<3x1522x3058xf64>
    %cst_215 = stablehlo.constant dense<-3.1742946532> : tensor<3x1522x3058xf64>
    %cst_216 = stablehlo.constant dense<19.717078466> : tensor<3x1522x3058xf64>
    %cst_217 = stablehlo.constant dense<-8.3627885466999992> : tensor<3x1522x3058xf64>
    %cst_218 = stablehlo.constant dense<-5.3563304045000004> : tensor<3x1522x3058xf64>
    %cst_219 = stablehlo.constant dense<11.311538583999999> : tensor<3x1522x3058xf64>
    %cst_220 = stablehlo.constant dense<0.54048723790999997> : tensor<3x1522x3058xf64>
    %cst_221 = stablehlo.constant dense<-0.0047708922220000005> : tensor<3x1522x3058xf64>
    %cst_222 = stablehlo.constant dense<0.48169980162999998> : tensor<3x1522x3058xf64>
    %cst_223 = stablehlo.constant dense<19.681925208999999> : tensor<3x1522x3058xf64>
    %cst_224 = stablehlo.constant dense<-42.549998213999999> : tensor<3x1522x3058xf64>
    %cst_225 = stablehlo.constant dense<50.774768217999998> : tensor<3x1522x3058xf64>
    %cst_226 = stablehlo.constant dense<-30.938076334000002> : tensor<3x1522x3058xf64>
    %cst_227 = stablehlo.constant dense<6.6051753096999999> : tensor<3x1522x3058xf64>
    %cst_228 = stablehlo.constant dense<-13.336301112999999> : tensor<3x1522x3058xf64>
    %cst_229 = stablehlo.constant dense<-4.4870114575000004> : tensor<3x1522x3058xf64>
    %cst_230 = stablehlo.constant dense<-0.65399043664000001> : tensor<3x1522x3058xf64>
    %cst_231 = stablehlo.constant dense<5.0042598061000003> : tensor<3x1522x3058xf64>
    %cst_232 = stablehlo.constant dense<6.7080479603000001> : tensor<3x1522x3058xf64>
    %cst_233 = stablehlo.constant dense<-1.8795372995999999> : tensor<3x1522x3058xf64>
    %cst_234 = stablehlo.constant dense<3.5063081279000001> : tensor<3x1522x3058xf64>
    %cst_235 = stablehlo.constant dense<-2.4649669533999998> : tensor<3x1522x3058xf64>
    %cst_236 = stablehlo.constant dense<-0.55077101278999996> : tensor<3x1522x3058xf64>
    %cst_237 = stablehlo.constant dense<0.0139819839925> : tensor<3x1522x3058xf64>
    %cst_238 = stablehlo.constant dense<2.0660924175000002> : tensor<3x1522x3058xf64>
    %cst_239 = stablehlo.constant dense<-4.9527603988999997> : tensor<3x1522x3058xf64>
    %cst_240 = stablehlo.constant dense<2.5019633244000001> : tensor<3x1522x3058xf64>
    %cst_241 = stablehlo.constant dense<2.0564311498999999> : tensor<3x1522x3058xf64>
    %cst_242 = stablehlo.constant dense<-0.21311365518> : tensor<3x1522x3058xf64>
    %cst_243 = stablehlo.constant dense<-0.031049957565000005> : tensor<3x1522x3058xf64>
    %cst_244 = stablehlo.constant dense<-0.023342758796999999> : tensor<3x1522x3058xf64>
    %cst_245 = stablehlo.constant dense<-0.018507636718000001> : tensor<3x1522x3058xf64>
    %cst_246 = stablehlo.constant dense<0.0094924551137499993> : tensor<3x1522x3058xf64>
    %cst_247 = stablehlo.constant dense<1.000000e-04> : tensor<3xf64>
    %cst_248 = stablehlo.constant dense<0.024882667558461472> : tensor<3x1522x3058xf64>
    %cst_249 = stablehlo.constant dense<3.200000e+01> : tensor<3x1522x3058xf64>
    %cst_250 = stablehlo.constant dense<2.500000e-02> : tensor<3x1522x3058xf64>
    %cst_251 = stablehlo.constant dense<1.020000e+03> : tensor<1522x3058xf64>
    %cst_252 = stablehlo.constant dense<801.89615746000004> : tensor<1522x3058xf64>
    %cst_253 = stablehlo.constant dense<866.72408165000002> : tensor<1522x3058xf64>
    %cst_254 = stablehlo.constant dense<-1786.4682637000001> : tensor<1522x3058xf64>
    %cst_255 = stablehlo.constant dense<2037.5295546> : tensor<1522x3058xf64>
    %cst_256 = stablehlo.constant dense<-1284.9161071000001> : tensor<1522x3058xf64>
    %cst_257 = stablehlo.constant dense<-60.579916611999998> : tensor<1522x3058xf64>
    %cst_258 = stablehlo.constant dense<432.27585684000002> : tensor<1522x3058xf64>
    %cst_259 = stablehlo.constant dense<26.010145068> : tensor<1522x3058xf64>
    %cst_260 = stablehlo.constant dense<-65.281885265> : tensor<1522x3058xf64>
    %cst_261 = stablehlo.constant dense<81.770425107999997> : tensor<1522x3058xf64>
    %cst_262 = stablehlo.constant dense<-56.888046320999997> : tensor<1522x3058xf64>
    %cst_263 = stablehlo.constant dense<-1.9193502195000001> : tensor<1522x3058xf64>
    %cst_264 = stablehlo.constant dense<17.681814114000002> : tensor<1522x3058xf64>
    %cst_265 = stablehlo.constant dense<-37.074170416999998> : tensor<1522x3058xf64>
    %cst_266 = stablehlo.constant dense<61.548258126999997> : tensor<1522x3058xf64>
    %cst_267 = stablehlo.constant dense<-60.362551500999999> : tensor<1522x3058xf64>
    %cst_268 = stablehlo.constant dense<-5.4723692739000001> : tensor<1522x3058xf64>
    %cst_269 = stablehlo.constant dense<29.130021252999999> : tensor<1522x3058xf64>
    %cst_270 = stablehlo.constant dense<21.661789529> : tensor<1522x3058xf64>
    %cst_271 = stablehlo.constant dense<-33.449108469000002> : tensor<1522x3058xf64>
    %cst_272 = stablehlo.constant dense<-3.1742946532> : tensor<1522x3058xf64>
    %cst_273 = stablehlo.constant dense<19.717078466> : tensor<1522x3058xf64>
    %cst_274 = stablehlo.constant dense<-8.3627885466999992> : tensor<1522x3058xf64>
    %cst_275 = stablehlo.constant dense<-5.3563304045000004> : tensor<1522x3058xf64>
    %cst_276 = stablehlo.constant dense<11.311538583999999> : tensor<1522x3058xf64>
    %cst_277 = stablehlo.constant dense<0.54048723790999997> : tensor<1522x3058xf64>
    %cst_278 = stablehlo.constant dense<-0.0047708922220000005> : tensor<1522x3058xf64>
    %cst_279 = stablehlo.constant dense<0.48169980162999998> : tensor<1522x3058xf64>
    %cst_280 = stablehlo.constant dense<19.681925208999999> : tensor<1522x3058xf64>
    %cst_281 = stablehlo.constant dense<-42.549998213999999> : tensor<1522x3058xf64>
    %cst_282 = stablehlo.constant dense<50.774768217999998> : tensor<1522x3058xf64>
    %cst_283 = stablehlo.constant dense<-30.938076334000002> : tensor<1522x3058xf64>
    %cst_284 = stablehlo.constant dense<6.6051753096999999> : tensor<1522x3058xf64>
    %cst_285 = stablehlo.constant dense<-13.336301112999999> : tensor<1522x3058xf64>
    %cst_286 = stablehlo.constant dense<-4.4870114575000004> : tensor<1522x3058xf64>
    %cst_287 = stablehlo.constant dense<-0.65399043664000001> : tensor<1522x3058xf64>
    %cst_288 = stablehlo.constant dense<5.0042598061000003> : tensor<1522x3058xf64>
    %cst_289 = stablehlo.constant dense<6.7080479603000001> : tensor<1522x3058xf64>
    %cst_290 = stablehlo.constant dense<-1.8795372995999999> : tensor<1522x3058xf64>
    %cst_291 = stablehlo.constant dense<3.5063081279000001> : tensor<1522x3058xf64>
    %cst_292 = stablehlo.constant dense<-2.4649669533999998> : tensor<1522x3058xf64>
    %cst_293 = stablehlo.constant dense<-0.55077101278999996> : tensor<1522x3058xf64>
    %cst_294 = stablehlo.constant dense<0.0139819839925> : tensor<1522x3058xf64>
    %cst_295 = stablehlo.constant dense<2.0660924175000002> : tensor<1522x3058xf64>
    %cst_296 = stablehlo.constant dense<-4.9527603988999997> : tensor<1522x3058xf64>
    %cst_297 = stablehlo.constant dense<2.5019633244000001> : tensor<1522x3058xf64>
    %cst_298 = stablehlo.constant dense<2.0564311498999999> : tensor<1522x3058xf64>
    %cst_299 = stablehlo.constant dense<-0.21311365518> : tensor<1522x3058xf64>
    %cst_300 = stablehlo.constant dense<-0.031049957565000005> : tensor<1522x3058xf64>
    %cst_301 = stablehlo.constant dense<-0.023342758796999999> : tensor<1522x3058xf64>
    %cst_302 = stablehlo.constant dense<-0.018507636718000001> : tensor<1522x3058xf64>
    %cst_303 = stablehlo.constant dense<0.0094924551137499993> : tensor<1522x3058xf64>
    %cst_304 = stablehlo.constant dense<1.000000e-04> : tensor<f64>
    %cst_305 = stablehlo.constant dense<0.024882667558461472> : tensor<1522x3058xf64>
    %cst_306 = stablehlo.constant dense<3.200000e+01> : tensor<1522x3058xf64>
    %cst_307 = stablehlo.constant dense<2.500000e-02> : tensor<1522x3058xf64>
    %cst_308 = stablehlo.constant dense<0.000000e+00> : tensor<4xf64>
    %cst_309 = stablehlo.constant dense<11704.729120479866> : tensor<4xf64>
    %cst_310 = stablehlo.constant dense<1.000000e+00> : tensor<1534xf64>
    %c_311 = stablehlo.constant dense<12> : tensor<i32>
    %c_312 = stablehlo.constant dense<7> : tensor<i32>
    %c_313 = stablehlo.constant dense<1528> : tensor<i32>
    %c_314 = stablehlo.constant dense<8> : tensor<i32>
    %cst_315 = stablehlo.constant dense<2.500000e-04> : tensor<1519x3056xf64>
    %cst_316 = stablehlo.constant dense<2.500000e-04> : tensor<1520x3056xf64>
    %cst_317 = stablehlo.constant dense<0.029835532217386728> : tensor<1x1520x3056xf64>
    %cst_318 = stablehlo.constant dense<0.029835532217386728> : tensor<1520x3056xf64>
    %cst_319 = stablehlo.constant dense<-3.3513462461395092> : tensor<1x1519x3056xf64>
    %cst_320 = stablehlo.constant dense<0.06559479830018361> : tensor<1520x3056xf64>
    %cst_321 = stablehlo.constant dense<0.06559479830018361> : tensor<1x1520x3056xf64>
    %cst_322 = stablehlo.constant dense<0.088377382642315747> : tensor<1520x3056xf64>
    %cst_323 = stablehlo.constant dense<0.088377382642315747> : tensor<1x1520x3056xf64>
    %cst_324 = stablehlo.constant dense<0.10089518635745921> : tensor<1520x3056xf64>
    %cst_325 = stablehlo.constant dense<0.10089518635745921> : tensor<1x1520x3056xf64>
    %cst_326 = stablehlo.constant dense<0.10546443106440806> : tensor<1520x3056xf64>
    %cst_327 = stablehlo.constant dense<0.10546443106440806> : tensor<1x1520x3056xf64>
    %cst_328 = stablehlo.constant dense<0.1040461758833218> : tensor<1520x3056xf64>
    %cst_329 = stablehlo.constant dense<0.1040461758833218> : tensor<1x1520x3056xf64>
    %cst_330 = stablehlo.constant dense<0.098284644324066944> : tensor<1520x3056xf64>
    %cst_331 = stablehlo.constant dense<0.098284644324066944> : tensor<1x1520x3056xf64>
    %cst_332 = stablehlo.constant dense<0.089543361066653893> : tensor<1520x3056xf64>
    %cst_333 = stablehlo.constant dense<0.089543361066653893> : tensor<1x1520x3056xf64>
    %cst_334 = stablehlo.constant dense<0.078939098633768148> : tensor<1520x3056xf64>
    %cst_335 = stablehlo.constant dense<0.078939098633768148> : tensor<1x1520x3056xf64>
    %cst_336 = stablehlo.constant dense<0.067373633955396375> : tensor<1520x3056xf64>
    %cst_337 = stablehlo.constant dense<0.067373633955396375> : tensor<1x1520x3056xf64>
    %cst_338 = stablehlo.constant dense<0.055563314825547619> : tensor<1520x3056xf64>
    %cst_339 = stablehlo.constant dense<0.055563314825547619> : tensor<1x1520x3056xf64>
    %cst_340 = stablehlo.constant dense<0.044066436251068465> : tensor<1520x3056xf64>
    %cst_341 = stablehlo.constant dense<0.044066436251068465> : tensor<1x1520x3056xf64>
    %cst_342 = stablehlo.constant dense<0.033308426692553815> : tensor<1520x3056xf64>
    %cst_343 = stablehlo.constant dense<0.033308426692553815> : tensor<1x1520x3056xf64>
    %cst_344 = stablehlo.constant dense<0.023604844197351794> : tensor<1520x3056xf64>
    %cst_345 = stablehlo.constant dense<0.023604844197351794> : tensor<1x1520x3056xf64>
    %cst_346 = stablehlo.constant dense<0.015182182424663676> : tensor<1520x3056xf64>
    %cst_347 = stablehlo.constant dense<0.015182182424663676> : tensor<1x1520x3056xf64>
    %cst_348 = stablehlo.constant dense<0.0081964865627385322> : tensor<1520x3056xf64>
    %cst_349 = stablehlo.constant dense<0.0081964865627385322> : tensor<1x1520x3056xf64>
    %cst_350 = stablehlo.constant dense<0.0027497791381626267> : tensor<1520x3056xf64>
    %cst_351 = stablehlo.constant dense<0.0027497791381626267> : tensor<1x1520x3056xf64>
    %cst_352 = stablehlo.constant dense<-0.0010957042827565292> : tensor<1520x3056xf64>
    %cst_353 = stablehlo.constant dense<-0.0010957042827565292> : tensor<1x1520x3056xf64>
    %cst_354 = stablehlo.constant dense<-0.0033054695005112497> : tensor<1520x3056xf64>
    %cst_355 = stablehlo.constant dense<-0.0033054695005112497> : tensor<1x1520x3056xf64>
    %cst_356 = stablehlo.constant dense<-0.0038629081968200459> : tensor<1520x3056xf64>
    %cst_357 = stablehlo.constant dense<-0.0038629081968200459> : tensor<1x1520x3056xf64>
    %cst_358 = stablehlo.constant dense<-0.0027616325569592756> : tensor<1520x3056xf64>
    %cst_359 = stablehlo.constant dense<-0.0027616325569592756> : tensor<1x1520x3056xf64>
    %cst_360 = stablehlo.constant dense<-3.3513462461395092> : tensor<1519x3056xf64>
    %cst_361 = stablehlo.constant dense<0.066666666666666666> : tensor<1x1520x3056xf64>
    %cst_362 = stablehlo.constant dense<-3.922660e+04> : tensor<1520x3056xf64>
    %cst_363 = stablehlo.constant dense<0.066666666666666666> : tensor<1520x3056xf64>
    %cst_364 = stablehlo.constant dense<1.000000e+00> : tensor<1520xf64>
    %cst_365 = stablehlo.constant dense<-11704.729120479866> : tensor<1520x3056xf64>
    %cst_366 = stablehlo.constant dense<11704.729120479866> : tensor<1520x3056xf64>
    %cst_367 = stablehlo.constant dense<-6.000000e-01> : tensor<4x1520x3056xf64>
    %cst_368 = stablehlo.constant dense<1.600000e+00> : tensor<4x1520x3056xf64>
    %cst_369 = stablehlo.constant dense<-6.000000e-01> : tensor<3x1519x3056xf64>
    %cst_370 = stablehlo.constant dense<1.600000e+00> : tensor<3x1519x3056xf64>
    %cst_371 = stablehlo.constant dense<-6.000000e-01> : tensor<3x1520x3056xf64>
    %cst_372 = stablehlo.constant dense<1.600000e+00> : tensor<3x1520x3056xf64>
    %cst_373 = stablehlo.constant dense<-6.000000e-01> : tensor<1519x3056xf64>
    %cst_374 = stablehlo.constant dense<1.600000e+00> : tensor<1519x3056xf64>
    %cst_375 = stablehlo.constant dense<-6.000000e-01> : tensor<1520x3056xf64>
    %cst_376 = stablehlo.constant dense<1.600000e+00> : tensor<1520x3056xf64>
    %c_377 = stablehlo.constant dense<0> : tensor<i32>
    %c_378 = stablehlo.constant dense<1> : tensor<i32>
    %cst_379 = stablehlo.constant {enzymexla.no_nan = [#enzymexla<guaranteed GUARANTEED>], enzymexla.non_negative = [#enzymexla<guaranteed GUARANTEED>]} dense<0.000000e+00> : tensor<f64>
    %cst_380 = stablehlo.constant dense<1.000000e+00> : tensor<f64>
    %c_381 = stablehlo.constant dense<0> : tensor<i64>
    %c_382 = stablehlo.constant {enzymexla.non_negative = [#enzymexla<guaranteed GUARANTEED>]} dense<1> : tensor<i64>
    %0 = stablehlo.slice %arg6 [7:1527] : (tensor<1536xf64>) -> tensor<1520xf64>
    %1 = stablehlo.slice %arg10 [8:1528] : (tensor<1536xf64>) -> tensor<1520xf64>
    %2 = stablehlo.slice %arg8 [7:1527] {enzymexla.finite = [#enzymexla<guaranteed NOTGUARANTEED>], enzymexla.non_negative = [#enzymexla<guaranteed NOTGUARANTEED>]} : (tensor<1536xf64>) -> tensor<1520xf64>
    %3 = stablehlo.slice %arg11 [10:1530] : (tensor<1536xf64>) -> tensor<1520xf64>
    %4 = stablehlo.slice %arg5 [10:1530] : (tensor<1536xf64>) -> tensor<1520xf64>
    %5 = stablehlo.slice %arg11 [9:1529] : (tensor<1536xf64>) -> tensor<1520xf64>
    %6 = stablehlo.slice %arg5 [9:1529] : (tensor<1536xf64>) -> tensor<1520xf64>
    %7 = stablehlo.slice %arg11 [8:1528] : (tensor<1536xf64>) -> tensor<1520xf64>
    %8 = stablehlo.slice %arg11 [7:1527] : (tensor<1536xf64>) -> tensor<1520xf64>
    %9 = stablehlo.slice %arg5 [7:1527] : (tensor<1536xf64>) -> tensor<1520xf64>
    %10 = stablehlo.slice %arg5 [6:1526] : (tensor<1536xf64>) -> tensor<1520xf64>
    %11 = stablehlo.slice %arg9 [8:1528] : (tensor<1536xf64>) -> tensor<1520xf64>
    %12 = stablehlo.slice %arg3 [8:12] : (tensor<20xf64>) -> tensor<4xf64>
    %13 = stablehlo.slice %arg2 [10:13] : (tensor<21xf64>) -> tensor<3xf64>
    %14 = stablehlo.slice %arg1 [9:12] : (tensor<20xf64>) -> tensor<3xf64>
    %15 = stablehlo.slice %arg1 [8:11] : (tensor<20xf64>) -> tensor<3xf64>
    %16 = stablehlo.slice %arg2 [13:14] : (tensor<21xf64>) -> tensor<1xf64>
    %17 = stablehlo.slice %arg1 [11:12] : (tensor<20xf64>) -> tensor<1xf64>
    %18 = stablehlo.broadcast_in_dim %12, dims = [1] : (tensor<4xf64>) -> tensor<1534x4xf64>
    %19 = stablehlo.slice %arg8 [1:1535] : (tensor<1536xf64>) -> tensor<1534xf64>
    %20 = stablehlo.slice %arg6 [1:1535] : (tensor<1536xf64>) -> tensor<1534xf64>
    %21 = stablehlo.slice %arg6 [2:1536] : (tensor<1536xf64>) -> tensor<1534xf64>
    %22 = stablehlo.broadcast_in_dim %12, dims = [1] : (tensor<4xf64>) -> tensor<1519x4xf64>
    %23 = stablehlo.slice %arg5 [8:1528] : (tensor<1536xf64>) -> tensor<1520xf64>
    %24 = stablehlo.slice %arg6 [9:1529] : (tensor<1536xf64>) -> tensor<1520xf64>
    %25 = stablehlo.slice %arg8 [8:1528] {enzymexla.finite = [#enzymexla<guaranteed NOTGUARANTEED>], enzymexla.non_negative = [#enzymexla<guaranteed NOTGUARANTEED>]} : (tensor<1536xf64>) -> tensor<1520xf64>
    %26 = stablehlo.slice %arg6 [8:1528] : (tensor<1536xf64>) -> tensor<1520xf64>
    %27 = stablehlo.slice %arg3 [9:12] : (tensor<20xf64>) -> tensor<3xf64>
    %28 = stablehlo.slice %arg3 [8:9] : (tensor<20xf64>) -> tensor<1xf64>
    %29 = stablehlo.iota dim = 0 {enzymexla.non_negative = [#enzymexla<guaranteed GUARANTEED>]} : tensor<1520xi64>
    %30 = stablehlo.slice %arg20 [0:20, 0:1536, 8:3064] : (tensor<20x1536x3072xf64>) -> tensor<20x1536x3056xf64>
    %31 = stablehlo.slice %arg21 [0:20, 0:1536, 8:3064] : (tensor<20x1536x3072xf64>) -> tensor<20x1536x3056xf64>
    %32 = stablehlo.slice %arg23 [0:20, 0:1536, 8:3064] : (tensor<20x1536x3072xf64>) -> tensor<20x1536x3056xf64>
    %33 = stablehlo.slice %arg24 [0:20, 0:1536, 8:3064] : (tensor<20x1536x3072xf64>) -> tensor<20x1536x3056xf64>
    %34 = stablehlo.broadcast_in_dim %25, dims = [1] : (tensor<1520xf64>) -> tensor<3x1520x3056xf64>
    %35 = stablehlo.broadcast_in_dim %25, dims = [1] : (tensor<1520xf64>) -> tensor<4x1520x3056xf64>
    %36 = stablehlo.broadcast_in_dim %1, dims = [0] : (tensor<1520xf64>) -> tensor<1520x4xf64>
    %37 = stablehlo.broadcast_in_dim %2, dims = [1] : (tensor<1520xf64>) -> tensor<4x1520x3056xf64>
    %38 = stablehlo.broadcast_in_dim %26, dims = [1] : (tensor<1520xf64>) -> tensor<4x1520x3056xf64>
    %39 = stablehlo.broadcast_in_dim %0, dims = [1] : (tensor<1520xf64>) -> tensor<4x1520x3056xf64>
    %40 = stablehlo.broadcast_in_dim %11, dims = [0] : (tensor<1520xf64>) -> tensor<1520x4xf64>
    %41 = stablehlo.broadcast_in_dim %25, dims = [0] : (tensor<1520xf64>) -> tensor<1520x4xf64>
    %42 = stablehlo.broadcast_in_dim %26, dims = [0] : (tensor<1520xf64>) -> tensor<1520x4xf64>
    %43 = stablehlo.broadcast_in_dim %12, dims = [1] : (tensor<4xf64>) -> tensor<1520x4xf64>
    %44 = stablehlo.broadcast_in_dim %24, dims = [0] : (tensor<1520xf64>) -> tensor<1520x4xf64>
    %45 = stablehlo.broadcast_in_dim %10, dims = [1] : (tensor<1520xf64>) -> tensor<4x1520x3056xf64>
    %46 = stablehlo.broadcast_in_dim %6, dims = [1] : (tensor<1520xf64>) -> tensor<4x1520x3056xf64>
    %47 = stablehlo.broadcast_in_dim %4, dims = [1] : (tensor<1520xf64>) -> tensor<4x1520x3056xf64>
    %48 = stablehlo.broadcast_in_dim %8, dims = [1] : (tensor<1520xf64>) -> tensor<4x1520x3056xf64>
    %49 = stablehlo.broadcast_in_dim %3, dims = [1] : (tensor<1520xf64>) -> tensor<4x1520x3056xf64>
    %50 = stablehlo.broadcast_in_dim %23, dims = [1] : (tensor<1520xf64>) -> tensor<4x1520x3056xf64>
    %51 = stablehlo.broadcast_in_dim %9, dims = [1] : (tensor<1520xf64>) -> tensor<4x1520x3056xf64>
    %52 = stablehlo.broadcast_in_dim %24, dims = [1] : (tensor<1520xf64>) -> tensor<4x1520x3056xf64>
    %53 = stablehlo.reverse %13, dims = [0] : tensor<3xf64>
    %54 = stablehlo.reverse %14, dims = [0] : tensor<3xf64>
    %55 = stablehlo.reverse %15, dims = [0] : tensor<3xf64>
    %56 = stablehlo.broadcast_in_dim %16, dims = [0] : (tensor<1xf64>) -> tensor<1522x3058xf64>
    %57 = stablehlo.reshape %16 : (tensor<1xf64>) -> tensor<f64>
    %58 = stablehlo.reshape %17 : (tensor<1xf64>) -> tensor<f64>
    %59 = stablehlo.broadcast_in_dim %20, dims = [0] : (tensor<1534xf64>) -> tensor<1534x4xf64>
    %60 = stablehlo.broadcast_in_dim %21, dims = [0] : (tensor<1534xf64>) -> tensor<1534x4xf64>
    %61 = stablehlo.broadcast_in_dim %28, dims = [0] : (tensor<1xf64>) -> tensor<1519x3056xf64>
    %62 = stablehlo.broadcast_in_dim %28, dims = [0] : (tensor<1xf64>) -> tensor<1x1520x3056xf64>
    %63 = stablehlo.broadcast_in_dim %28, dims = [0] : (tensor<1xf64>) -> tensor<1520x3056xf64>
    %64 = stablehlo.slice %arg29 [0:1, 8:1528, 8:3064] : (tensor<1x1536x3072xf64>) -> tensor<1x1520x3056xf64>
    %65 = stablehlo.multiply %36, %43 : tensor<1520x4xf64>
    %66 = stablehlo.multiply %40, %43 : tensor<1520x4xf64>
    %67 = stablehlo.multiply %41, %43 {enzymexla.finite = [#enzymexla<guaranteed NOTGUARANTEED>]} : tensor<1520x4xf64>
    %68 = stablehlo.multiply %42, %43 : tensor<1520x4xf64>
    %69 = stablehlo.multiply %44, %43 : tensor<1520x4xf64>
    %70 = stablehlo.broadcast_in_dim %53, dims = [0] : (tensor<3xf64>) -> tensor<3x1522x3058xf64>
    %71 = stablehlo.negate %54 : tensor<3xf64>
    %72 = stablehlo.negate %55 : tensor<3xf64>
    %73 = stablehlo.add %58, %57 : tensor<f64>
    %74 = stablehlo.negate %58 : tensor<f64>
    %75 = stablehlo.multiply %59, %18 : tensor<1534x4xf64>
    %76 = stablehlo.multiply %60, %18 : tensor<1534x4xf64>
    %77 = stablehlo.slice %arg6 [9:1528] : (tensor<1536xf64>) -> tensor<1519xf64>
    %78 = stablehlo.broadcast_in_dim %77, dims = [0] : (tensor<1519xf64>) -> tensor<1519x3056xf64>
    %79 = stablehlo.slice %arg23 [7:13, 7:1529, 8:3064] : (tensor<20x1536x3072xf64>) -> tensor<6x1522x3056xf64>
    %80 = stablehlo.slice %arg24 [7:13, 7:1529, 8:3064] : (tensor<20x1536x3072xf64>) -> tensor<6x1522x3056xf64>
    %81 = stablehlo.slice %arg8 [8:1527] : (tensor<1536xf64>) -> tensor<1519xf64>
    %82 = stablehlo.broadcast_in_dim %81, dims = [0] : (tensor<1519xf64>) -> tensor<1519x4xf64>
    %83 = stablehlo.multiply %82, %22 {enzymexla.finite = [#enzymexla<guaranteed NOTGUARANTEED>]} : tensor<1519x4xf64>
    %84 = stablehlo.broadcast_in_dim %68, dims = [1, 0] : (tensor<1520x4xf64>) -> tensor<4x1520x3056xf64>
    %85 = stablehlo.broadcast_in_dim %69, dims = [1, 0] : (tensor<1520x4xf64>) -> tensor<4x1520x3056xf64>
    %86 = stablehlo.broadcast_in_dim %5, dims = [1] : (tensor<1520xf64>) -> tensor<4x1520x3056xf64>
    %87 = stablehlo.broadcast_in_dim %7, dims = [1] : (tensor<1520xf64>) -> tensor<4x1520x3056xf64>
    %88 = stablehlo.negate %73 : tensor<f64>
    %89 = stablehlo.broadcast_in_dim %75, dims = [1, 0] : (tensor<1534x4xf64>) -> tensor<4x1534x3070xf64>
    %90 = stablehlo.broadcast_in_dim %76, dims = [1, 0] : (tensor<1534x4xf64>) -> tensor<4x1534x3070xf64>
    %91 = stablehlo.slice %84 [0:4, 1:1520, 0:3056] : (tensor<4x1520x3056xf64>) -> tensor<4x1519x3056xf64>
    %92 = stablehlo.slice %arg16 [0:1, 8:1528, 8:3064] : (tensor<1x1536x3072xf64>) -> tensor<1x1520x3056xf64>
    %93 = stablehlo.slice %arg8 [12:1527] : (tensor<1536xf64>) -> tensor<1515xf64>
    %94 = stablehlo.broadcast_in_dim %93, dims = [1] : (tensor<1515xf64>) -> tensor<4x1515x3056xf64>
    %95 = stablehlo.slice %arg14 [0:1, 8:1528, 8:3064] : (tensor<1x1536x3072xf64>) -> tensor<1x1520x3056xf64>
    %96 = stablehlo.slice %arg15 [0:1, 8:1528, 8:3064] : (tensor<1x1536x3072xf64>) -> tensor<1x1520x3056xf64>
    %97 = stablehlo.slice %arg28 [0:1, 8:1528, 8:3064] : (tensor<1x1536x3072xf64>) -> tensor<1x1520x3056xf64>
    %98 = stablehlo.divide %cst_141, %67 : tensor<1520x4xf64>
    %99 = stablehlo.pad %cst_111, %cst_102, low = [0, 1, 0], high = [0, 0, 0], interior = [0, 0, 0] : (tensor<4x1519x3056xf64>, tensor<f64>) -> tensor<4x1520x3056xf64>
    %100 = stablehlo.pad %cst_101, %cst_102, low = [1], high = [0], interior = [0] {enzymexla.non_negative = [#enzymexla<guaranteed NOTGUARANTEED>]} : (tensor<1519xf64>, tensor<f64>) -> tensor<1520xf64>
    %101 = stablehlo.divide %cst_141, %65 : tensor<1520x4xf64>
    %102 = stablehlo.slice %arg8 [9:1524] : (tensor<1536xf64>) -> tensor<1515xf64>
    %103 = stablehlo.broadcast_in_dim %102, dims = [1] : (tensor<1515xf64>) -> tensor<4x1515x3056xf64>
    %104 = stablehlo.slice %arg8 [11:1528] : (tensor<1536xf64>) -> tensor<1517xf64>
    %105 = stablehlo.broadcast_in_dim %104, dims = [0] : (tensor<1517xf64>) -> tensor<1517x4xf64>
    %106 = stablehlo.broadcast_in_dim %12, dims = [1] : (tensor<4xf64>) -> tensor<1517x4xf64>
    %107 = stablehlo.multiply %105, %106 {enzymexla.finite = [#enzymexla<guaranteed NOTGUARANTEED>]} : tensor<1517x4xf64>
    %108 = stablehlo.multiply %83, %cst_115 {enzymexla.no_nan = [#enzymexla<guaranteed NOTGUARANTEED>]} : tensor<1519x4xf64>
    %109 = stablehlo.pad %cst_125, %cst_124, low = [1519], high = [0], interior = [0] : (tensor<1xf64>, tensor<f64>) -> tensor<1520xf64>
    %110 = stablehlo.pad %cst_126, %cst_379, low = [1], high = [0], interior = [0] : (tensor<1519xf64>, tensor<f64>) -> tensor<1520xf64>
    %111 = stablehlo.add %29, %c : tensor<1520xi64>
    %112 = stablehlo.add %29, %c_130 : tensor<1520xi64>
    %113 = stablehlo.divide %cst_141, %66 : tensor<1520x4xf64>
    %114 = stablehlo.negate %c_193 {enzymexla.non_negative = [#enzymexla<guaranteed NOTGUARANTEED>]} : tensor<4xi64>
    %115 = stablehlo.multiply %67, %cst_153 {enzymexla.no_nan = [#enzymexla<guaranteed NOTGUARANTEED>]} : tensor<1520x4xf64>
    %116 = stablehlo.divide %cst_364, %5 : tensor<1520xf64>
    %117 = stablehlo.divide %cst_364, %7 : tensor<1520xf64>
    %118 = stablehlo.multiply %71, %cst_247 : tensor<3xf64>
    %119 = stablehlo.multiply %72, %cst_247 : tensor<3xf64>
    %120 = stablehlo.multiply %88, %cst_304 : tensor<f64>
    %121 = stablehlo.multiply %74, %cst_304 : tensor<f64>
    %122 = stablehlo.multiply %12, %cst_308 {enzymexla.no_nan = [#enzymexla<guaranteed NOTGUARANTEED>]} : tensor<4xf64>
    %123 = stablehlo.multiply %12, %cst_309 : tensor<4xf64>
    %124 = stablehlo.divide %cst_310, %19 : tensor<1534xf64>
    %125 = stablehlo.slice %85 [0:4, 0:1519, 0:3056] : (tensor<4x1520x3056xf64>) -> tensor<4x1519x3056xf64>
    %126 = stablehlo.divide %cst_364, %23 {enzymexla.non_negative = [#enzymexla<guaranteed NOTGUARANTEED>]} : tensor<1520xf64>
    %127 = stablehlo.divide %cst_364, %25 : tensor<1520xf64>
    %128 = stablehlo.slice %arg22 [8:13, 1:1535, 1:3071] : (tensor<20x1536x3072xf64>) -> tensor<5x1534x3070xf64>
    %129 = stablehlo.slice %arg25 [8:12, 7:1529, 7:3065] : (tensor<20x1536x3072xf64>) -> tensor<4x1522x3058xf64>
    %130 = stablehlo.slice %arg26 [8:12, 8:1528, 8:3064] : (tensor<20x1536x3072xf64>) -> tensor<4x1520x3056xf64>
    %131 = stablehlo.slice %arg27 [8:12, 8:1528, 8:3064] : (tensor<20x1536x3072xf64>) -> tensor<4x1520x3056xf64>
    %132 = stablehlo.slice %arg30 [8:12, 8:1528, 8:3064] : (tensor<20x1536x3072xf64>) -> tensor<4x1520x3056xf64>
    %133 = stablehlo.slice %arg31 [8:12, 8:1528, 8:3064] : (tensor<20x1536x3072xf64>) -> tensor<4x1520x3056xf64>
    %134 = stablehlo.slice %arg32 [8:12, 8:1528, 8:3064] : (tensor<20x1536x3072xf64>) -> tensor<4x1520x3056xf64>
    %135 = stablehlo.slice %arg33 [8:12, 8:1528, 8:3064] : (tensor<20x1536x3072xf64>) -> tensor<4x1520x3056xf64>
    %136 = stablehlo.slice %arg34 [0:1, 8:1528, 8:3064] : (tensor<1x1536x3072xf64>) -> tensor<1x1520x3056xf64>
    %137 = stablehlo.slice %arg35 [0:1, 8:1528, 8:3064] : (tensor<1x1536x3072xf64>) -> tensor<1x1520x3056xf64>
    %138 = stablehlo.slice %arg36 [8:12, 8:1528, 8:3064] : (tensor<20x1536x3072xf64>) -> tensor<4x1520x3056xf64>
    %139 = stablehlo.slice %arg37 [8:12, 8:1528, 8:3064] : (tensor<20x1536x3072xf64>) -> tensor<4x1520x3056xf64>
    %140 = stablehlo.broadcast_in_dim %98, dims = [1, 0] : (tensor<1520x4xf64>) -> tensor<4x1520x3056xf64>
    %141 = stablehlo.compare EQ, %100, %cst_129, FLOAT : (tensor<1520xf64>, tensor<1520xf64>) -> tensor<1520xi1>
    %142 = stablehlo.broadcast_in_dim %101, dims = [1, 0] : (tensor<1520x4xf64>) -> tensor<4x1520x3056xf64>
    %143 = stablehlo.broadcast_in_dim %93, dims = [1] : (tensor<1515xf64>) -> tensor<3x1515x3056xf64>
    %144 = stablehlo.broadcast_in_dim %102, dims = [1] : (tensor<1515xf64>) -> tensor<3x1515x3056xf64>
    %145 = stablehlo.slice %arg8 [8:1525] : (tensor<1536xf64>) -> tensor<1517xf64>
    %146 = stablehlo.broadcast_in_dim %145, dims = [0] : (tensor<1517xf64>) -> tensor<1517x4xf64>
    %147 = stablehlo.multiply %146, %106 {enzymexla.finite = [#enzymexla<guaranteed NOTGUARANTEED>]} : tensor<1517x4xf64>
    %148 = stablehlo.multiply %147, %cst_72 {enzymexla.no_nan = [#enzymexla<guaranteed NOTGUARANTEED>]} : tensor<1517x4xf64>
    %149 = stablehlo.broadcast_in_dim %108, dims = [1, 0] : (tensor<1519x4xf64>) -> tensor<4x1519x3056xf64>
    %150 = stablehlo.add %110, %109 {enzymexla.non_negative = [#enzymexla<guaranteed NOTGUARANTEED>]} : tensor<1520xf64>
    %151 = stablehlo.convert %111 {enzymexla.finite = [#enzymexla<guaranteed GUARANTEED>]} : (tensor<1520xi64>) -> tensor<1520xf64>
    %152 = stablehlo.convert %112 {enzymexla.finite = [#enzymexla<guaranteed GUARANTEED>]} : (tensor<1520xi64>) -> tensor<1520xf64>
    %153 = stablehlo.broadcast_in_dim %113, dims = [1, 0] : (tensor<1520x4xf64>) -> tensor<4x1520x3056xf64>
    %154 = stablehlo.compare GE, %114, %c_143 : (tensor<4xi64>, tensor<4xi64>) -> tensor<4xi1>
    %155 = stablehlo.compare GE, %114, %c_145 : (tensor<4xi64>, tensor<4xi64>) -> tensor<4xi1>
    %156 = stablehlo.broadcast_in_dim %123, dims = [0] : (tensor<4xf64>) -> tensor<4x1520x3056xf64>
    %157 = stablehlo.broadcast_in_dim %115, dims = [1, 0] : (tensor<1520x4xf64>) -> tensor<4x1520x3056xf64>
    %158 = stablehlo.broadcast_in_dim %116, dims = [1] : (tensor<1520xf64>) -> tensor<4x1520x3056xf64>
    %159 = stablehlo.broadcast_in_dim %117, dims = [1] : (tensor<1520xf64>) -> tensor<4x1520x3056xf64>
    %160 = stablehlo.broadcast_in_dim %126, dims = [1] : (tensor<1520xf64>) -> tensor<4x1520x3056xf64>
    %161 = stablehlo.broadcast_in_dim %118, dims = [0] : (tensor<3xf64>) -> tensor<3x1522x3058xf64>
    %162 = stablehlo.broadcast_in_dim %119, dims = [0] : (tensor<3xf64>) -> tensor<3x1522x3058xf64>
    %163 = stablehlo.broadcast_in_dim %120, dims = [] : (tensor<f64>) -> tensor<1522x3058xf64>
    %164 = stablehlo.broadcast_in_dim %121, dims = [] : (tensor<f64>) -> tensor<1522x3058xf64>
    %165 = stablehlo.broadcast_in_dim %122, dims = [0] : (tensor<4xf64>) -> tensor<4x1534x3070xf64>
    %166 = stablehlo.broadcast_in_dim %124, dims = [1] : (tensor<1534xf64>) -> tensor<4x1534x3070xf64>
    %167 = stablehlo.broadcast_in_dim %123, dims = [0] : (tensor<4xf64>) -> tensor<4x1534x3070xf64>
    %168 = stablehlo.broadcast_in_dim %126, dims = [0] : (tensor<1520xf64>) -> tensor<1520x3056xf64>
    %169 = stablehlo.broadcast_in_dim %127, dims = [0] : (tensor<1520xf64>) -> tensor<1520x3056xf64>
    %170 = stablehlo.broadcast_in_dim %141, dims = [1] : (tensor<1520xi1>) -> tensor<4x1520x3056xi1>
    %171 = stablehlo.broadcast_in_dim %148, dims = [1, 0] : (tensor<1517x4xf64>) -> tensor<4x1517x3056xf64>
    %172 = stablehlo.slice %157 [0:4, 1:1520, 0:3056] : (tensor<4x1520x3056xf64>) -> tensor<4x1519x3056xf64>
    %173 = stablehlo.multiply %150, %cst_123 {enzymexla.non_negative = [#enzymexla<guaranteed NOTGUARANTEED>]} : tensor<1520xf64>
    %174 = stablehlo.multiply %151, %cst_128 : tensor<1520xf64>
    %175 = stablehlo.multiply %152, %cst_128 : tensor<1520xf64>
    %176 = stablehlo.and %c_144, %154 : tensor<4xi1>
    %177 = stablehlo.broadcast_in_dim %2, dims = [1] : (tensor<1520xf64>) -> tensor<3x1520x3056xf64>
    %178 = stablehlo.slice %159 [0:4, 2:1518, 0:3056] : (tensor<4x1520x3056xf64>) -> tensor<4x1516x3056xf64>
    %179 = stablehlo.slice %arg11 [13:1529] : (tensor<1536xf64>) -> tensor<1516xf64>
    %180 = stablehlo.divide %cst_45, %179 : tensor<1516xf64>
    %181 = stablehlo.broadcast_in_dim %180, dims = [1] : (tensor<1516xf64>) -> tensor<4x1516x3056xf64>
    %182 = stablehlo.slice %arg11 [8:1524] : (tensor<1536xf64>) -> tensor<1516xf64>
    %183 = stablehlo.divide %cst_45, %182 : tensor<1516xf64>
    %184 = stablehlo.broadcast_in_dim %183, dims = [1] : (tensor<1516xf64>) -> tensor<4x1516x3056xf64>
    %185 = stablehlo.slice %158 [0:4, 1:1519, 0:3056] : (tensor<4x1520x3056xf64>) -> tensor<4x1518x3056xf64>
    %186 = stablehlo.slice %159 [0:4, 1:1519, 0:3056] : (tensor<4x1520x3056xf64>) -> tensor<4x1518x3056xf64>
    %187 = stablehlo.slice %49 [0:4, 1:1519, 0:3056] : (tensor<4x1520x3056xf64>) -> tensor<4x1518x3056xf64>
    %188 = stablehlo.slice %48 [0:4, 1:1519, 0:3056] : (tensor<4x1520x3056xf64>) -> tensor<4x1518x3056xf64>
    %189 = stablehlo.slice %arg21 [8:12, 7:8, 8:3064] : (tensor<20x1536x3072xf64>) -> tensor<4x1x3056xf64>
    %190 = stablehlo.slice %52 [0:4, 2:1519, 0:3056] : (tensor<4x1520x3056xf64>) -> tensor<4x1517x3056xf64>
    %191 = stablehlo.broadcast_in_dim %12, dims = [0] : (tensor<4xf64>) -> tensor<4x1517x3056xf64>
    %192 = stablehlo.multiply %190, %191 : tensor<4x1517x3056xf64>
    %193 = stablehlo.slice %39 [0:4, 2:1519, 0:3056] : (tensor<4x1520x3056xf64>) -> tensor<4x1517x3056xf64>
    %194 = stablehlo.multiply %193, %191 : tensor<4x1517x3056xf64>
    %195 = stablehlo.slice %38 [0:4, 2:1519, 0:3056] : (tensor<4x1520x3056xf64>) -> tensor<4x1517x3056xf64>
    %196 = stablehlo.multiply %195, %191 : tensor<4x1517x3056xf64>
    %197 = stablehlo.multiply %107, %cst_72 {enzymexla.no_nan = [#enzymexla<guaranteed NOTGUARANTEED>]} : tensor<1517x4xf64>
    %198 = stablehlo.broadcast_in_dim %173, dims = [1] : (tensor<1520xf64>) -> tensor<4x1520x3056xf64>
    %199 = stablehlo.compare EQ, %173, %cst_129, FLOAT : (tensor<1520xf64>, tensor<1520xf64>) -> tensor<1520xi1>
    %200 = stablehlo.sine %174 : tensor<1520xf64>
    %201 = stablehlo.sine %175 : tensor<1520xf64>
    %202 = stablehlo.and %155, %176 : tensor<4xi1>
    %203 = stablehlo.slice %48 [0:4, 2:1518, 0:3056] : (tensor<4x1520x3056xf64>) -> tensor<4x1516x3056xf64>
    %204 = stablehlo.slice %49 [0:4, 2:1518, 0:3056] : (tensor<4x1520x3056xf64>) -> tensor<4x1516x3056xf64>
    %205 = stablehlo.slice %arg11 [12:1528] : (tensor<1536xf64>) -> tensor<1516xf64>
    %206 = stablehlo.divide %cst_45, %205 : tensor<1516xf64>
    %207 = stablehlo.broadcast_in_dim %206, dims = [1] : (tensor<1516xf64>) -> tensor<4x1516x3056xf64>
    %208 = stablehlo.slice %158 [0:4, 2:1518, 0:3056] : (tensor<4x1520x3056xf64>) -> tensor<4x1516x3056xf64>
    %209 = stablehlo.slice %arg11 [9:1525] : (tensor<1536xf64>) -> tensor<1516xf64>
    %210 = stablehlo.divide %cst_45, %209 : tensor<1516xf64>
    %211 = stablehlo.broadcast_in_dim %210, dims = [1] : (tensor<1516xf64>) -> tensor<4x1516x3056xf64>
    %212 = stablehlo.add %201, %201 : tensor<1520xf64>
    %213 = stablehlo.broadcast_in_dim %197, dims = [1, 0] : (tensor<1517x4xf64>) -> tensor<4x1517x3056xf64>
    %214 = stablehlo.broadcast_in_dim %199, dims = [1] : (tensor<1520xi1>) -> tensor<4x1520x3056xi1>
    %215 = stablehlo.add %201, %200 : tensor<1520xf64>
    %216 = stablehlo.slice %155 [1:4] : (tensor<4xi1>) -> tensor<3xi1>
    %217 = stablehlo.not %216 : tensor<3xi1>
    %218 = stablehlo.slice %154 [1:4] : (tensor<4xi1>) -> tensor<3xi1>
    %219 = stablehlo.broadcast_in_dim %202, dims = [0] : (tensor<4xi1>) -> tensor<4x1520x3056xi1>
    %220 = stablehlo.slice %46 [0:4, 1:1519, 0:3056] : (tensor<4x1520x3056xf64>) -> tensor<4x1518x3056xf64>
    %221 = stablehlo.slice %45 [0:4, 1:1519, 0:3056] : (tensor<4x1520x3056xf64>) -> tensor<4x1518x3056xf64>
    %222 = stablehlo.slice %47 [0:4, 1:1519, 0:3056] : (tensor<4x1520x3056xf64>) -> tensor<4x1518x3056xf64>
    %223 = stablehlo.slice %51 [0:4, 1:1519, 0:3056] : (tensor<4x1520x3056xf64>) -> tensor<4x1518x3056xf64>
    %224 = stablehlo.multiply %212, %cst_103 : tensor<1520xf64>
    %225 = stablehlo.multiply %215, %cst_127 : tensor<1520xf64>
    %226 = stablehlo.and %218, %217 : tensor<3xi1>
    %227 = stablehlo.slice %45 [0:4, 2:1518, 0:3056] : (tensor<4x1520x3056xf64>) -> tensor<4x1516x3056xf64>
    %228 = stablehlo.slice %46 [0:4, 2:1518, 0:3056] : (tensor<4x1520x3056xf64>) -> tensor<4x1516x3056xf64>
    %229 = stablehlo.slice %51 [0:4, 2:1518, 0:3056] : (tensor<4x1520x3056xf64>) -> tensor<4x1516x3056xf64>
    %230 = stablehlo.slice %47 [0:4, 2:1518, 0:3056] : (tensor<4x1520x3056xf64>) -> tensor<4x1516x3056xf64>
    %231 = stablehlo.slice %arg5 [13:1529] : (tensor<1536xf64>) -> tensor<1516xf64>
    %232 = stablehlo.broadcast_in_dim %231, dims = [1] : (tensor<1516xf64>) -> tensor<4x1516x3056xf64>
    %233 = stablehlo.slice %arg5 [7:1523] : (tensor<1536xf64>) -> tensor<1516xf64>
    %234 = stablehlo.broadcast_in_dim %233, dims = [1] : (tensor<1516xf64>) -> tensor<4x1516x3056xf64>
    %235 = stablehlo.slice %52 [0:4, 0:1519, 0:3056] : (tensor<4x1520x3056xf64>) -> tensor<4x1519x3056xf64>
    %236 = stablehlo.slice %38 [0:4, 1:1520, 0:3056] : (tensor<4x1520x3056xf64>) -> tensor<4x1519x3056xf64>
    %237 = stablehlo.broadcast_in_dim %224, dims = [1] : (tensor<1520xf64>) -> tensor<4x1520x3056xf64>
    %238 = stablehlo.broadcast_in_dim %225, dims = [1] : (tensor<1520xf64>) -> tensor<4x1520x3056xf64>
    %239 = stablehlo.broadcast_in_dim %226, dims = [0] : (tensor<3xi1>) -> tensor<3x1520x3056xi1>
    %240 = stablehlo.broadcast_in_dim %123, dims = [0] : (tensor<4xf64>) -> tensor<4x1519x3056xf64>
    %241 = stablehlo.broadcast_in_dim %12, dims = [0] : (tensor<4xf64>) -> tensor<4x1519x3056xf64>
    %242 = stablehlo.slice %arg6 [11:1530] : (tensor<1536xf64>) -> tensor<1519xf64>
    %243 = stablehlo.broadcast_in_dim %242, dims = [1] : (tensor<1519xf64>) -> tensor<4x1519x3056xf64>
    %244 = stablehlo.slice %arg6 [7:1526] : (tensor<1536xf64>) -> tensor<1519xf64>
    %245 = stablehlo.broadcast_in_dim %244, dims = [1] : (tensor<1519xf64>) -> tensor<4x1519x3056xf64>
    %246 = stablehlo.broadcast_in_dim %123, dims = [0] : (tensor<4xf64>) -> tensor<4x1517x3056xf64>
    %247 = stablehlo.slice %52 [0:4, 1:1520, 0:3056] : (tensor<4x1520x3056xf64>) -> tensor<4x1519x3056xf64>
    %248 = stablehlo.slice %39 [0:4, 1:1520, 0:3056] : (tensor<4x1520x3056xf64>) -> tensor<4x1519x3056xf64>
    %249 = stablehlo.broadcast_in_dim %123, dims = [0] : (tensor<4xf64>) -> tensor<4x1515x3056xf64>
    %250 = stablehlo.broadcast_in_dim %12, dims = [0] : (tensor<4xf64>) -> tensor<4x1515x3056xf64>
    %251 = stablehlo.slice %243 [0:4, 2:1517, 0:3056] : (tensor<4x1519x3056xf64>) -> tensor<4x1515x3056xf64>
    %252 = stablehlo.slice %arg6 [8:1523] : (tensor<1536xf64>) -> tensor<1515xf64>
    %253 = stablehlo.broadcast_in_dim %252, dims = [1] : (tensor<1515xf64>) -> tensor<4x1515x3056xf64>
    %254 = stablehlo.slice %arg6 [14:1529] : (tensor<1536xf64>) -> tensor<1515xf64>
    %255 = stablehlo.broadcast_in_dim %254, dims = [1] : (tensor<1515xf64>) -> tensor<4x1515x3056xf64>
    %256 = stablehlo.slice %245 [0:4, 2:1517, 0:3056] : (tensor<4x1519x3056xf64>) -> tensor<4x1515x3056xf64>
    %257 = stablehlo.slice %arg24 [13:14, 8:1528, 8:3064] : (tensor<20x1536x3072xf64>) -> tensor<1x1520x3056xf64>
    %258 = stablehlo.slice %arg23 [13:14, 8:1528, 8:3064] : (tensor<20x1536x3072xf64>) -> tensor<1x1520x3056xf64>
    %259 = stablehlo.slice %245 [0:4, 1:1518, 0:3056] : (tensor<4x1519x3056xf64>) -> tensor<4x1517x3056xf64>
    %260 = stablehlo.slice %243 [0:4, 1:1518, 0:3056] : (tensor<4x1519x3056xf64>) -> tensor<4x1517x3056xf64>
    %261 = stablehlo.slice %arg6 [14:1528] : (tensor<1536xf64>) -> tensor<1514xf64>
    %262 = stablehlo.broadcast_in_dim %261, dims = [0] : (tensor<1514xf64>) -> tensor<1514x4xf64>
    %263 = stablehlo.broadcast_in_dim %12, dims = [1] : (tensor<4xf64>) -> tensor<1514x4xf64>
    %264 = stablehlo.multiply %262, %263 : tensor<1514x4xf64>
    %265 = stablehlo.broadcast_in_dim %264, dims = [1, 0] : (tensor<1514x4xf64>) -> tensor<4x1514x3056xf64>
    %266 = stablehlo.slice %arg6 [9:1523] : (tensor<1536xf64>) -> tensor<1514xf64>
    %267 = stablehlo.broadcast_in_dim %266, dims = [0] : (tensor<1514xf64>) -> tensor<1514x4xf64>
    %268 = stablehlo.multiply %267, %263 : tensor<1514x4xf64>
    %269 = stablehlo.broadcast_in_dim %268, dims = [1, 0] : (tensor<1514x4xf64>) -> tensor<4x1514x3056xf64>
    %270 = stablehlo.slice %arg6 [9:1524] : (tensor<1536xf64>) -> tensor<1515xf64>
    %271 = stablehlo.broadcast_in_dim %270, dims = [0] : (tensor<1515xf64>) -> tensor<1515x4xf64>
    %272 = stablehlo.broadcast_in_dim %12, dims = [1] : (tensor<4xf64>) -> tensor<1515x4xf64>
    %273 = stablehlo.multiply %271, %272 : tensor<1515x4xf64>
    %274 = stablehlo.broadcast_in_dim %273, dims = [1, 0] : (tensor<1515x4xf64>) -> tensor<4x1515x3056xf64>
    %275 = stablehlo.slice %52 [0:4, 3:1518, 0:3056] : (tensor<4x1520x3056xf64>) -> tensor<4x1515x3056xf64>
    %276 = stablehlo.slice %39 [0:4, 3:1518, 0:3056] : (tensor<4x1520x3056xf64>) -> tensor<4x1515x3056xf64>
    %277 = stablehlo.slice %arg6 [13:1528] : (tensor<1536xf64>) -> tensor<1515xf64>
    %278 = stablehlo.broadcast_in_dim %277, dims = [0] : (tensor<1515xf64>) -> tensor<1515x4xf64>
    %279 = stablehlo.multiply %278, %272 : tensor<1515x4xf64>
    %280 = stablehlo.broadcast_in_dim %279, dims = [1, 0] : (tensor<1515x4xf64>) -> tensor<4x1515x3056xf64>
    %281 = stablehlo.slice %arg6 [10:1525] : (tensor<1536xf64>) -> tensor<1515xf64>
    %282 = stablehlo.broadcast_in_dim %281, dims = [0] : (tensor<1515xf64>) -> tensor<1515x4xf64>
    %283 = stablehlo.multiply %282, %272 : tensor<1515x4xf64>
    %284 = stablehlo.broadcast_in_dim %283, dims = [1, 0] : (tensor<1515x4xf64>) -> tensor<4x1515x3056xf64>
    %285 = stablehlo.slice %arg24 [12:13, 1528:1529, 8:3064] : (tensor<20x1536x3072xf64>) -> tensor<1x1x3056xf64>
    %286 = stablehlo.slice %arg24 [12:13, 7:8, 8:3064] : (tensor<20x1536x3072xf64>) -> tensor<1x1x3056xf64>
    %287 = stablehlo.slice %arg23 [12:13, 1528:1529, 8:3064] : (tensor<20x1536x3072xf64>) -> tensor<1x1x3056xf64>
    %288 = stablehlo.slice %arg23 [12:13, 7:8, 8:3064] : (tensor<20x1536x3072xf64>) -> tensor<1x1x3056xf64>
    %289 = stablehlo.reshape %285 : (tensor<1x1x3056xf64>) -> tensor<1x3056xf64>
    %290 = stablehlo.reshape %286 : (tensor<1x1x3056xf64>) -> tensor<1x3056xf64>
    %291 = stablehlo.reshape %287 : (tensor<1x1x3056xf64>) -> tensor<1x3056xf64>
    %292 = stablehlo.reshape %288 : (tensor<1x1x3056xf64>) -> tensor<1x3056xf64>
    %293 = stablehlo.slice %arg23 [8:12, 8:1528, 8:3064] : (tensor<20x1536x3072xf64>) -> tensor<4x1520x3056xf64>
    %294 = stablehlo.slice %arg24 [8:12, 8:1528, 8:3064] : (tensor<20x1536x3072xf64>) -> tensor<4x1520x3056xf64>
    %295:26 = stablehlo.while(%iterArg = %c_381, %iterArg_383 = %arg12, %iterArg_384 = %95, %iterArg_385 = %96, %iterArg_386 = %92, %iterArg_387 = %cst_91, %iterArg_388 = %cst_91, %iterArg_389 = %cst_91, %iterArg_390 = %30, %iterArg_391 = %31, %iterArg_392 = %cst_90, %iterArg_393 = %293, %iterArg_394 = %294, %iterArg_395 = %129, %iterArg_396 = %130, %iterArg_397 = %131, %iterArg_398 = %97, %iterArg_399 = %64, %iterArg_400 = %132, %iterArg_401 = %133, %iterArg_402 = %134, %iterArg_403 = %135, %iterArg_404 = %136, %iterArg_405 = %137, %iterArg_406 = %138, %iterArg_407 = %139) : tensor<i64>, tensor<f64>, tensor<1x1520x3056xf64>, tensor<1x1520x3056xf64>, tensor<1x1520x3056xf64>, tensor<1x1520x3056xf64>, tensor<1x1520x3056xf64>, tensor<1x1520x3056xf64>, tensor<20x1536x3056xf64>, tensor<20x1536x3056xf64>, tensor<4x1534x3070xf64>, tensor<4x1520x3056xf64>, tensor<4x1520x3056xf64>, tensor<4x1522x3058xf64>, tensor<4x1520x3056xf64>, tensor<4x1520x3056xf64>, tensor<1x1520x3056xf64>, tensor<1x1520x3056xf64>, tensor<4x1520x3056xf64>, tensor<4x1520x3056xf64>, tensor<4x1520x3056xf64>, tensor<4x1520x3056xf64>, tensor<1x1520x3056xf64>, tensor<1x1520x3056xf64>, tensor<4x1520x3056xf64>, tensor<4x1520x3056xf64> attributes {enzyme.disable_mincut}
    cond {
      %353 = stablehlo.compare LT, %iterArg, %arg38 : (tensor<i64>, tensor<i64>) -> tensor<i1>
      stablehlo.return %353 : tensor<i1>
    } do {
      %353 = stablehlo.add %iterArg, %c_382 : tensor<i64>
      %354 = stablehlo.slice %iterArg_396 [0:1, 0:1520, 0:3056] : (tensor<4x1520x3056xf64>) -> tensor<1x1520x3056xf64>
      %355 = stablehlo.reshape %354 : (tensor<1x1520x3056xf64>) -> tensor<1520x3056xf64>
      %356 = stablehlo.multiply %355, %cst_376 : tensor<1520x3056xf64>
      %357 = stablehlo.slice %iterArg_402 [0:1, 0:1520, 0:3056] : (tensor<4x1520x3056xf64>) -> tensor<1x1520x3056xf64>
      %358 = stablehlo.reshape %357 : (tensor<1x1520x3056xf64>) -> tensor<1520x3056xf64>
      %359 = stablehlo.multiply %358, %cst_375 : tensor<1520x3056xf64>
      %360 = stablehlo.add %356, %359 : tensor<1520x3056xf64>
      %361 = stablehlo.multiply %63, %360 : tensor<1520x3056xf64>
      %362 = stablehlo.slice %iterArg_397 [0:1, 0:1520, 0:3056] : (tensor<4x1520x3056xf64>) -> tensor<1x1520x3056xf64>
      %363 = stablehlo.reshape %362 : (tensor<1x1520x3056xf64>) -> tensor<1520x3056xf64>
      %364 = stablehlo.slice %iterArg_403 [0:1, 0:1520, 0:3056] : (tensor<4x1520x3056xf64>) -> tensor<1x1520x3056xf64>
      %365 = stablehlo.reshape %364 : (tensor<1x1520x3056xf64>) -> tensor<1520x3056xf64>
      %366 = stablehlo.slice %363 [1:1520, 0:3056] : (tensor<1520x3056xf64>) -> tensor<1519x3056xf64>
      %367 = stablehlo.multiply %366, %cst_374 : tensor<1519x3056xf64>
      %368 = stablehlo.slice %365 [1:1520, 0:3056] : (tensor<1520x3056xf64>) -> tensor<1519x3056xf64>
      %369 = stablehlo.multiply %368, %cst_373 : tensor<1519x3056xf64>
      %370 = stablehlo.add %367, %369 : tensor<1519x3056xf64>
      %371 = stablehlo.multiply %61, %370 : tensor<1519x3056xf64>
      %372 = stablehlo.reshape %371 : (tensor<1519x3056xf64>) -> tensor<1x1519x3056xf64>
      %373 = stablehlo.pad %372, %cst_379, low = [0, 1, 0], high = [0, 0, 0], interior = [0, 0, 0] : (tensor<1x1519x3056xf64>, tensor<f64>) -> tensor<1x1520x3056xf64>
      %374 = stablehlo.slice %iterArg_396 [1:4, 0:1520, 0:3056] : (tensor<4x1520x3056xf64>) -> tensor<3x1520x3056xf64>
      %375 = stablehlo.slice %iterArg_402 [1:4, 0:1520, 0:3056] : (tensor<4x1520x3056xf64>) -> tensor<3x1520x3056xf64>
      %376 = stablehlo.multiply %374, %cst_372 : tensor<3x1520x3056xf64>
      %377 = stablehlo.multiply %375, %cst_371 : tensor<3x1520x3056xf64>
      %378 = stablehlo.add %376, %377 : tensor<3x1520x3056xf64>
      %379 = stablehlo.slice %iterArg_397 [1:4, 1:1520, 0:3056] : (tensor<4x1520x3056xf64>) -> tensor<3x1519x3056xf64>
      %380 = stablehlo.multiply %379, %cst_370 : tensor<3x1519x3056xf64>
      %381 = stablehlo.slice %iterArg_403 [1:4, 1:1520, 0:3056] : (tensor<4x1520x3056xf64>) -> tensor<3x1519x3056xf64>
      %382 = stablehlo.multiply %381, %cst_369 : tensor<3x1519x3056xf64>
      %383 = stablehlo.add %380, %382 : tensor<3x1519x3056xf64>
      %384 = stablehlo.pad %383, %cst_379, low = [0, 1, 0], high = [0, 0, 0], interior = [0, 0, 0] : (tensor<3x1519x3056xf64>, tensor<f64>) -> tensor<3x1520x3056xf64>
      %385 = stablehlo.dot_general %27, %378, contracting_dims = [0] x [0] : (tensor<3xf64>, tensor<3x1520x3056xf64>) -> tensor<1520x3056xf64>
      %386 = stablehlo.dot_general %27, %384, contracting_dims = [0] x [0] : (tensor<3xf64>, tensor<3x1520x3056xf64>) -> tensor<1520x3056xf64>
      %387 = stablehlo.reshape %386 : (tensor<1520x3056xf64>) -> tensor<1x1520x3056xf64>
      %388 = stablehlo.add %361, %385 : tensor<1520x3056xf64>
      %389 = stablehlo.add %373, %387 : tensor<1x1520x3056xf64>
      %390 = stablehlo.reshape %388 : (tensor<1520x3056xf64>) -> tensor<1x1520x3056xf64>
      %391 = stablehlo.slice %iterArg_390 [8:12, 8:1528, 0:3056] : (tensor<20x1536x3056xf64>) -> tensor<4x1520x3056xf64>
      %392 = stablehlo.multiply %cst_368, %iterArg_396 : tensor<4x1520x3056xf64>
      %393 = stablehlo.multiply %cst_367, %iterArg_402 : tensor<4x1520x3056xf64>
      %394 = stablehlo.add %392, %393 : tensor<4x1520x3056xf64>
      %395 = stablehlo.add %391, %394 {enzymexla.non_negative = [#enzymexla<guaranteed NOTGUARANTEED>]} : tensor<4x1520x3056xf64>
      %396 = stablehlo.slice %iterArg_391 [8:12, 8:1528, 0:3056] : (tensor<20x1536x3056xf64>) -> tensor<4x1520x3056xf64>
      %397 = stablehlo.multiply %cst_368, %iterArg_397 : tensor<4x1520x3056xf64>
      %398 = stablehlo.multiply %cst_367, %iterArg_403 : tensor<4x1520x3056xf64>
      %399 = stablehlo.add %397, %398 : tensor<4x1520x3056xf64>
      %400 = stablehlo.add %396, %399 : tensor<4x1520x3056xf64>
      %401 = stablehlo.multiply %cst_368, %iterArg_400 : tensor<4x1520x3056xf64>
      %402 = stablehlo.multiply %cst_367, %iterArg_406 : tensor<4x1520x3056xf64>
      %403 = stablehlo.add %401, %402 : tensor<4x1520x3056xf64>
      %404 = stablehlo.add %iterArg_393, %403 : tensor<4x1520x3056xf64>
      %405 = stablehlo.multiply %cst_368, %iterArg_401 : tensor<4x1520x3056xf64>
      %406 = stablehlo.multiply %cst_367, %iterArg_407 : tensor<4x1520x3056xf64>
      %407 = stablehlo.add %405, %406 : tensor<4x1520x3056xf64>
      %408 = stablehlo.add %iterArg_394, %407 : tensor<4x1520x3056xf64>
      %409 = stablehlo.reshape %iterArg_386 : (tensor<1x1520x3056xf64>) -> tensor<1520x3056xf64>
      %410 = stablehlo.reshape %iterArg_384 : (tensor<1x1520x3056xf64>) -> tensor<1520x3056xf64>
      %411 = stablehlo.reshape %iterArg_385 : (tensor<1x1520x3056xf64>) -> tensor<1520x3056xf64>
      %412 = "enzymexla.rotate"(%411) <{amount = 1 : i32, dimension = 1 : i32}> : (tensor<1520x3056xf64>) -> tensor<1520x3056xf64>
      %413 = stablehlo.multiply %412, %cst_366 : tensor<1520x3056xf64>
      %414 = stablehlo.multiply %411, %cst_365 : tensor<1520x3056xf64>
      %415 = stablehlo.add %413, %414 : tensor<1520x3056xf64>
      %416 = stablehlo.slice %409 [1:1520, 0:3056] : (tensor<1520x3056xf64>) -> tensor<1519x3056xf64>
      %417 = stablehlo.multiply %78, %416 : tensor<1519x3056xf64>
      %418 = stablehlo.pad %417, %cst_379, low = [0, 0], high = [1, 0], interior = [0, 0] : (tensor<1519x3056xf64>, tensor<f64>) -> tensor<1520x3056xf64>
      %419 = stablehlo.pad %417, %cst_379, low = [1, 0], high = [0, 0], interior = [0, 0] : (tensor<1519x3056xf64>, tensor<f64>) -> tensor<1520x3056xf64>
      %420 = stablehlo.subtract %418, %419 : tensor<1520x3056xf64>
      %421 = stablehlo.add %415, %420 : tensor<1520x3056xf64>
      %422 = stablehlo.multiply %cst_363, %421 : tensor<1520x3056xf64>
      %423 = stablehlo.multiply %169, %422 : tensor<1520x3056xf64>
      %424 = stablehlo.subtract %410, %423 : tensor<1520x3056xf64>
      %425 = stablehlo.reshape %424 : (tensor<1520x3056xf64>) -> tensor<1x1520x3056xf64>
      %426 = "enzymexla.rotate"(%424) <{amount = 3055 : i32, dimension = 1 : i32}> : (tensor<1520x3056xf64>) -> tensor<1520x3056xf64>
      %427 = stablehlo.subtract %424, %426 : tensor<1520x3056xf64>
      %428 = stablehlo.multiply %427, %168 : tensor<1520x3056xf64>
      %429 = stablehlo.multiply %cst_362, %428 : tensor<1520x3056xf64>
      %430 = stablehlo.add %388, %429 : tensor<1520x3056xf64>
      %431 = stablehlo.multiply %cst_363, %430 : tensor<1520x3056xf64>
      %432 = stablehlo.add %411, %431 : tensor<1520x3056xf64>
      %433 = stablehlo.slice %424 [1:1520, 0:3056] : (tensor<1520x3056xf64>) -> tensor<1519x3056xf64>
      %434 = stablehlo.slice %424 [0:1519, 0:3056] : (tensor<1520x3056xf64>) -> tensor<1519x3056xf64>
      %435 = stablehlo.subtract %433, %434 : tensor<1519x3056xf64>
      %436 = stablehlo.multiply %cst_360, %435 : tensor<1519x3056xf64>
      %437 = stablehlo.add %436, %371 : tensor<1519x3056xf64>
      %438 = stablehlo.pad %437, %cst_379, low = [1, 0], high = [0, 0], interior = [0, 0] : (tensor<1519x3056xf64>, tensor<f64>) -> tensor<1520x3056xf64>
      %439 = stablehlo.add %386, %438 : tensor<1520x3056xf64>
      %440 = stablehlo.multiply %cst_363, %439 : tensor<1520x3056xf64>
      %441 = stablehlo.add %409, %440 : tensor<1520x3056xf64>
      %442 = stablehlo.reshape %441 : (tensor<1520x3056xf64>) -> tensor<1x1520x3056xf64>
      %443 = stablehlo.multiply %425, %cst_359 : tensor<1x1520x3056xf64>
      %444 = stablehlo.multiply %432, %cst_358 : tensor<1520x3056xf64>
      %445 = stablehlo.multiply %442, %cst_359 : tensor<1x1520x3056xf64>
      %446 = "enzymexla.rotate"(%432) <{amount = 1 : i32, dimension = 1 : i32}> : (tensor<1520x3056xf64>) -> tensor<1520x3056xf64>
      %447 = stablehlo.multiply %446, %cst_366 : tensor<1520x3056xf64>
      %448 = stablehlo.multiply %432, %cst_365 : tensor<1520x3056xf64>
      %449 = stablehlo.add %447, %448 : tensor<1520x3056xf64>
      %450 = stablehlo.slice %441 [1:1520, 0:3056] : (tensor<1520x3056xf64>) -> tensor<1519x3056xf64>
      %451 = stablehlo.multiply %78, %450 : tensor<1519x3056xf64>
      %452 = stablehlo.pad %451, %cst_379, low = [0, 0], high = [1, 0], interior = [0, 0] : (tensor<1519x3056xf64>, tensor<f64>) -> tensor<1520x3056xf64>
      %453 = stablehlo.pad %451, %cst_379, low = [1, 0], high = [0, 0], interior = [0, 0] : (tensor<1519x3056xf64>, tensor<f64>) -> tensor<1520x3056xf64>
      %454 = stablehlo.subtract %452, %453 : tensor<1520x3056xf64>
      %455 = stablehlo.add %449, %454 : tensor<1520x3056xf64>
      %456 = stablehlo.multiply %cst_363, %455 : tensor<1520x3056xf64>
      %457 = stablehlo.multiply %169, %456 : tensor<1520x3056xf64>
      %458 = stablehlo.subtract %424, %457 : tensor<1520x3056xf64>
      %459 = stablehlo.reshape %458 : (tensor<1520x3056xf64>) -> tensor<1x1520x3056xf64>
      %460 = "enzymexla.rotate"(%458) <{amount = 3055 : i32, dimension = 1 : i32}> : (tensor<1520x3056xf64>) -> tensor<1520x3056xf64>
      %461 = stablehlo.subtract %458, %460 : tensor<1520x3056xf64>
      %462 = stablehlo.multiply %461, %168 : tensor<1520x3056xf64>
      %463 = stablehlo.multiply %cst_362, %462 : tensor<1520x3056xf64>
      %464 = stablehlo.add %388, %463 : tensor<1520x3056xf64>
      %465 = stablehlo.multiply %cst_363, %464 : tensor<1520x3056xf64>
      %466 = stablehlo.add %432, %465 : tensor<1520x3056xf64>
      %467 = stablehlo.slice %458 [1:1520, 0:3056] : (tensor<1520x3056xf64>) -> tensor<1519x3056xf64>
      %468 = stablehlo.slice %458 [0:1519, 0:3056] : (tensor<1520x3056xf64>) -> tensor<1519x3056xf64>
      %469 = stablehlo.subtract %467, %468 : tensor<1519x3056xf64>
      %470 = stablehlo.multiply %cst_360, %469 : tensor<1519x3056xf64>
      %471 = stablehlo.add %470, %371 : tensor<1519x3056xf64>
      %472 = stablehlo.pad %471, %cst_379, low = [1, 0], high = [0, 0], interior = [0, 0] : (tensor<1519x3056xf64>, tensor<f64>) -> tensor<1520x3056xf64>
      %473 = stablehlo.add %386, %472 : tensor<1520x3056xf64>
      %474 = stablehlo.multiply %cst_363, %473 : tensor<1520x3056xf64>
      %475 = stablehlo.add %441, %474 : tensor<1520x3056xf64>
      %476 = stablehlo.reshape %475 : (tensor<1520x3056xf64>) -> tensor<1x1520x3056xf64>
      %477 = stablehlo.multiply %459, %cst_357 : tensor<1x1520x3056xf64>
      %478 = stablehlo.add %443, %477 : tensor<1x1520x3056xf64>
      %479 = stablehlo.multiply %466, %cst_356 : tensor<1520x3056xf64>
      %480 = stablehlo.add %479, %444 : tensor<1520x3056xf64>
      %481 = stablehlo.multiply %476, %cst_357 : tensor<1x1520x3056xf64>
      %482 = stablehlo.add %481, %445 : tensor<1x1520x3056xf64>
      %483 = "enzymexla.rotate"(%466) <{amount = 1 : i32, dimension = 1 : i32}> : (tensor<1520x3056xf64>) -> tensor<1520x3056xf64>
      %484 = stablehlo.multiply %483, %cst_366 : tensor<1520x3056xf64>
      %485 = stablehlo.multiply %466, %cst_365 : tensor<1520x3056xf64>
      %486 = stablehlo.add %484, %485 : tensor<1520x3056xf64>
      %487 = stablehlo.slice %475 [1:1520, 0:3056] : (tensor<1520x3056xf64>) -> tensor<1519x3056xf64>
      %488 = stablehlo.multiply %78, %487 : tensor<1519x3056xf64>
      %489 = stablehlo.pad %488, %cst_379, low = [0, 0], high = [1, 0], interior = [0, 0] : (tensor<1519x3056xf64>, tensor<f64>) -> tensor<1520x3056xf64>
      %490 = stablehlo.pad %488, %cst_379, low = [1, 0], high = [0, 0], interior = [0, 0] : (tensor<1519x3056xf64>, tensor<f64>) -> tensor<1520x3056xf64>
      %491 = stablehlo.subtract %489, %490 : tensor<1520x3056xf64>
      %492 = stablehlo.add %486, %491 : tensor<1520x3056xf64>
      %493 = stablehlo.multiply %cst_363, %492 : tensor<1520x3056xf64>
      %494 = stablehlo.multiply %169, %493 : tensor<1520x3056xf64>
      %495 = stablehlo.subtract %458, %494 : tensor<1520x3056xf64>
      %496 = stablehlo.reshape %495 : (tensor<1520x3056xf64>) -> tensor<1x1520x3056xf64>
      %497 = "enzymexla.rotate"(%495) <{amount = 3055 : i32, dimension = 1 : i32}> : (tensor<1520x3056xf64>) -> tensor<1520x3056xf64>
      %498 = stablehlo.subtract %495, %497 : tensor<1520x3056xf64>
      %499 = stablehlo.multiply %498, %168 : tensor<1520x3056xf64>
      %500 = stablehlo.multiply %cst_362, %499 : tensor<1520x3056xf64>
      %501 = stablehlo.add %388, %500 : tensor<1520x3056xf64>
      %502 = stablehlo.multiply %cst_363, %501 : tensor<1520x3056xf64>
      %503 = stablehlo.add %466, %502 : tensor<1520x3056xf64>
      %504 = stablehlo.slice %495 [1:1520, 0:3056] : (tensor<1520x3056xf64>) -> tensor<1519x3056xf64>
      %505 = stablehlo.slice %495 [0:1519, 0:3056] : (tensor<1520x3056xf64>) -> tensor<1519x3056xf64>
      %506 = stablehlo.subtract %504, %505 : tensor<1519x3056xf64>
      %507 = stablehlo.multiply %cst_360, %506 : tensor<1519x3056xf64>
      %508 = stablehlo.add %507, %371 : tensor<1519x3056xf64>
      %509 = stablehlo.pad %508, %cst_379, low = [1, 0], high = [0, 0], interior = [0, 0] : (tensor<1519x3056xf64>, tensor<f64>) -> tensor<1520x3056xf64>
      %510 = stablehlo.add %386, %509 : tensor<1520x3056xf64>
      %511 = stablehlo.multiply %cst_363, %510 : tensor<1520x3056xf64>
      %512 = stablehlo.add %475, %511 : tensor<1520x3056xf64>
      %513 = stablehlo.reshape %512 : (tensor<1520x3056xf64>) -> tensor<1x1520x3056xf64>
      %514 = stablehlo.multiply %496, %cst_355 : tensor<1x1520x3056xf64>
      %515 = stablehlo.add %478, %514 : tensor<1x1520x3056xf64>
      %516 = stablehlo.multiply %503, %cst_354 : tensor<1520x3056xf64>
      %517 = stablehlo.add %516, %480 : tensor<1520x3056xf64>
      %518 = stablehlo.multiply %513, %cst_355 : tensor<1x1520x3056xf64>
      %519 = stablehlo.add %518, %482 : tensor<1x1520x3056xf64>
      %520 = "enzymexla.rotate"(%503) <{amount = 1 : i32, dimension = 1 : i32}> : (tensor<1520x3056xf64>) -> tensor<1520x3056xf64>
      %521 = stablehlo.multiply %520, %cst_366 : tensor<1520x3056xf64>
      %522 = stablehlo.multiply %503, %cst_365 : tensor<1520x3056xf64>
      %523 = stablehlo.add %521, %522 : tensor<1520x3056xf64>
      %524 = stablehlo.slice %512 [1:1520, 0:3056] : (tensor<1520x3056xf64>) -> tensor<1519x3056xf64>
      %525 = stablehlo.multiply %78, %524 : tensor<1519x3056xf64>
      %526 = stablehlo.pad %525, %cst_379, low = [0, 0], high = [1, 0], interior = [0, 0] : (tensor<1519x3056xf64>, tensor<f64>) -> tensor<1520x3056xf64>
      %527 = stablehlo.pad %525, %cst_379, low = [1, 0], high = [0, 0], interior = [0, 0] : (tensor<1519x3056xf64>, tensor<f64>) -> tensor<1520x3056xf64>
      %528 = stablehlo.subtract %526, %527 : tensor<1520x3056xf64>
      %529 = stablehlo.add %523, %528 : tensor<1520x3056xf64>
      %530 = stablehlo.multiply %cst_363, %529 : tensor<1520x3056xf64>
      %531 = stablehlo.multiply %169, %530 : tensor<1520x3056xf64>
      %532 = stablehlo.subtract %495, %531 : tensor<1520x3056xf64>
      %533 = stablehlo.reshape %532 : (tensor<1520x3056xf64>) -> tensor<1x1520x3056xf64>
      %534 = "enzymexla.rotate"(%532) <{amount = 3055 : i32, dimension = 1 : i32}> : (tensor<1520x3056xf64>) -> tensor<1520x3056xf64>
      %535 = stablehlo.subtract %532, %534 : tensor<1520x3056xf64>
      %536 = stablehlo.multiply %535, %168 : tensor<1520x3056xf64>
      %537 = stablehlo.multiply %cst_362, %536 : tensor<1520x3056xf64>
      %538 = stablehlo.add %388, %537 : tensor<1520x3056xf64>
      %539 = stablehlo.multiply %cst_363, %538 : tensor<1520x3056xf64>
      %540 = stablehlo.add %503, %539 : tensor<1520x3056xf64>
      %541 = stablehlo.slice %532 [1:1520, 0:3056] : (tensor<1520x3056xf64>) -> tensor<1519x3056xf64>
      %542 = stablehlo.slice %532 [0:1519, 0:3056] : (tensor<1520x3056xf64>) -> tensor<1519x3056xf64>
      %543 = stablehlo.subtract %541, %542 : tensor<1519x3056xf64>
      %544 = stablehlo.multiply %cst_360, %543 : tensor<1519x3056xf64>
      %545 = stablehlo.add %544, %371 : tensor<1519x3056xf64>
      %546 = stablehlo.pad %545, %cst_379, low = [1, 0], high = [0, 0], interior = [0, 0] : (tensor<1519x3056xf64>, tensor<f64>) -> tensor<1520x3056xf64>
      %547 = stablehlo.add %386, %546 : tensor<1520x3056xf64>
      %548 = stablehlo.multiply %cst_363, %547 : tensor<1520x3056xf64>
      %549 = stablehlo.add %512, %548 : tensor<1520x3056xf64>
      %550 = stablehlo.reshape %549 : (tensor<1520x3056xf64>) -> tensor<1x1520x3056xf64>
      %551 = stablehlo.multiply %533, %cst_353 : tensor<1x1520x3056xf64>
      %552 = stablehlo.add %515, %551 : tensor<1x1520x3056xf64>
      %553 = stablehlo.multiply %540, %cst_352 : tensor<1520x3056xf64>
      %554 = stablehlo.add %553, %517 : tensor<1520x3056xf64>
      %555 = stablehlo.multiply %550, %cst_353 : tensor<1x1520x3056xf64>
      %556 = stablehlo.add %555, %519 : tensor<1x1520x3056xf64>
      %557 = "enzymexla.rotate"(%540) <{amount = 1 : i32, dimension = 1 : i32}> : (tensor<1520x3056xf64>) -> tensor<1520x3056xf64>
      %558 = stablehlo.multiply %557, %cst_366 : tensor<1520x3056xf64>
      %559 = stablehlo.multiply %540, %cst_365 : tensor<1520x3056xf64>
      %560 = stablehlo.add %558, %559 : tensor<1520x3056xf64>
      %561 = stablehlo.slice %549 [1:1520, 0:3056] : (tensor<1520x3056xf64>) -> tensor<1519x3056xf64>
      %562 = stablehlo.multiply %78, %561 : tensor<1519x3056xf64>
      %563 = stablehlo.pad %562, %cst_379, low = [0, 0], high = [1, 0], interior = [0, 0] : (tensor<1519x3056xf64>, tensor<f64>) -> tensor<1520x3056xf64>
      %564 = stablehlo.pad %562, %cst_379, low = [1, 0], high = [0, 0], interior = [0, 0] : (tensor<1519x3056xf64>, tensor<f64>) -> tensor<1520x3056xf64>
      %565 = stablehlo.subtract %563, %564 : tensor<1520x3056xf64>
      %566 = stablehlo.add %560, %565 : tensor<1520x3056xf64>
      %567 = stablehlo.multiply %cst_363, %566 : tensor<1520x3056xf64>
      %568 = stablehlo.multiply %169, %567 : tensor<1520x3056xf64>
      %569 = stablehlo.subtract %532, %568 : tensor<1520x3056xf64>
      %570 = stablehlo.reshape %569 : (tensor<1520x3056xf64>) -> tensor<1x1520x3056xf64>
      %571 = "enzymexla.rotate"(%569) <{amount = 3055 : i32, dimension = 1 : i32}> : (tensor<1520x3056xf64>) -> tensor<1520x3056xf64>
      %572 = stablehlo.subtract %569, %571 : tensor<1520x3056xf64>
      %573 = stablehlo.multiply %572, %168 : tensor<1520x3056xf64>
      %574 = stablehlo.multiply %cst_362, %573 : tensor<1520x3056xf64>
      %575 = stablehlo.add %388, %574 : tensor<1520x3056xf64>
      %576 = stablehlo.multiply %cst_363, %575 : tensor<1520x3056xf64>
      %577 = stablehlo.add %540, %576 : tensor<1520x3056xf64>
      %578 = stablehlo.slice %569 [1:1520, 0:3056] : (tensor<1520x3056xf64>) -> tensor<1519x3056xf64>
      %579 = stablehlo.slice %569 [0:1519, 0:3056] : (tensor<1520x3056xf64>) -> tensor<1519x3056xf64>
      %580 = stablehlo.subtract %578, %579 : tensor<1519x3056xf64>
      %581 = stablehlo.multiply %cst_360, %580 : tensor<1519x3056xf64>
      %582 = stablehlo.add %581, %371 : tensor<1519x3056xf64>
      %583 = stablehlo.pad %582, %cst_379, low = [1, 0], high = [0, 0], interior = [0, 0] : (tensor<1519x3056xf64>, tensor<f64>) -> tensor<1520x3056xf64>
      %584 = stablehlo.add %386, %583 : tensor<1520x3056xf64>
      %585 = stablehlo.multiply %cst_363, %584 : tensor<1520x3056xf64>
      %586 = stablehlo.add %549, %585 : tensor<1520x3056xf64>
      %587 = stablehlo.reshape %586 : (tensor<1520x3056xf64>) -> tensor<1x1520x3056xf64>
      %588 = stablehlo.multiply %570, %cst_351 : tensor<1x1520x3056xf64>
      %589 = stablehlo.add %552, %588 : tensor<1x1520x3056xf64>
      %590 = stablehlo.multiply %577, %cst_350 : tensor<1520x3056xf64>
      %591 = stablehlo.add %590, %554 : tensor<1520x3056xf64>
      %592 = stablehlo.multiply %587, %cst_351 : tensor<1x1520x3056xf64>
      %593 = stablehlo.add %592, %556 : tensor<1x1520x3056xf64>
      %594 = "enzymexla.rotate"(%577) <{amount = 1 : i32, dimension = 1 : i32}> : (tensor<1520x3056xf64>) -> tensor<1520x3056xf64>
      %595 = stablehlo.multiply %594, %cst_366 : tensor<1520x3056xf64>
      %596 = stablehlo.multiply %577, %cst_365 : tensor<1520x3056xf64>
      %597 = stablehlo.add %595, %596 : tensor<1520x3056xf64>
      %598 = stablehlo.slice %586 [1:1520, 0:3056] : (tensor<1520x3056xf64>) -> tensor<1519x3056xf64>
      %599 = stablehlo.multiply %78, %598 : tensor<1519x3056xf64>
      %600 = stablehlo.pad %599, %cst_379, low = [0, 0], high = [1, 0], interior = [0, 0] : (tensor<1519x3056xf64>, tensor<f64>) -> tensor<1520x3056xf64>
      %601 = stablehlo.pad %599, %cst_379, low = [1, 0], high = [0, 0], interior = [0, 0] : (tensor<1519x3056xf64>, tensor<f64>) -> tensor<1520x3056xf64>
      %602 = stablehlo.subtract %600, %601 : tensor<1520x3056xf64>
      %603 = stablehlo.add %597, %602 : tensor<1520x3056xf64>
      %604 = stablehlo.multiply %cst_363, %603 : tensor<1520x3056xf64>
      %605 = stablehlo.multiply %169, %604 : tensor<1520x3056xf64>
      %606 = stablehlo.subtract %569, %605 : tensor<1520x3056xf64>
      %607 = stablehlo.reshape %606 : (tensor<1520x3056xf64>) -> tensor<1x1520x3056xf64>
      %608 = "enzymexla.rotate"(%606) <{amount = 3055 : i32, dimension = 1 : i32}> : (tensor<1520x3056xf64>) -> tensor<1520x3056xf64>
      %609 = stablehlo.subtract %606, %608 : tensor<1520x3056xf64>
      %610 = stablehlo.multiply %609, %168 : tensor<1520x3056xf64>
      %611 = stablehlo.multiply %cst_362, %610 : tensor<1520x3056xf64>
      %612 = stablehlo.add %388, %611 : tensor<1520x3056xf64>
      %613 = stablehlo.multiply %cst_363, %612 : tensor<1520x3056xf64>
      %614 = stablehlo.add %577, %613 : tensor<1520x3056xf64>
      %615 = stablehlo.slice %606 [1:1520, 0:3056] : (tensor<1520x3056xf64>) -> tensor<1519x3056xf64>
      %616 = stablehlo.slice %606 [0:1519, 0:3056] : (tensor<1520x3056xf64>) -> tensor<1519x3056xf64>
      %617 = stablehlo.subtract %615, %616 : tensor<1519x3056xf64>
      %618 = stablehlo.multiply %cst_360, %617 : tensor<1519x3056xf64>
      %619 = stablehlo.add %618, %371 : tensor<1519x3056xf64>
      %620 = stablehlo.pad %619, %cst_379, low = [1, 0], high = [0, 0], interior = [0, 0] : (tensor<1519x3056xf64>, tensor<f64>) -> tensor<1520x3056xf64>
      %621 = stablehlo.add %386, %620 : tensor<1520x3056xf64>
      %622 = stablehlo.multiply %cst_363, %621 : tensor<1520x3056xf64>
      %623 = stablehlo.add %586, %622 : tensor<1520x3056xf64>
      %624 = stablehlo.reshape %623 : (tensor<1520x3056xf64>) -> tensor<1x1520x3056xf64>
      %625 = stablehlo.multiply %607, %cst_349 : tensor<1x1520x3056xf64>
      %626 = stablehlo.add %589, %625 : tensor<1x1520x3056xf64>
      %627 = stablehlo.multiply %614, %cst_348 : tensor<1520x3056xf64>
      %628 = stablehlo.add %627, %591 : tensor<1520x3056xf64>
      %629 = stablehlo.multiply %624, %cst_349 : tensor<1x1520x3056xf64>
      %630 = stablehlo.add %629, %593 : tensor<1x1520x3056xf64>
      %631 = "enzymexla.rotate"(%614) <{amount = 1 : i32, dimension = 1 : i32}> : (tensor<1520x3056xf64>) -> tensor<1520x3056xf64>
      %632 = stablehlo.multiply %631, %cst_366 : tensor<1520x3056xf64>
      %633 = stablehlo.multiply %614, %cst_365 : tensor<1520x3056xf64>
      %634 = stablehlo.add %632, %633 : tensor<1520x3056xf64>
      %635 = stablehlo.slice %623 [1:1520, 0:3056] : (tensor<1520x3056xf64>) -> tensor<1519x3056xf64>
      %636 = stablehlo.multiply %78, %635 : tensor<1519x3056xf64>
      %637 = stablehlo.pad %636, %cst_379, low = [0, 0], high = [1, 0], interior = [0, 0] : (tensor<1519x3056xf64>, tensor<f64>) -> tensor<1520x3056xf64>
      %638 = stablehlo.pad %636, %cst_379, low = [1, 0], high = [0, 0], interior = [0, 0] : (tensor<1519x3056xf64>, tensor<f64>) -> tensor<1520x3056xf64>
      %639 = stablehlo.subtract %637, %638 : tensor<1520x3056xf64>
      %640 = stablehlo.add %634, %639 : tensor<1520x3056xf64>
      %641 = stablehlo.multiply %cst_363, %640 : tensor<1520x3056xf64>
      %642 = stablehlo.multiply %169, %641 : tensor<1520x3056xf64>
      %643 = stablehlo.subtract %606, %642 : tensor<1520x3056xf64>
      %644 = stablehlo.reshape %643 : (tensor<1520x3056xf64>) -> tensor<1x1520x3056xf64>
      %645 = "enzymexla.rotate"(%643) <{amount = 3055 : i32, dimension = 1 : i32}> : (tensor<1520x3056xf64>) -> tensor<1520x3056xf64>
      %646 = stablehlo.subtract %643, %645 : tensor<1520x3056xf64>
      %647 = stablehlo.multiply %646, %168 : tensor<1520x3056xf64>
      %648 = stablehlo.multiply %cst_362, %647 : tensor<1520x3056xf64>
      %649 = stablehlo.add %388, %648 : tensor<1520x3056xf64>
      %650 = stablehlo.multiply %cst_363, %649 : tensor<1520x3056xf64>
      %651 = stablehlo.add %614, %650 : tensor<1520x3056xf64>
      %652 = stablehlo.slice %643 [1:1520, 0:3056] : (tensor<1520x3056xf64>) -> tensor<1519x3056xf64>
      %653 = stablehlo.slice %643 [0:1519, 0:3056] : (tensor<1520x3056xf64>) -> tensor<1519x3056xf64>
      %654 = stablehlo.subtract %652, %653 : tensor<1519x3056xf64>
      %655 = stablehlo.multiply %cst_360, %654 : tensor<1519x3056xf64>
      %656 = stablehlo.add %655, %371 : tensor<1519x3056xf64>
      %657 = stablehlo.pad %656, %cst_379, low = [1, 0], high = [0, 0], interior = [0, 0] : (tensor<1519x3056xf64>, tensor<f64>) -> tensor<1520x3056xf64>
      %658 = stablehlo.add %386, %657 : tensor<1520x3056xf64>
      %659 = stablehlo.multiply %cst_363, %658 : tensor<1520x3056xf64>
      %660 = stablehlo.add %623, %659 : tensor<1520x3056xf64>
      %661 = stablehlo.reshape %660 : (tensor<1520x3056xf64>) -> tensor<1x1520x3056xf64>
      %662 = stablehlo.multiply %644, %cst_347 : tensor<1x1520x3056xf64>
      %663 = stablehlo.add %626, %662 : tensor<1x1520x3056xf64>
      %664 = stablehlo.multiply %651, %cst_346 : tensor<1520x3056xf64>
      %665 = stablehlo.add %664, %628 : tensor<1520x3056xf64>
      %666 = stablehlo.multiply %661, %cst_347 : tensor<1x1520x3056xf64>
      %667 = stablehlo.add %666, %630 : tensor<1x1520x3056xf64>
      %668 = "enzymexla.rotate"(%651) <{amount = 1 : i32, dimension = 1 : i32}> : (tensor<1520x3056xf64>) -> tensor<1520x3056xf64>
      %669 = stablehlo.multiply %668, %cst_366 : tensor<1520x3056xf64>
      %670 = stablehlo.multiply %651, %cst_365 : tensor<1520x3056xf64>
      %671 = stablehlo.add %669, %670 : tensor<1520x3056xf64>
      %672 = stablehlo.slice %660 [1:1520, 0:3056] : (tensor<1520x3056xf64>) -> tensor<1519x3056xf64>
      %673 = stablehlo.multiply %78, %672 : tensor<1519x3056xf64>
      %674 = stablehlo.pad %673, %cst_379, low = [0, 0], high = [1, 0], interior = [0, 0] : (tensor<1519x3056xf64>, tensor<f64>) -> tensor<1520x3056xf64>
      %675 = stablehlo.pad %673, %cst_379, low = [1, 0], high = [0, 0], interior = [0, 0] : (tensor<1519x3056xf64>, tensor<f64>) -> tensor<1520x3056xf64>
      %676 = stablehlo.subtract %674, %675 : tensor<1520x3056xf64>
      %677 = stablehlo.add %671, %676 : tensor<1520x3056xf64>
      %678 = stablehlo.multiply %cst_363, %677 : tensor<1520x3056xf64>
      %679 = stablehlo.multiply %169, %678 : tensor<1520x3056xf64>
      %680 = stablehlo.subtract %643, %679 : tensor<1520x3056xf64>
      %681 = stablehlo.reshape %680 : (tensor<1520x3056xf64>) -> tensor<1x1520x3056xf64>
      %682 = "enzymexla.rotate"(%680) <{amount = 3055 : i32, dimension = 1 : i32}> : (tensor<1520x3056xf64>) -> tensor<1520x3056xf64>
      %683 = stablehlo.subtract %680, %682 : tensor<1520x3056xf64>
      %684 = stablehlo.multiply %683, %168 : tensor<1520x3056xf64>
      %685 = stablehlo.multiply %cst_362, %684 : tensor<1520x3056xf64>
      %686 = stablehlo.add %388, %685 : tensor<1520x3056xf64>
      %687 = stablehlo.multiply %cst_363, %686 : tensor<1520x3056xf64>
      %688 = stablehlo.add %651, %687 : tensor<1520x3056xf64>
      %689 = stablehlo.slice %680 [1:1520, 0:3056] : (tensor<1520x3056xf64>) -> tensor<1519x3056xf64>
      %690 = stablehlo.slice %680 [0:1519, 0:3056] : (tensor<1520x3056xf64>) -> tensor<1519x3056xf64>
      %691 = stablehlo.subtract %689, %690 : tensor<1519x3056xf64>
      %692 = stablehlo.multiply %cst_360, %691 : tensor<1519x3056xf64>
      %693 = stablehlo.add %692, %371 : tensor<1519x3056xf64>
      %694 = stablehlo.pad %693, %cst_379, low = [1, 0], high = [0, 0], interior = [0, 0] : (tensor<1519x3056xf64>, tensor<f64>) -> tensor<1520x3056xf64>
      %695 = stablehlo.add %386, %694 : tensor<1520x3056xf64>
      %696 = stablehlo.multiply %cst_363, %695 : tensor<1520x3056xf64>
      %697 = stablehlo.add %660, %696 : tensor<1520x3056xf64>
      %698 = stablehlo.reshape %697 : (tensor<1520x3056xf64>) -> tensor<1x1520x3056xf64>
      %699 = stablehlo.multiply %681, %cst_345 : tensor<1x1520x3056xf64>
      %700 = stablehlo.add %663, %699 : tensor<1x1520x3056xf64>
      %701 = stablehlo.multiply %688, %cst_344 : tensor<1520x3056xf64>
      %702 = stablehlo.add %701, %665 : tensor<1520x3056xf64>
      %703 = stablehlo.multiply %698, %cst_345 : tensor<1x1520x3056xf64>
      %704 = stablehlo.add %703, %667 : tensor<1x1520x3056xf64>
      %705 = "enzymexla.rotate"(%688) <{amount = 1 : i32, dimension = 1 : i32}> : (tensor<1520x3056xf64>) -> tensor<1520x3056xf64>
      %706 = stablehlo.multiply %705, %cst_366 : tensor<1520x3056xf64>
      %707 = stablehlo.multiply %688, %cst_365 : tensor<1520x3056xf64>
      %708 = stablehlo.add %706, %707 : tensor<1520x3056xf64>
      %709 = stablehlo.slice %697 [1:1520, 0:3056] : (tensor<1520x3056xf64>) -> tensor<1519x3056xf64>
      %710 = stablehlo.multiply %78, %709 : tensor<1519x3056xf64>
      %711 = stablehlo.pad %710, %cst_379, low = [0, 0], high = [1, 0], interior = [0, 0] : (tensor<1519x3056xf64>, tensor<f64>) -> tensor<1520x3056xf64>
      %712 = stablehlo.pad %710, %cst_379, low = [1, 0], high = [0, 0], interior = [0, 0] : (tensor<1519x3056xf64>, tensor<f64>) -> tensor<1520x3056xf64>
      %713 = stablehlo.subtract %711, %712 : tensor<1520x3056xf64>
      %714 = stablehlo.add %708, %713 : tensor<1520x3056xf64>
      %715 = stablehlo.multiply %cst_363, %714 : tensor<1520x3056xf64>
      %716 = stablehlo.multiply %169, %715 : tensor<1520x3056xf64>
      %717 = stablehlo.subtract %680, %716 : tensor<1520x3056xf64>
      %718 = stablehlo.reshape %717 : (tensor<1520x3056xf64>) -> tensor<1x1520x3056xf64>
      %719 = "enzymexla.rotate"(%717) <{amount = 3055 : i32, dimension = 1 : i32}> : (tensor<1520x3056xf64>) -> tensor<1520x3056xf64>
      %720 = stablehlo.subtract %717, %719 : tensor<1520x3056xf64>
      %721 = stablehlo.multiply %720, %168 : tensor<1520x3056xf64>
      %722 = stablehlo.multiply %cst_362, %721 : tensor<1520x3056xf64>
      %723 = stablehlo.add %388, %722 : tensor<1520x3056xf64>
      %724 = stablehlo.multiply %cst_363, %723 : tensor<1520x3056xf64>
      %725 = stablehlo.add %688, %724 : tensor<1520x3056xf64>
      %726 = stablehlo.slice %717 [1:1520, 0:3056] : (tensor<1520x3056xf64>) -> tensor<1519x3056xf64>
      %727 = stablehlo.slice %717 [0:1519, 0:3056] : (tensor<1520x3056xf64>) -> tensor<1519x3056xf64>
      %728 = stablehlo.subtract %726, %727 : tensor<1519x3056xf64>
      %729 = stablehlo.multiply %cst_360, %728 : tensor<1519x3056xf64>
      %730 = stablehlo.add %729, %371 : tensor<1519x3056xf64>
      %731 = stablehlo.pad %730, %cst_379, low = [1, 0], high = [0, 0], interior = [0, 0] : (tensor<1519x3056xf64>, tensor<f64>) -> tensor<1520x3056xf64>
      %732 = stablehlo.add %386, %731 : tensor<1520x3056xf64>
      %733 = stablehlo.multiply %cst_363, %732 : tensor<1520x3056xf64>
      %734 = stablehlo.add %697, %733 : tensor<1520x3056xf64>
      %735 = stablehlo.reshape %734 : (tensor<1520x3056xf64>) -> tensor<1x1520x3056xf64>
      %736 = stablehlo.multiply %718, %cst_343 : tensor<1x1520x3056xf64>
      %737 = stablehlo.add %700, %736 : tensor<1x1520x3056xf64>
      %738 = stablehlo.multiply %725, %cst_342 : tensor<1520x3056xf64>
      %739 = stablehlo.add %738, %702 : tensor<1520x3056xf64>
      %740 = stablehlo.multiply %735, %cst_343 : tensor<1x1520x3056xf64>
      %741 = stablehlo.add %740, %704 : tensor<1x1520x3056xf64>
      %742 = "enzymexla.rotate"(%725) <{amount = 1 : i32, dimension = 1 : i32}> : (tensor<1520x3056xf64>) -> tensor<1520x3056xf64>
      %743 = stablehlo.multiply %742, %cst_366 : tensor<1520x3056xf64>
      %744 = stablehlo.multiply %725, %cst_365 : tensor<1520x3056xf64>
      %745 = stablehlo.add %743, %744 : tensor<1520x3056xf64>
      %746 = stablehlo.slice %734 [1:1520, 0:3056] : (tensor<1520x3056xf64>) -> tensor<1519x3056xf64>
      %747 = stablehlo.multiply %78, %746 : tensor<1519x3056xf64>
      %748 = stablehlo.pad %747, %cst_379, low = [0, 0], high = [1, 0], interior = [0, 0] : (tensor<1519x3056xf64>, tensor<f64>) -> tensor<1520x3056xf64>
      %749 = stablehlo.pad %747, %cst_379, low = [1, 0], high = [0, 0], interior = [0, 0] : (tensor<1519x3056xf64>, tensor<f64>) -> tensor<1520x3056xf64>
      %750 = stablehlo.subtract %748, %749 : tensor<1520x3056xf64>
      %751 = stablehlo.add %745, %750 : tensor<1520x3056xf64>
      %752 = stablehlo.multiply %cst_363, %751 : tensor<1520x3056xf64>
      %753 = stablehlo.multiply %169, %752 : tensor<1520x3056xf64>
      %754 = stablehlo.subtract %717, %753 : tensor<1520x3056xf64>
      %755 = stablehlo.reshape %754 : (tensor<1520x3056xf64>) -> tensor<1x1520x3056xf64>
      %756 = "enzymexla.rotate"(%754) <{amount = 3055 : i32, dimension = 1 : i32}> : (tensor<1520x3056xf64>) -> tensor<1520x3056xf64>
      %757 = stablehlo.subtract %754, %756 : tensor<1520x3056xf64>
      %758 = stablehlo.multiply %757, %168 : tensor<1520x3056xf64>
      %759 = stablehlo.multiply %cst_362, %758 : tensor<1520x3056xf64>
      %760 = stablehlo.add %388, %759 : tensor<1520x3056xf64>
      %761 = stablehlo.multiply %cst_363, %760 : tensor<1520x3056xf64>
      %762 = stablehlo.add %725, %761 : tensor<1520x3056xf64>
      %763 = stablehlo.slice %754 [1:1520, 0:3056] : (tensor<1520x3056xf64>) -> tensor<1519x3056xf64>
      %764 = stablehlo.slice %754 [0:1519, 0:3056] : (tensor<1520x3056xf64>) -> tensor<1519x3056xf64>
      %765 = stablehlo.subtract %763, %764 : tensor<1519x3056xf64>
      %766 = stablehlo.multiply %cst_360, %765 : tensor<1519x3056xf64>
      %767 = stablehlo.add %766, %371 : tensor<1519x3056xf64>
      %768 = stablehlo.pad %767, %cst_379, low = [1, 0], high = [0, 0], interior = [0, 0] : (tensor<1519x3056xf64>, tensor<f64>) -> tensor<1520x3056xf64>
      %769 = stablehlo.add %386, %768 : tensor<1520x3056xf64>
      %770 = stablehlo.multiply %cst_363, %769 : tensor<1520x3056xf64>
      %771 = stablehlo.add %734, %770 : tensor<1520x3056xf64>
      %772 = stablehlo.reshape %771 : (tensor<1520x3056xf64>) -> tensor<1x1520x3056xf64>
      %773 = stablehlo.multiply %755, %cst_341 : tensor<1x1520x3056xf64>
      %774 = stablehlo.add %737, %773 : tensor<1x1520x3056xf64>
      %775 = stablehlo.multiply %762, %cst_340 : tensor<1520x3056xf64>
      %776 = stablehlo.add %775, %739 : tensor<1520x3056xf64>
      %777 = stablehlo.multiply %772, %cst_341 : tensor<1x1520x3056xf64>
      %778 = stablehlo.add %777, %741 : tensor<1x1520x3056xf64>
      %779 = "enzymexla.rotate"(%762) <{amount = 1 : i32, dimension = 1 : i32}> : (tensor<1520x3056xf64>) -> tensor<1520x3056xf64>
      %780 = stablehlo.multiply %779, %cst_366 : tensor<1520x3056xf64>
      %781 = stablehlo.multiply %762, %cst_365 : tensor<1520x3056xf64>
      %782 = stablehlo.add %780, %781 : tensor<1520x3056xf64>
      %783 = stablehlo.slice %771 [1:1520, 0:3056] : (tensor<1520x3056xf64>) -> tensor<1519x3056xf64>
      %784 = stablehlo.multiply %78, %783 : tensor<1519x3056xf64>
      %785 = stablehlo.pad %784, %cst_379, low = [0, 0], high = [1, 0], interior = [0, 0] : (tensor<1519x3056xf64>, tensor<f64>) -> tensor<1520x3056xf64>
      %786 = stablehlo.pad %784, %cst_379, low = [1, 0], high = [0, 0], interior = [0, 0] : (tensor<1519x3056xf64>, tensor<f64>) -> tensor<1520x3056xf64>
      %787 = stablehlo.subtract %785, %786 : tensor<1520x3056xf64>
      %788 = stablehlo.add %782, %787 : tensor<1520x3056xf64>
      %789 = stablehlo.multiply %cst_363, %788 : tensor<1520x3056xf64>
      %790 = stablehlo.multiply %169, %789 : tensor<1520x3056xf64>
      %791 = stablehlo.subtract %754, %790 : tensor<1520x3056xf64>
      %792 = stablehlo.reshape %791 : (tensor<1520x3056xf64>) -> tensor<1x1520x3056xf64>
      %793 = "enzymexla.rotate"(%791) <{amount = 3055 : i32, dimension = 1 : i32}> : (tensor<1520x3056xf64>) -> tensor<1520x3056xf64>
      %794 = stablehlo.subtract %791, %793 : tensor<1520x3056xf64>
      %795 = stablehlo.multiply %794, %168 : tensor<1520x3056xf64>
      %796 = stablehlo.multiply %cst_362, %795 : tensor<1520x3056xf64>
      %797 = stablehlo.add %388, %796 : tensor<1520x3056xf64>
      %798 = stablehlo.multiply %cst_363, %797 : tensor<1520x3056xf64>
      %799 = stablehlo.add %762, %798 : tensor<1520x3056xf64>
      %800 = stablehlo.slice %791 [1:1520, 0:3056] : (tensor<1520x3056xf64>) -> tensor<1519x3056xf64>
      %801 = stablehlo.slice %791 [0:1519, 0:3056] : (tensor<1520x3056xf64>) -> tensor<1519x3056xf64>
      %802 = stablehlo.subtract %800, %801 : tensor<1519x3056xf64>
      %803 = stablehlo.multiply %cst_360, %802 : tensor<1519x3056xf64>
      %804 = stablehlo.add %803, %371 : tensor<1519x3056xf64>
      %805 = stablehlo.pad %804, %cst_379, low = [1, 0], high = [0, 0], interior = [0, 0] : (tensor<1519x3056xf64>, tensor<f64>) -> tensor<1520x3056xf64>
      %806 = stablehlo.add %386, %805 : tensor<1520x3056xf64>
      %807 = stablehlo.multiply %cst_363, %806 : tensor<1520x3056xf64>
      %808 = stablehlo.add %771, %807 : tensor<1520x3056xf64>
      %809 = stablehlo.reshape %808 : (tensor<1520x3056xf64>) -> tensor<1x1520x3056xf64>
      %810 = stablehlo.multiply %792, %cst_339 : tensor<1x1520x3056xf64>
      %811 = stablehlo.add %774, %810 : tensor<1x1520x3056xf64>
      %812 = stablehlo.multiply %799, %cst_338 : tensor<1520x3056xf64>
      %813 = stablehlo.add %812, %776 : tensor<1520x3056xf64>
      %814 = stablehlo.multiply %809, %cst_339 : tensor<1x1520x3056xf64>
      %815 = stablehlo.add %814, %778 : tensor<1x1520x3056xf64>
      %816 = "enzymexla.rotate"(%799) <{amount = 1 : i32, dimension = 1 : i32}> : (tensor<1520x3056xf64>) -> tensor<1520x3056xf64>
      %817 = stablehlo.multiply %816, %cst_366 : tensor<1520x3056xf64>
      %818 = stablehlo.multiply %799, %cst_365 : tensor<1520x3056xf64>
      %819 = stablehlo.add %817, %818 : tensor<1520x3056xf64>
      %820 = stablehlo.slice %808 [1:1520, 0:3056] : (tensor<1520x3056xf64>) -> tensor<1519x3056xf64>
      %821 = stablehlo.multiply %78, %820 : tensor<1519x3056xf64>
      %822 = stablehlo.pad %821, %cst_379, low = [0, 0], high = [1, 0], interior = [0, 0] : (tensor<1519x3056xf64>, tensor<f64>) -> tensor<1520x3056xf64>
      %823 = stablehlo.pad %821, %cst_379, low = [1, 0], high = [0, 0], interior = [0, 0] : (tensor<1519x3056xf64>, tensor<f64>) -> tensor<1520x3056xf64>
      %824 = stablehlo.subtract %822, %823 : tensor<1520x3056xf64>
      %825 = stablehlo.add %819, %824 : tensor<1520x3056xf64>
      %826 = stablehlo.multiply %cst_363, %825 : tensor<1520x3056xf64>
      %827 = stablehlo.multiply %169, %826 : tensor<1520x3056xf64>
      %828 = stablehlo.subtract %791, %827 : tensor<1520x3056xf64>
      %829 = stablehlo.reshape %828 : (tensor<1520x3056xf64>) -> tensor<1x1520x3056xf64>
      %830 = "enzymexla.rotate"(%828) <{amount = 3055 : i32, dimension = 1 : i32}> : (tensor<1520x3056xf64>) -> tensor<1520x3056xf64>
      %831 = stablehlo.subtract %828, %830 : tensor<1520x3056xf64>
      %832 = stablehlo.multiply %831, %168 : tensor<1520x3056xf64>
      %833 = stablehlo.multiply %cst_362, %832 : tensor<1520x3056xf64>
      %834 = stablehlo.add %388, %833 : tensor<1520x3056xf64>
      %835 = stablehlo.multiply %cst_363, %834 : tensor<1520x3056xf64>
      %836 = stablehlo.add %799, %835 : tensor<1520x3056xf64>
      %837 = stablehlo.slice %828 [1:1520, 0:3056] : (tensor<1520x3056xf64>) -> tensor<1519x3056xf64>
      %838 = stablehlo.slice %828 [0:1519, 0:3056] : (tensor<1520x3056xf64>) -> tensor<1519x3056xf64>
      %839 = stablehlo.subtract %837, %838 : tensor<1519x3056xf64>
      %840 = stablehlo.multiply %cst_360, %839 : tensor<1519x3056xf64>
      %841 = stablehlo.add %840, %371 : tensor<1519x3056xf64>
      %842 = stablehlo.pad %841, %cst_379, low = [1, 0], high = [0, 0], interior = [0, 0] : (tensor<1519x3056xf64>, tensor<f64>) -> tensor<1520x3056xf64>
      %843 = stablehlo.add %386, %842 : tensor<1520x3056xf64>
      %844 = stablehlo.multiply %cst_363, %843 : tensor<1520x3056xf64>
      %845 = stablehlo.add %808, %844 : tensor<1520x3056xf64>
      %846 = stablehlo.reshape %845 : (tensor<1520x3056xf64>) -> tensor<1x1520x3056xf64>
      %847 = stablehlo.multiply %829, %cst_337 : tensor<1x1520x3056xf64>
      %848 = stablehlo.add %811, %847 : tensor<1x1520x3056xf64>
      %849 = stablehlo.multiply %836, %cst_336 : tensor<1520x3056xf64>
      %850 = stablehlo.add %849, %813 : tensor<1520x3056xf64>
      %851 = stablehlo.multiply %846, %cst_337 : tensor<1x1520x3056xf64>
      %852 = stablehlo.add %851, %815 : tensor<1x1520x3056xf64>
      %853 = "enzymexla.rotate"(%836) <{amount = 1 : i32, dimension = 1 : i32}> : (tensor<1520x3056xf64>) -> tensor<1520x3056xf64>
      %854 = stablehlo.multiply %853, %cst_366 : tensor<1520x3056xf64>
      %855 = stablehlo.multiply %836, %cst_365 : tensor<1520x3056xf64>
      %856 = stablehlo.add %854, %855 : tensor<1520x3056xf64>
      %857 = stablehlo.slice %845 [1:1520, 0:3056] : (tensor<1520x3056xf64>) -> tensor<1519x3056xf64>
      %858 = stablehlo.multiply %78, %857 : tensor<1519x3056xf64>
      %859 = stablehlo.pad %858, %cst_379, low = [0, 0], high = [1, 0], interior = [0, 0] : (tensor<1519x3056xf64>, tensor<f64>) -> tensor<1520x3056xf64>
      %860 = stablehlo.pad %858, %cst_379, low = [1, 0], high = [0, 0], interior = [0, 0] : (tensor<1519x3056xf64>, tensor<f64>) -> tensor<1520x3056xf64>
      %861 = stablehlo.subtract %859, %860 : tensor<1520x3056xf64>
      %862 = stablehlo.add %856, %861 : tensor<1520x3056xf64>
      %863 = stablehlo.multiply %cst_363, %862 : tensor<1520x3056xf64>
      %864 = stablehlo.multiply %169, %863 : tensor<1520x3056xf64>
      %865 = stablehlo.subtract %828, %864 : tensor<1520x3056xf64>
      %866 = stablehlo.reshape %865 : (tensor<1520x3056xf64>) -> tensor<1x1520x3056xf64>
      %867 = "enzymexla.rotate"(%865) <{amount = 3055 : i32, dimension = 1 : i32}> : (tensor<1520x3056xf64>) -> tensor<1520x3056xf64>
      %868 = stablehlo.subtract %865, %867 : tensor<1520x3056xf64>
      %869 = stablehlo.multiply %868, %168 : tensor<1520x3056xf64>
      %870 = stablehlo.multiply %cst_362, %869 : tensor<1520x3056xf64>
      %871 = stablehlo.add %388, %870 : tensor<1520x3056xf64>
      %872 = stablehlo.multiply %cst_363, %871 : tensor<1520x3056xf64>
      %873 = stablehlo.add %836, %872 : tensor<1520x3056xf64>
      %874 = stablehlo.slice %865 [1:1520, 0:3056] : (tensor<1520x3056xf64>) -> tensor<1519x3056xf64>
      %875 = stablehlo.slice %865 [0:1519, 0:3056] : (tensor<1520x3056xf64>) -> tensor<1519x3056xf64>
      %876 = stablehlo.subtract %874, %875 : tensor<1519x3056xf64>
      %877 = stablehlo.multiply %cst_360, %876 : tensor<1519x3056xf64>
      %878 = stablehlo.add %877, %371 : tensor<1519x3056xf64>
      %879 = stablehlo.pad %878, %cst_379, low = [1, 0], high = [0, 0], interior = [0, 0] : (tensor<1519x3056xf64>, tensor<f64>) -> tensor<1520x3056xf64>
      %880 = stablehlo.add %386, %879 : tensor<1520x3056xf64>
      %881 = stablehlo.multiply %cst_363, %880 : tensor<1520x3056xf64>
      %882 = stablehlo.add %845, %881 : tensor<1520x3056xf64>
      %883 = stablehlo.reshape %882 : (tensor<1520x3056xf64>) -> tensor<1x1520x3056xf64>
      %884 = stablehlo.multiply %866, %cst_335 : tensor<1x1520x3056xf64>
      %885 = stablehlo.add %848, %884 : tensor<1x1520x3056xf64>
      %886 = stablehlo.multiply %873, %cst_334 : tensor<1520x3056xf64>
      %887 = stablehlo.add %886, %850 : tensor<1520x3056xf64>
      %888 = stablehlo.multiply %883, %cst_335 : tensor<1x1520x3056xf64>
      %889 = stablehlo.add %888, %852 : tensor<1x1520x3056xf64>
      %890 = "enzymexla.rotate"(%873) <{amount = 1 : i32, dimension = 1 : i32}> : (tensor<1520x3056xf64>) -> tensor<1520x3056xf64>
      %891 = stablehlo.multiply %890, %cst_366 : tensor<1520x3056xf64>
      %892 = stablehlo.multiply %873, %cst_365 : tensor<1520x3056xf64>
      %893 = stablehlo.add %891, %892 : tensor<1520x3056xf64>
      %894 = stablehlo.slice %882 [1:1520, 0:3056] : (tensor<1520x3056xf64>) -> tensor<1519x3056xf64>
      %895 = stablehlo.multiply %78, %894 : tensor<1519x3056xf64>
      %896 = stablehlo.pad %895, %cst_379, low = [0, 0], high = [1, 0], interior = [0, 0] : (tensor<1519x3056xf64>, tensor<f64>) -> tensor<1520x3056xf64>
      %897 = stablehlo.pad %895, %cst_379, low = [1, 0], high = [0, 0], interior = [0, 0] : (tensor<1519x3056xf64>, tensor<f64>) -> tensor<1520x3056xf64>
      %898 = stablehlo.subtract %896, %897 : tensor<1520x3056xf64>
      %899 = stablehlo.add %893, %898 : tensor<1520x3056xf64>
      %900 = stablehlo.multiply %cst_363, %899 : tensor<1520x3056xf64>
      %901 = stablehlo.multiply %169, %900 : tensor<1520x3056xf64>
      %902 = stablehlo.subtract %865, %901 : tensor<1520x3056xf64>
      %903 = stablehlo.reshape %902 : (tensor<1520x3056xf64>) -> tensor<1x1520x3056xf64>
      %904 = "enzymexla.rotate"(%902) <{amount = 3055 : i32, dimension = 1 : i32}> : (tensor<1520x3056xf64>) -> tensor<1520x3056xf64>
      %905 = stablehlo.subtract %902, %904 : tensor<1520x3056xf64>
      %906 = stablehlo.multiply %905, %168 : tensor<1520x3056xf64>
      %907 = stablehlo.multiply %cst_362, %906 : tensor<1520x3056xf64>
      %908 = stablehlo.add %388, %907 : tensor<1520x3056xf64>
      %909 = stablehlo.multiply %cst_363, %908 : tensor<1520x3056xf64>
      %910 = stablehlo.add %873, %909 : tensor<1520x3056xf64>
      %911 = stablehlo.slice %902 [1:1520, 0:3056] : (tensor<1520x3056xf64>) -> tensor<1519x3056xf64>
      %912 = stablehlo.slice %902 [0:1519, 0:3056] : (tensor<1520x3056xf64>) -> tensor<1519x3056xf64>
      %913 = stablehlo.subtract %911, %912 : tensor<1519x3056xf64>
      %914 = stablehlo.multiply %cst_360, %913 : tensor<1519x3056xf64>
      %915 = stablehlo.add %914, %371 : tensor<1519x3056xf64>
      %916 = stablehlo.pad %915, %cst_379, low = [1, 0], high = [0, 0], interior = [0, 0] : (tensor<1519x3056xf64>, tensor<f64>) -> tensor<1520x3056xf64>
      %917 = stablehlo.add %386, %916 : tensor<1520x3056xf64>
      %918 = stablehlo.multiply %cst_363, %917 : tensor<1520x3056xf64>
      %919 = stablehlo.add %882, %918 : tensor<1520x3056xf64>
      %920 = stablehlo.reshape %919 : (tensor<1520x3056xf64>) -> tensor<1x1520x3056xf64>
      %921 = stablehlo.multiply %903, %cst_333 : tensor<1x1520x3056xf64>
      %922 = stablehlo.add %885, %921 : tensor<1x1520x3056xf64>
      %923 = stablehlo.multiply %910, %cst_332 : tensor<1520x3056xf64>
      %924 = stablehlo.add %923, %887 : tensor<1520x3056xf64>
      %925 = stablehlo.multiply %920, %cst_333 : tensor<1x1520x3056xf64>
      %926 = stablehlo.add %925, %889 : tensor<1x1520x3056xf64>
      %927 = "enzymexla.rotate"(%910) <{amount = 1 : i32, dimension = 1 : i32}> : (tensor<1520x3056xf64>) -> tensor<1520x3056xf64>
      %928 = stablehlo.multiply %927, %cst_366 : tensor<1520x3056xf64>
      %929 = stablehlo.multiply %910, %cst_365 : tensor<1520x3056xf64>
      %930 = stablehlo.add %928, %929 : tensor<1520x3056xf64>
      %931 = stablehlo.slice %919 [1:1520, 0:3056] : (tensor<1520x3056xf64>) -> tensor<1519x3056xf64>
      %932 = stablehlo.multiply %78, %931 : tensor<1519x3056xf64>
      %933 = stablehlo.pad %932, %cst_379, low = [0, 0], high = [1, 0], interior = [0, 0] : (tensor<1519x3056xf64>, tensor<f64>) -> tensor<1520x3056xf64>
      %934 = stablehlo.pad %932, %cst_379, low = [1, 0], high = [0, 0], interior = [0, 0] : (tensor<1519x3056xf64>, tensor<f64>) -> tensor<1520x3056xf64>
      %935 = stablehlo.subtract %933, %934 : tensor<1520x3056xf64>
      %936 = stablehlo.add %930, %935 : tensor<1520x3056xf64>
      %937 = stablehlo.multiply %cst_363, %936 : tensor<1520x3056xf64>
      %938 = stablehlo.multiply %169, %937 : tensor<1520x3056xf64>
      %939 = stablehlo.subtract %902, %938 : tensor<1520x3056xf64>
      %940 = stablehlo.reshape %939 : (tensor<1520x3056xf64>) -> tensor<1x1520x3056xf64>
      %941 = "enzymexla.rotate"(%939) <{amount = 3055 : i32, dimension = 1 : i32}> : (tensor<1520x3056xf64>) -> tensor<1520x3056xf64>
      %942 = stablehlo.subtract %939, %941 : tensor<1520x3056xf64>
      %943 = stablehlo.multiply %942, %168 : tensor<1520x3056xf64>
      %944 = stablehlo.multiply %cst_362, %943 : tensor<1520x3056xf64>
      %945 = stablehlo.add %388, %944 : tensor<1520x3056xf64>
      %946 = stablehlo.multiply %cst_363, %945 : tensor<1520x3056xf64>
      %947 = stablehlo.add %910, %946 : tensor<1520x3056xf64>
      %948 = stablehlo.slice %939 [1:1520, 0:3056] : (tensor<1520x3056xf64>) -> tensor<1519x3056xf64>
      %949 = stablehlo.slice %939 [0:1519, 0:3056] : (tensor<1520x3056xf64>) -> tensor<1519x3056xf64>
      %950 = stablehlo.subtract %948, %949 : tensor<1519x3056xf64>
      %951 = stablehlo.multiply %cst_360, %950 : tensor<1519x3056xf64>
      %952 = stablehlo.add %951, %371 : tensor<1519x3056xf64>
      %953 = stablehlo.pad %952, %cst_379, low = [1, 0], high = [0, 0], interior = [0, 0] : (tensor<1519x3056xf64>, tensor<f64>) -> tensor<1520x3056xf64>
      %954 = stablehlo.add %386, %953 : tensor<1520x3056xf64>
      %955 = stablehlo.multiply %cst_363, %954 : tensor<1520x3056xf64>
      %956 = stablehlo.add %919, %955 : tensor<1520x3056xf64>
      %957 = stablehlo.reshape %956 : (tensor<1520x3056xf64>) -> tensor<1x1520x3056xf64>
      %958 = stablehlo.multiply %940, %cst_331 : tensor<1x1520x3056xf64>
      %959 = stablehlo.add %922, %958 : tensor<1x1520x3056xf64>
      %960 = stablehlo.multiply %947, %cst_330 : tensor<1520x3056xf64>
      %961 = stablehlo.add %960, %924 : tensor<1520x3056xf64>
      %962 = stablehlo.multiply %957, %cst_331 : tensor<1x1520x3056xf64>
      %963 = stablehlo.add %962, %926 : tensor<1x1520x3056xf64>
      %964 = "enzymexla.rotate"(%947) <{amount = 1 : i32, dimension = 1 : i32}> : (tensor<1520x3056xf64>) -> tensor<1520x3056xf64>
      %965 = stablehlo.multiply %964, %cst_366 : tensor<1520x3056xf64>
      %966 = stablehlo.multiply %947, %cst_365 : tensor<1520x3056xf64>
      %967 = stablehlo.add %965, %966 : tensor<1520x3056xf64>
      %968 = stablehlo.slice %956 [1:1520, 0:3056] : (tensor<1520x3056xf64>) -> tensor<1519x3056xf64>
      %969 = stablehlo.multiply %78, %968 : tensor<1519x3056xf64>
      %970 = stablehlo.pad %969, %cst_379, low = [0, 0], high = [1, 0], interior = [0, 0] : (tensor<1519x3056xf64>, tensor<f64>) -> tensor<1520x3056xf64>
      %971 = stablehlo.pad %969, %cst_379, low = [1, 0], high = [0, 0], interior = [0, 0] : (tensor<1519x3056xf64>, tensor<f64>) -> tensor<1520x3056xf64>
      %972 = stablehlo.subtract %970, %971 : tensor<1520x3056xf64>
      %973 = stablehlo.add %967, %972 : tensor<1520x3056xf64>
      %974 = stablehlo.multiply %cst_363, %973 : tensor<1520x3056xf64>
      %975 = stablehlo.multiply %169, %974 : tensor<1520x3056xf64>
      %976 = stablehlo.subtract %939, %975 : tensor<1520x3056xf64>
      %977 = stablehlo.reshape %976 : (tensor<1520x3056xf64>) -> tensor<1x1520x3056xf64>
      %978 = "enzymexla.rotate"(%976) <{amount = 3055 : i32, dimension = 1 : i32}> : (tensor<1520x3056xf64>) -> tensor<1520x3056xf64>
      %979 = stablehlo.subtract %976, %978 : tensor<1520x3056xf64>
      %980 = stablehlo.multiply %979, %168 : tensor<1520x3056xf64>
      %981 = stablehlo.multiply %cst_362, %980 : tensor<1520x3056xf64>
      %982 = stablehlo.add %388, %981 : tensor<1520x3056xf64>
      %983 = stablehlo.multiply %cst_363, %982 : tensor<1520x3056xf64>
      %984 = stablehlo.add %947, %983 : tensor<1520x3056xf64>
      %985 = stablehlo.slice %976 [1:1520, 0:3056] : (tensor<1520x3056xf64>) -> tensor<1519x3056xf64>
      %986 = stablehlo.slice %976 [0:1519, 0:3056] : (tensor<1520x3056xf64>) -> tensor<1519x3056xf64>
      %987 = stablehlo.subtract %985, %986 : tensor<1519x3056xf64>
      %988 = stablehlo.multiply %cst_360, %987 : tensor<1519x3056xf64>
      %989 = stablehlo.add %988, %371 : tensor<1519x3056xf64>
      %990 = stablehlo.pad %989, %cst_379, low = [1, 0], high = [0, 0], interior = [0, 0] : (tensor<1519x3056xf64>, tensor<f64>) -> tensor<1520x3056xf64>
      %991 = stablehlo.add %386, %990 : tensor<1520x3056xf64>
      %992 = stablehlo.multiply %cst_363, %991 : tensor<1520x3056xf64>
      %993 = stablehlo.add %956, %992 : tensor<1520x3056xf64>
      %994 = stablehlo.reshape %993 : (tensor<1520x3056xf64>) -> tensor<1x1520x3056xf64>
      %995 = stablehlo.multiply %977, %cst_329 : tensor<1x1520x3056xf64>
      %996 = stablehlo.add %959, %995 : tensor<1x1520x3056xf64>
      %997 = stablehlo.multiply %984, %cst_328 : tensor<1520x3056xf64>
      %998 = stablehlo.add %997, %961 : tensor<1520x3056xf64>
      %999 = stablehlo.multiply %994, %cst_329 : tensor<1x1520x3056xf64>
      %1000 = stablehlo.add %999, %963 : tensor<1x1520x3056xf64>
      %1001 = "enzymexla.rotate"(%984) <{amount = 1 : i32, dimension = 1 : i32}> : (tensor<1520x3056xf64>) -> tensor<1520x3056xf64>
      %1002 = stablehlo.multiply %1001, %cst_366 : tensor<1520x3056xf64>
      %1003 = stablehlo.multiply %984, %cst_365 : tensor<1520x3056xf64>
      %1004 = stablehlo.add %1002, %1003 : tensor<1520x3056xf64>
      %1005 = stablehlo.slice %993 [1:1520, 0:3056] : (tensor<1520x3056xf64>) -> tensor<1519x3056xf64>
      %1006 = stablehlo.multiply %78, %1005 : tensor<1519x3056xf64>
      %1007 = stablehlo.pad %1006, %cst_379, low = [0, 0], high = [1, 0], interior = [0, 0] : (tensor<1519x3056xf64>, tensor<f64>) -> tensor<1520x3056xf64>
      %1008 = stablehlo.pad %1006, %cst_379, low = [1, 0], high = [0, 0], interior = [0, 0] : (tensor<1519x3056xf64>, tensor<f64>) -> tensor<1520x3056xf64>
      %1009 = stablehlo.subtract %1007, %1008 : tensor<1520x3056xf64>
      %1010 = stablehlo.add %1004, %1009 : tensor<1520x3056xf64>
      %1011 = stablehlo.multiply %cst_363, %1010 : tensor<1520x3056xf64>
      %1012 = stablehlo.multiply %169, %1011 : tensor<1520x3056xf64>
      %1013 = stablehlo.subtract %976, %1012 : tensor<1520x3056xf64>
      %1014 = stablehlo.reshape %1013 : (tensor<1520x3056xf64>) -> tensor<1x1520x3056xf64>
      %1015 = "enzymexla.rotate"(%1013) <{amount = 3055 : i32, dimension = 1 : i32}> : (tensor<1520x3056xf64>) -> tensor<1520x3056xf64>
      %1016 = stablehlo.subtract %1013, %1015 : tensor<1520x3056xf64>
      %1017 = stablehlo.multiply %1016, %168 : tensor<1520x3056xf64>
      %1018 = stablehlo.multiply %cst_362, %1017 : tensor<1520x3056xf64>
      %1019 = stablehlo.add %388, %1018 : tensor<1520x3056xf64>
      %1020 = stablehlo.multiply %cst_363, %1019 : tensor<1520x3056xf64>
      %1021 = stablehlo.add %984, %1020 : tensor<1520x3056xf64>
      %1022 = stablehlo.slice %1013 [1:1520, 0:3056] : (tensor<1520x3056xf64>) -> tensor<1519x3056xf64>
      %1023 = stablehlo.slice %1013 [0:1519, 0:3056] : (tensor<1520x3056xf64>) -> tensor<1519x3056xf64>
      %1024 = stablehlo.subtract %1022, %1023 : tensor<1519x3056xf64>
      %1025 = stablehlo.multiply %cst_360, %1024 : tensor<1519x3056xf64>
      %1026 = stablehlo.add %1025, %371 : tensor<1519x3056xf64>
      %1027 = stablehlo.pad %1026, %cst_379, low = [1, 0], high = [0, 0], interior = [0, 0] : (tensor<1519x3056xf64>, tensor<f64>) -> tensor<1520x3056xf64>
      %1028 = stablehlo.add %386, %1027 : tensor<1520x3056xf64>
      %1029 = stablehlo.multiply %cst_363, %1028 : tensor<1520x3056xf64>
      %1030 = stablehlo.add %993, %1029 : tensor<1520x3056xf64>
      %1031 = stablehlo.reshape %1030 : (tensor<1520x3056xf64>) -> tensor<1x1520x3056xf64>
      %1032 = stablehlo.multiply %1014, %cst_327 : tensor<1x1520x3056xf64>
      %1033 = stablehlo.add %996, %1032 : tensor<1x1520x3056xf64>
      %1034 = stablehlo.multiply %1021, %cst_326 : tensor<1520x3056xf64>
      %1035 = stablehlo.add %1034, %998 : tensor<1520x3056xf64>
      %1036 = stablehlo.multiply %1031, %cst_327 : tensor<1x1520x3056xf64>
      %1037 = stablehlo.add %1036, %1000 : tensor<1x1520x3056xf64>
      %1038 = "enzymexla.rotate"(%1021) <{amount = 1 : i32, dimension = 1 : i32}> : (tensor<1520x3056xf64>) -> tensor<1520x3056xf64>
      %1039 = stablehlo.multiply %1038, %cst_366 : tensor<1520x3056xf64>
      %1040 = stablehlo.multiply %1021, %cst_365 : tensor<1520x3056xf64>
      %1041 = stablehlo.add %1039, %1040 : tensor<1520x3056xf64>
      %1042 = stablehlo.slice %1030 [1:1520, 0:3056] : (tensor<1520x3056xf64>) -> tensor<1519x3056xf64>
      %1043 = stablehlo.multiply %78, %1042 : tensor<1519x3056xf64>
      %1044 = stablehlo.pad %1043, %cst_379, low = [0, 0], high = [1, 0], interior = [0, 0] : (tensor<1519x3056xf64>, tensor<f64>) -> tensor<1520x3056xf64>
      %1045 = stablehlo.pad %1043, %cst_379, low = [1, 0], high = [0, 0], interior = [0, 0] : (tensor<1519x3056xf64>, tensor<f64>) -> tensor<1520x3056xf64>
      %1046 = stablehlo.subtract %1044, %1045 : tensor<1520x3056xf64>
      %1047 = stablehlo.add %1041, %1046 : tensor<1520x3056xf64>
      %1048 = stablehlo.multiply %cst_363, %1047 : tensor<1520x3056xf64>
      %1049 = stablehlo.multiply %169, %1048 : tensor<1520x3056xf64>
      %1050 = stablehlo.subtract %1013, %1049 : tensor<1520x3056xf64>
      %1051 = stablehlo.reshape %1050 : (tensor<1520x3056xf64>) -> tensor<1x1520x3056xf64>
      %1052 = "enzymexla.rotate"(%1050) <{amount = 3055 : i32, dimension = 1 : i32}> : (tensor<1520x3056xf64>) -> tensor<1520x3056xf64>
      %1053 = stablehlo.subtract %1050, %1052 : tensor<1520x3056xf64>
      %1054 = stablehlo.multiply %1053, %168 : tensor<1520x3056xf64>
      %1055 = stablehlo.multiply %cst_362, %1054 : tensor<1520x3056xf64>
      %1056 = stablehlo.add %388, %1055 : tensor<1520x3056xf64>
      %1057 = stablehlo.multiply %cst_363, %1056 : tensor<1520x3056xf64>
      %1058 = stablehlo.add %1021, %1057 : tensor<1520x3056xf64>
      %1059 = stablehlo.slice %1050 [1:1520, 0:3056] : (tensor<1520x3056xf64>) -> tensor<1519x3056xf64>
      %1060 = stablehlo.slice %1050 [0:1519, 0:3056] : (tensor<1520x3056xf64>) -> tensor<1519x3056xf64>
      %1061 = stablehlo.subtract %1059, %1060 : tensor<1519x3056xf64>
      %1062 = stablehlo.multiply %cst_360, %1061 : tensor<1519x3056xf64>
      %1063 = stablehlo.add %1062, %371 : tensor<1519x3056xf64>
      %1064 = stablehlo.pad %1063, %cst_379, low = [1, 0], high = [0, 0], interior = [0, 0] : (tensor<1519x3056xf64>, tensor<f64>) -> tensor<1520x3056xf64>
      %1065 = stablehlo.add %386, %1064 : tensor<1520x3056xf64>
      %1066 = stablehlo.multiply %cst_363, %1065 : tensor<1520x3056xf64>
      %1067 = stablehlo.add %1030, %1066 : tensor<1520x3056xf64>
      %1068 = stablehlo.reshape %1067 : (tensor<1520x3056xf64>) -> tensor<1x1520x3056xf64>
      %1069 = stablehlo.multiply %1051, %cst_325 : tensor<1x1520x3056xf64>
      %1070 = stablehlo.add %1033, %1069 : tensor<1x1520x3056xf64>
      %1071 = stablehlo.multiply %1058, %cst_324 : tensor<1520x3056xf64>
      %1072 = stablehlo.add %1071, %1035 : tensor<1520x3056xf64>
      %1073 = stablehlo.multiply %1068, %cst_325 : tensor<1x1520x3056xf64>
      %1074 = stablehlo.add %1073, %1037 : tensor<1x1520x3056xf64>
      %1075 = "enzymexla.rotate"(%1058) <{amount = 1 : i32, dimension = 1 : i32}> : (tensor<1520x3056xf64>) -> tensor<1520x3056xf64>
      %1076 = stablehlo.multiply %1075, %cst_366 : tensor<1520x3056xf64>
      %1077 = stablehlo.multiply %1058, %cst_365 : tensor<1520x3056xf64>
      %1078 = stablehlo.add %1076, %1077 : tensor<1520x3056xf64>
      %1079 = stablehlo.slice %1067 [1:1520, 0:3056] : (tensor<1520x3056xf64>) -> tensor<1519x3056xf64>
      %1080 = stablehlo.multiply %78, %1079 : tensor<1519x3056xf64>
      %1081 = stablehlo.pad %1080, %cst_379, low = [0, 0], high = [1, 0], interior = [0, 0] : (tensor<1519x3056xf64>, tensor<f64>) -> tensor<1520x3056xf64>
      %1082 = stablehlo.pad %1080, %cst_379, low = [1, 0], high = [0, 0], interior = [0, 0] : (tensor<1519x3056xf64>, tensor<f64>) -> tensor<1520x3056xf64>
      %1083 = stablehlo.subtract %1081, %1082 : tensor<1520x3056xf64>
      %1084 = stablehlo.add %1078, %1083 : tensor<1520x3056xf64>
      %1085 = stablehlo.multiply %cst_363, %1084 : tensor<1520x3056xf64>
      %1086 = stablehlo.multiply %169, %1085 : tensor<1520x3056xf64>
      %1087 = stablehlo.subtract %1050, %1086 : tensor<1520x3056xf64>
      %1088 = stablehlo.reshape %1087 : (tensor<1520x3056xf64>) -> tensor<1x1520x3056xf64>
      %1089 = "enzymexla.rotate"(%1087) <{amount = 3055 : i32, dimension = 1 : i32}> : (tensor<1520x3056xf64>) -> tensor<1520x3056xf64>
      %1090 = stablehlo.subtract %1087, %1089 : tensor<1520x3056xf64>
      %1091 = stablehlo.multiply %1090, %168 : tensor<1520x3056xf64>
      %1092 = stablehlo.multiply %cst_362, %1091 : tensor<1520x3056xf64>
      %1093 = stablehlo.add %388, %1092 : tensor<1520x3056xf64>
      %1094 = stablehlo.multiply %cst_363, %1093 : tensor<1520x3056xf64>
      %1095 = stablehlo.add %1058, %1094 : tensor<1520x3056xf64>
      %1096 = stablehlo.slice %1087 [1:1520, 0:3056] : (tensor<1520x3056xf64>) -> tensor<1519x3056xf64>
      %1097 = stablehlo.slice %1087 [0:1519, 0:3056] : (tensor<1520x3056xf64>) -> tensor<1519x3056xf64>
      %1098 = stablehlo.subtract %1096, %1097 : tensor<1519x3056xf64>
      %1099 = stablehlo.multiply %cst_360, %1098 : tensor<1519x3056xf64>
      %1100 = stablehlo.add %1099, %371 : tensor<1519x3056xf64>
      %1101 = stablehlo.pad %1100, %cst_379, low = [1, 0], high = [0, 0], interior = [0, 0] : (tensor<1519x3056xf64>, tensor<f64>) -> tensor<1520x3056xf64>
      %1102 = stablehlo.add %386, %1101 : tensor<1520x3056xf64>
      %1103 = stablehlo.multiply %cst_363, %1102 : tensor<1520x3056xf64>
      %1104 = stablehlo.add %1067, %1103 : tensor<1520x3056xf64>
      %1105 = stablehlo.reshape %1104 : (tensor<1520x3056xf64>) -> tensor<1x1520x3056xf64>
      %1106 = stablehlo.multiply %1088, %cst_323 : tensor<1x1520x3056xf64>
      %1107 = stablehlo.add %1070, %1106 : tensor<1x1520x3056xf64>
      %1108 = stablehlo.multiply %1095, %cst_322 : tensor<1520x3056xf64>
      %1109 = stablehlo.add %1108, %1072 : tensor<1520x3056xf64>
      %1110 = stablehlo.multiply %1105, %cst_323 : tensor<1x1520x3056xf64>
      %1111 = stablehlo.add %1110, %1074 : tensor<1x1520x3056xf64>
      %1112 = "enzymexla.rotate"(%1095) <{amount = 1 : i32, dimension = 1 : i32}> : (tensor<1520x3056xf64>) -> tensor<1520x3056xf64>
      %1113 = stablehlo.multiply %1112, %cst_366 : tensor<1520x3056xf64>
      %1114 = stablehlo.multiply %1095, %cst_365 : tensor<1520x3056xf64>
      %1115 = stablehlo.add %1113, %1114 : tensor<1520x3056xf64>
      %1116 = stablehlo.slice %1104 [1:1520, 0:3056] : (tensor<1520x3056xf64>) -> tensor<1519x3056xf64>
      %1117 = stablehlo.multiply %78, %1116 : tensor<1519x3056xf64>
      %1118 = stablehlo.pad %1117, %cst_379, low = [0, 0], high = [1, 0], interior = [0, 0] : (tensor<1519x3056xf64>, tensor<f64>) -> tensor<1520x3056xf64>
      %1119 = stablehlo.pad %1117, %cst_379, low = [1, 0], high = [0, 0], interior = [0, 0] : (tensor<1519x3056xf64>, tensor<f64>) -> tensor<1520x3056xf64>
      %1120 = stablehlo.subtract %1118, %1119 : tensor<1520x3056xf64>
      %1121 = stablehlo.add %1115, %1120 : tensor<1520x3056xf64>
      %1122 = stablehlo.multiply %cst_363, %1121 : tensor<1520x3056xf64>
      %1123 = stablehlo.multiply %169, %1122 : tensor<1520x3056xf64>
      %1124 = stablehlo.subtract %1087, %1123 : tensor<1520x3056xf64>
      %1125 = stablehlo.reshape %1124 : (tensor<1520x3056xf64>) -> tensor<1x1520x3056xf64>
      %1126 = "enzymexla.rotate"(%1124) <{amount = 3055 : i32, dimension = 1 : i32}> : (tensor<1520x3056xf64>) -> tensor<1520x3056xf64>
      %1127 = stablehlo.subtract %1124, %1126 : tensor<1520x3056xf64>
      %1128 = stablehlo.multiply %1127, %168 : tensor<1520x3056xf64>
      %1129 = stablehlo.multiply %cst_362, %1128 : tensor<1520x3056xf64>
      %1130 = stablehlo.add %388, %1129 : tensor<1520x3056xf64>
      %1131 = stablehlo.multiply %cst_363, %1130 : tensor<1520x3056xf64>
      %1132 = stablehlo.add %1095, %1131 : tensor<1520x3056xf64>
      %1133 = stablehlo.slice %1124 [1:1520, 0:3056] : (tensor<1520x3056xf64>) -> tensor<1519x3056xf64>
      %1134 = stablehlo.slice %1124 [0:1519, 0:3056] : (tensor<1520x3056xf64>) -> tensor<1519x3056xf64>
      %1135 = stablehlo.subtract %1133, %1134 : tensor<1519x3056xf64>
      %1136 = stablehlo.multiply %cst_360, %1135 : tensor<1519x3056xf64>
      %1137 = stablehlo.add %1136, %371 : tensor<1519x3056xf64>
      %1138 = stablehlo.pad %1137, %cst_379, low = [1, 0], high = [0, 0], interior = [0, 0] : (tensor<1519x3056xf64>, tensor<f64>) -> tensor<1520x3056xf64>
      %1139 = stablehlo.add %386, %1138 : tensor<1520x3056xf64>
      %1140 = stablehlo.multiply %cst_363, %1139 : tensor<1520x3056xf64>
      %1141 = stablehlo.add %1104, %1140 : tensor<1520x3056xf64>
      %1142 = stablehlo.reshape %1141 : (tensor<1520x3056xf64>) -> tensor<1x1520x3056xf64>
      %1143 = stablehlo.multiply %1125, %cst_321 : tensor<1x1520x3056xf64>
      %1144 = stablehlo.add %1107, %1143 : tensor<1x1520x3056xf64>
      %1145 = stablehlo.multiply %1132, %cst_320 : tensor<1520x3056xf64>
      %1146 = stablehlo.add %1145, %1109 : tensor<1520x3056xf64>
      %1147 = stablehlo.multiply %1142, %cst_321 : tensor<1x1520x3056xf64>
      %1148 = stablehlo.add %1147, %1111 : tensor<1x1520x3056xf64>
      %1149 = "enzymexla.rotate"(%1132) <{amount = 1 : i32, dimension = 1 : i32}> : (tensor<1520x3056xf64>) -> tensor<1520x3056xf64>
      %1150 = stablehlo.multiply %1149, %cst_366 : tensor<1520x3056xf64>
      %1151 = stablehlo.multiply %1132, %cst_365 : tensor<1520x3056xf64>
      %1152 = stablehlo.add %1150, %1151 : tensor<1520x3056xf64>
      %1153 = stablehlo.slice %1141 [1:1520, 0:3056] : (tensor<1520x3056xf64>) -> tensor<1519x3056xf64>
      %1154 = stablehlo.multiply %78, %1153 : tensor<1519x3056xf64>
      %1155 = stablehlo.pad %1154, %cst_379, low = [0, 0], high = [1, 0], interior = [0, 0] : (tensor<1519x3056xf64>, tensor<f64>) -> tensor<1520x3056xf64>
      %1156 = stablehlo.pad %1154, %cst_379, low = [1, 0], high = [0, 0], interior = [0, 0] : (tensor<1519x3056xf64>, tensor<f64>) -> tensor<1520x3056xf64>
      %1157 = stablehlo.subtract %1155, %1156 : tensor<1520x3056xf64>
      %1158 = stablehlo.add %1152, %1157 : tensor<1520x3056xf64>
      %1159 = stablehlo.multiply %cst_363, %1158 : tensor<1520x3056xf64>
      %1160 = stablehlo.multiply %169, %1159 : tensor<1520x3056xf64>
      %1161 = stablehlo.subtract %1124, %1160 : tensor<1520x3056xf64>
      %1162 = stablehlo.reshape %1161 : (tensor<1520x3056xf64>) -> tensor<1x1520x3056xf64>
      %1163 = stablehlo.slice %1162 [0:1, 0:1519, 0:3056] : (tensor<1x1520x3056xf64>) -> tensor<1x1519x3056xf64>
      %1164 = "enzymexla.rotate"(%1161) <{amount = 3055 : i32, dimension = 1 : i32}> : (tensor<1520x3056xf64>) -> tensor<1520x3056xf64>
      %1165 = stablehlo.subtract %1161, %1164 : tensor<1520x3056xf64>
      %1166 = stablehlo.multiply %1165, %168 : tensor<1520x3056xf64>
      %1167 = stablehlo.multiply %cst_362, %1166 : tensor<1520x3056xf64>
      %1168 = stablehlo.add %388, %1167 : tensor<1520x3056xf64>
      %1169 = stablehlo.multiply %cst_363, %1168 : tensor<1520x3056xf64>
      %1170 = stablehlo.add %1132, %1169 : tensor<1520x3056xf64>
      %1171 = stablehlo.slice %1162 [0:1, 1:1520, 0:3056] : (tensor<1x1520x3056xf64>) -> tensor<1x1519x3056xf64>
      %1172 = stablehlo.subtract %1171, %1163 : tensor<1x1519x3056xf64>
      %1173 = stablehlo.multiply %cst_319, %1172 : tensor<1x1519x3056xf64>
      %1174 = stablehlo.add %1173, %372 : tensor<1x1519x3056xf64>
      %1175 = stablehlo.pad %1174, %cst_379, low = [0, 1, 0], high = [0, 0, 0], interior = [0, 0, 0] : (tensor<1x1519x3056xf64>, tensor<f64>) -> tensor<1x1520x3056xf64>
      %1176 = stablehlo.add %387, %1175 : tensor<1x1520x3056xf64>
      %1177 = stablehlo.multiply %cst_361, %1176 : tensor<1x1520x3056xf64>
      %1178 = stablehlo.add %1142, %1177 : tensor<1x1520x3056xf64>
      %1179 = stablehlo.multiply %1162, %cst_317 : tensor<1x1520x3056xf64>
      %1180 = stablehlo.add %1144, %1179 : tensor<1x1520x3056xf64>
      %1181 = stablehlo.multiply %1170, %cst_318 : tensor<1520x3056xf64>
      %1182 = stablehlo.add %1181, %1146 : tensor<1520x3056xf64>
      %1183 = stablehlo.multiply %1178, %cst_317 : tensor<1x1520x3056xf64>
      %1184 = stablehlo.add %1183, %1148 : tensor<1x1520x3056xf64>
      %1185 = stablehlo.reshape %1182 : (tensor<1520x3056xf64>) -> tensor<1x1520x3056xf64>
      %1186 = stablehlo.add %iterArg_383, %cst_380 : tensor<f64>
      %1187 = stablehlo.slice %395 [0:1, 0:1520, 0:3056] : (tensor<4x1520x3056xf64>) -> tensor<1x1520x3056xf64>
      %1188 = stablehlo.multiply %62, %1187 : tensor<1x1520x3056xf64>
      %1189 = stablehlo.slice %400 [0:1, 0:1520, 0:3056] : (tensor<4x1520x3056xf64>) -> tensor<1x1520x3056xf64>
      %1190 = stablehlo.multiply %62, %1189 : tensor<1x1520x3056xf64>
      %1191 = stablehlo.slice %395 [1:4, 0:1520, 0:3056] : (tensor<4x1520x3056xf64>) -> tensor<3x1520x3056xf64>
      %1192 = stablehlo.slice %400 [1:4, 0:1520, 0:3056] : (tensor<4x1520x3056xf64>) -> tensor<3x1520x3056xf64>
      %1193 = stablehlo.dot_general %27, %1191, contracting_dims = [0] x [0] : (tensor<3xf64>, tensor<3x1520x3056xf64>) -> tensor<1520x3056xf64>
      %1194 = stablehlo.reshape %1193 : (tensor<1520x3056xf64>) -> tensor<1x1520x3056xf64>
      %1195 = stablehlo.dot_general %27, %1192, contracting_dims = [0] x [0] : (tensor<3xf64>, tensor<3x1520x3056xf64>) -> tensor<1520x3056xf64>
      %1196 = stablehlo.reshape %1195 : (tensor<1520x3056xf64>) -> tensor<1x1520x3056xf64>
      %1197 = stablehlo.add %1188, %1194 : tensor<1x1520x3056xf64>
      %1198 = stablehlo.add %1190, %1196 : tensor<1x1520x3056xf64>
      %1199 = stablehlo.reshape %1197 : (tensor<1x1520x3056xf64>) -> tensor<1520x3056xf64>
      %1200 = stablehlo.reshape %1184 : (tensor<1x1520x3056xf64>) -> tensor<1520x3056xf64>
      %1201 = stablehlo.reshape %1198 : (tensor<1x1520x3056xf64>) -> tensor<1520x3056xf64>
      %1202 = stablehlo.subtract %1182, %1199 : tensor<1520x3056xf64>
      %1203 = stablehlo.multiply %1202, %cst_316 : tensor<1520x3056xf64>
      %1204 = stablehlo.broadcast_in_dim %1203, dims = [1, 2] : (tensor<1520x3056xf64>) -> tensor<4x1520x3056xf64>
      %1205 = stablehlo.add %395, %1204 {enzymexla.non_negative = [#enzymexla<guaranteed NOTGUARANTEED>]} : tensor<4x1520x3056xf64>
      %1206 = stablehlo.slice %400 [0:4, 1:1520, 0:3056] : (tensor<4x1520x3056xf64>) -> tensor<4x1519x3056xf64>
      %1207 = stablehlo.slice %1200 [1:1520, 0:3056] : (tensor<1520x3056xf64>) -> tensor<1519x3056xf64>
      %1208 = stablehlo.slice %1201 [1:1520, 0:3056] : (tensor<1520x3056xf64>) -> tensor<1519x3056xf64>
      %1209 = stablehlo.subtract %1207, %1208 {enzymexla.non_negative = [#enzymexla<guaranteed NOTGUARANTEED>]} : tensor<1519x3056xf64>
      %1210 = stablehlo.multiply %1209, %cst_315 {enzymexla.non_negative = [#enzymexla<guaranteed NOTGUARANTEED>]} : tensor<1519x3056xf64>
      %1211 = stablehlo.broadcast_in_dim %1210, dims = [1, 2] {enzymexla.non_negative = [#enzymexla<guaranteed NOTGUARANTEED>]} : (tensor<1519x3056xf64>) -> tensor<4x1519x3056xf64>
      %1212 = stablehlo.add %1206, %1211 {enzymexla.non_negative = [#enzymexla<guaranteed NOTGUARANTEED>]} : tensor<4x1519x3056xf64>
      %1213 = stablehlo.slice %1212 [0:4, 0:1518, 0:3056] : (tensor<4x1519x3056xf64>) -> tensor<4x1518x3056xf64>
      %1214 = stablehlo.slice %1212 [3:4, 0:1519, 0:3056] : (tensor<4x1519x3056xf64>) -> tensor<1x1519x3056xf64>
      %1215 = stablehlo.slice %1212 [0:1, 0:1519, 0:3056] : (tensor<4x1519x3056xf64>) -> tensor<1x1519x3056xf64>
      %1216 = stablehlo.pad %1212, %cst_379, low = [0, 1, 0], high = [0, 0, 0], interior = [0, 0, 0] {enzymexla.non_negative = [#enzymexla<guaranteed NOTGUARANTEED>]} : (tensor<4x1519x3056xf64>, tensor<f64>) -> tensor<4x1520x3056xf64>
      %1217 = stablehlo.pad %1213, %cst_379, low = [0, 1, 0], high = [0, 0, 0], interior = [0, 0, 0] : (tensor<4x1518x3056xf64>, tensor<f64>) -> tensor<4x1519x3056xf64>
      %1218 = stablehlo.slice %1212 [0:4, 0:1516, 0:3056] : (tensor<4x1519x3056xf64>) -> tensor<4x1516x3056xf64>
      %1219 = stablehlo.pad %1218, %cst_379, low = [0, 1, 0], high = [0, 0, 0], interior = [0, 0, 0] : (tensor<4x1516x3056xf64>, tensor<f64>) -> tensor<4x1517x3056xf64>
      %1220 = stablehlo.slice %1212 [0:4, 0:1517, 0:3056] : (tensor<4x1519x3056xf64>) -> tensor<4x1517x3056xf64>
      %1221 = stablehlo.pad %1220, %cst_379, low = [0, 1, 0], high = [0, 0, 0], interior = [0, 0, 0] : (tensor<4x1517x3056xf64>, tensor<f64>) -> tensor<4x1518x3056xf64>
      %1222 = stablehlo.concatenate %189, %1217, dim = 1 : (tensor<4x1x3056xf64>, tensor<4x1519x3056xf64>) -> tensor<4x1520x3056xf64>
      %1223 = stablehlo.pad %1212, %cst_379, low = [0, 0, 0], high = [0, 1, 0], interior = [0, 0, 0] {enzymexla.non_negative = [#enzymexla<guaranteed NOTGUARANTEED>]} : (tensor<4x1519x3056xf64>, tensor<f64>) -> tensor<4x1520x3056xf64>
      %1224 = stablehlo.pad %1212, %cst_379, low = [0, 1, 0], high = [0, 1, 0], interior = [0, 0, 0] : (tensor<4x1519x3056xf64>, tensor<f64>) -> tensor<4x1521x3056xf64>
      %1225 = stablehlo.dynamic_update_slice %iterArg_391, %1224, %c_314, %c_314, %c_377 : (tensor<20x1536x3056xf64>, tensor<4x1521x3056xf64>, tensor<i32>, tensor<i32>, tensor<i32>) -> tensor<20x1536x3056xf64>
      %1226 = stablehlo.slice %1225 [8:12, 1:1535, 0:3056] : (tensor<20x1536x3056xf64>) -> tensor<4x1534x3056xf64>
      %1227 = stablehlo.slice %1225 [8:12, 2:1536, 0:3056] : (tensor<20x1536x3056xf64>) -> tensor<4x1534x3056xf64>
      %1228 = stablehlo.slice %1225 [8:12, 10:1530, 0:3056] : (tensor<20x1536x3056xf64>) -> tensor<4x1520x3056xf64>
      %1229 = stablehlo.pad %1215, %cst_379, low = [0, 1, 0], high = [0, 0, 0], interior = [0, 0, 0] : (tensor<1x1519x3056xf64>, tensor<f64>) -> tensor<1x1520x3056xf64>
      %1230 = stablehlo.pad %1214, %cst_379, low = [0, 1, 0], high = [0, 0, 0], interior = [0, 0, 0] : (tensor<1x1519x3056xf64>, tensor<f64>) -> tensor<1x1520x3056xf64>
      %1231 = stablehlo.slice %404 [3:4, 0:1520, 0:3056] : (tensor<4x1520x3056xf64>) -> tensor<1x1520x3056xf64>
      %1232 = stablehlo.slice %408 [3:4, 0:1520, 0:3056] : (tensor<4x1520x3056xf64>) -> tensor<1x1520x3056xf64>
      %1233 = "enzymexla.extend"(%1205) <{dimension = 0 : i64, lhs = 1 : i64, rhs = 0 : i64}> : (tensor<4x1520x3056xf64>) -> tensor<5x1520x3056xf64>
      %1234 = stablehlo.slice %1233 [0:3, 0:1520, 0:3056] : (tensor<5x1520x3056xf64>) -> tensor<3x1520x3056xf64>
      %1235 = stablehlo.dynamic_update_slice %1225, %1229, %c_312, %c_314, %c_377 : (tensor<20x1536x3056xf64>, tensor<1x1520x3056xf64>, tensor<i32>, tensor<i32>, tensor<i32>) -> tensor<20x1536x3056xf64>
      %1236 = stablehlo.slice %1235 [7:11, 8:1528, 0:3056] : (tensor<20x1536x3056xf64>) -> tensor<4x1520x3056xf64>
      %1237 = "enzymexla.extend"(%404) <{dimension = 0 : i64, lhs = 1 : i64, rhs = 0 : i64}> : (tensor<4x1520x3056xf64>) -> tensor<5x1520x3056xf64>
      %1238 = "enzymexla.extend"(%408) <{dimension = 0 : i64, lhs = 1 : i64, rhs = 0 : i64}> : (tensor<4x1520x3056xf64>) -> tensor<5x1520x3056xf64>
      %1239 = "enzymexla.extend"(%1205) <{dimension = 0 : i64, lhs = 1 : i64, rhs = 1 : i64}> : (tensor<4x1520x3056xf64>) -> tensor<6x1520x3056xf64>
      %1240 = stablehlo.dynamic_update_slice %iterArg_390, %1239, %c_312, %c_314, %c_377 : (tensor<20x1536x3056xf64>, tensor<6x1520x3056xf64>, tensor<i32>, tensor<i32>, tensor<i32>) -> tensor<20x1536x3056xf64>
      %1241 = stablehlo.slice %1205 [1:4, 0:1520, 0:3056] : (tensor<4x1520x3056xf64>) -> tensor<3x1520x3056xf64>
      %1242 = "enzymexla.extend"(%1241) <{dimension = 0 : i64, lhs = 0 : i64, rhs = 1 : i64}> : (tensor<3x1520x3056xf64>) -> tensor<4x1520x3056xf64>
      %1243 = stablehlo.dynamic_update_slice %1235, %1230, %c_311, %c_314, %c_377 : (tensor<20x1536x3056xf64>, tensor<1x1520x3056xf64>, tensor<i32>, tensor<i32>, tensor<i32>) -> tensor<20x1536x3056xf64>
      %1244 = stablehlo.slice %1243 [9:13, 8:1528, 0:3056] : (tensor<20x1536x3056xf64>) -> tensor<4x1520x3056xf64>
      %1245 = "enzymexla.extend"(%404) <{dimension = 0 : i64, lhs = 1 : i64, rhs = 1 : i64}> : (tensor<4x1520x3056xf64>) -> tensor<6x1520x3056xf64>
      %1246 = stablehlo.slice %1245 [3:6, 0:1520, 0:3056] : (tensor<6x1520x3056xf64>) -> tensor<3x1520x3056xf64>
      %1247 = stablehlo.concatenate %1246, %258, dim = 0 : (tensor<3x1520x3056xf64>, tensor<1x1520x3056xf64>) -> tensor<4x1520x3056xf64>
      %1248 = stablehlo.slice %404 [1:4, 0:1520, 0:3056] : (tensor<4x1520x3056xf64>) -> tensor<3x1520x3056xf64>
      %1249 = "enzymexla.extend"(%1248) <{dimension = 0 : i64, lhs = 0 : i64, rhs = 1 : i64}> : (tensor<3x1520x3056xf64>) -> tensor<4x1520x3056xf64>
      %1250 = "enzymexla.extend"(%408) <{dimension = 0 : i64, lhs = 1 : i64, rhs = 1 : i64}> : (tensor<4x1520x3056xf64>) -> tensor<6x1520x3056xf64>
…
      %5094 = stablehlo.multiply %4994, %cst_161 : tensor<4x1520x3056xf64>
      %5095 = stablehlo.add %5093, %5094 : tensor<4x1520x3056xf64>
      %5096 = stablehlo.multiply %5095, %5086 : tensor<4x1520x3056xf64>
      %5097 = stablehlo.multiply %5090, %5087 : tensor<4x1520x3056xf64>
      %5098 = stablehlo.add %5097, %5096 : tensor<4x1520x3056xf64>
      %5099 = stablehlo.multiply %5089, %5088 : tensor<4x1520x3056xf64>
      %5100 = stablehlo.add %5099, %5098 : tensor<4x1520x3056xf64>
      %5101 = stablehlo.multiply %5100, %3271 : tensor<4x1520x3056xf64>
      %5102 = stablehlo.subtract %4977, %5101 : tensor<4x1520x3056xf64>
      %5103 = stablehlo.slice %408 [0:4, 2:1519, 0:3056] : (tensor<4x1520x3056xf64>) -> tensor<4x1517x3056xf64>
      %5104 = stablehlo.slice %408 [0:4, 1:1518, 0:3056] : (tensor<4x1520x3056xf64>) -> tensor<4x1517x3056xf64>
      %5105 = stablehlo.select %4346, %5103, %5104 : tensor<4x1517x3056xi1>, tensor<4x1517x3056xf64>
      %5106 = stablehlo.slice %5105 [0:4, 1:1516, 0:3056] : (tensor<4x1517x3056xf64>) -> tensor<4x1515x3056xf64>
      %5107 = stablehlo.slice %408 [0:4, 0:1519, 0:3056] : (tensor<4x1520x3056xf64>) -> tensor<4x1519x3056xf64>
      %5108 = stablehlo.slice %408 [0:4, 1:1520, 0:3056] : (tensor<4x1520x3056xf64>) -> tensor<4x1519x3056xf64>
      %5109 = stablehlo.select %4345, %5107, %5108 : tensor<4x1519x3056xi1>, tensor<4x1519x3056xf64>
      %5110 = stablehlo.slice %5109 [0:4, 2:1517, 0:3056] : (tensor<4x1519x3056xf64>) -> tensor<4x1515x3056xf64>
      %5111 = stablehlo.slice %5109 [0:4, 1:1518, 0:3056] : (tensor<4x1519x3056xf64>) -> tensor<4x1517x3056xf64>
      %5112 = stablehlo.slice %5109 [0:4, 1518:1519, 0:3056] : (tensor<4x1519x3056xf64>) -> tensor<4x1x3056xf64>
      %5113 = stablehlo.slice %5109 [0:4, 0:1, 0:3056] : (tensor<4x1519x3056xf64>) -> tensor<4x1x3056xf64>
      %5114 = stablehlo.slice %408 [0:4, 0:1517, 0:3056] : (tensor<4x1520x3056xf64>) -> tensor<4x1517x3056xf64>
      %5115 = stablehlo.slice %408 [0:4, 3:1520, 0:3056] : (tensor<4x1520x3056xf64>) -> tensor<4x1517x3056xf64>
      %5116 = stablehlo.select %4346, %5114, %5115 : tensor<4x1517x3056xi1>, tensor<4x1517x3056xf64>
      %5117 = stablehlo.slice %5116 [0:4, 1:1516, 0:3056] : (tensor<4x1517x3056xf64>) -> tensor<4x1515x3056xf64>
      %5118 = stablehlo.multiply %5105, %5105 : tensor<4x1517x3056xf64>
      %5119 = stablehlo.slice %5118 [0:4, 1:1516, 0:3056] : (tensor<4x1517x3056xf64>) -> tensor<4x1515x3056xf64>
      %5120 = stablehlo.multiply %5111, %5111 : tensor<4x1517x3056xf64>
      %5121 = stablehlo.slice %5120 [0:4, 1:1516, 0:3056] : (tensor<4x1517x3056xf64>) -> tensor<4x1515x3056xf64>
      %5122 = stablehlo.multiply %5111, %cst_110 : tensor<4x1517x3056xf64>
      %5123 = stablehlo.multiply %5116, %cst_109 : tensor<4x1517x3056xf64>
      %5124 = stablehlo.add %5122, %5123 : tensor<4x1517x3056xf64>
      %5125 = stablehlo.multiply %5111, %cst_28 : tensor<4x1517x3056xf64>
      %5126 = stablehlo.add %5116, %5125 : tensor<4x1517x3056xf64>
      %5127 = stablehlo.multiply %5116, %5126 : tensor<4x1517x3056xf64>
      %5128 = stablehlo.add %5120, %5127 : tensor<4x1517x3056xf64>
      %5129 = stablehlo.add %5128, %cst_37 : tensor<4x1517x3056xf64>
      %5130 = stablehlo.convert %5129 : (tensor<4x1517x3056xf64>) -> tensor<4x1517x3056xf32>
      %5131 = stablehlo.divide %cst_40, %5130 : tensor<4x1517x3056xf32>
      %5132 = stablehlo.convert %5131 : (tensor<4x1517x3056xf32>) -> tensor<4x1517x3056xf64>
      %5133 = stablehlo.multiply %5105, %cst_28 : tensor<4x1517x3056xf64>
      %5134 = stablehlo.add %5111, %5133 : tensor<4x1517x3056xf64>
      %5135 = stablehlo.multiply %5111, %5134 : tensor<4x1517x3056xf64>
      %5136 = stablehlo.add %5118, %5135 : tensor<4x1517x3056xf64>
      %5137 = stablehlo.subtract %5136, %5128 {enzymexla.non_negative = [#enzymexla<guaranteed NOTGUARANTEED>]} : tensor<4x1517x3056xf64>
      %5138 = stablehlo.abs %5137 : tensor<4x1517x3056xf64>
      %5139 = stablehlo.multiply %5138, %5132 : tensor<4x1517x3056xf64>
      %5140 = stablehlo.negate %5129 : tensor<4x1517x3056xf64>
      %5141 = stablehlo.multiply %5139, %5140 : tensor<4x1517x3056xf64>
      %5142 = stablehlo.add %5141, %5138 : tensor<4x1517x3056xf64>
      %5143 = stablehlo.add %5142, %5138 : tensor<4x1517x3056xf64>
      %5144 = stablehlo.multiply %5132, %5143 : tensor<4x1517x3056xf64>
      %5145 = stablehlo.multiply %5144, %5144 : tensor<4x1517x3056xf64>
      %5146 = stablehlo.add %5145, %cst_108 : tensor<4x1517x3056xf64>
      %5147 = stablehlo.multiply %5146, %cst_71 : tensor<4x1517x3056xf64>
      %5148 = stablehlo.add %5136, %cst_37 : tensor<4x1517x3056xf64>
      %5149 = stablehlo.convert %5148 : (tensor<4x1517x3056xf64>) -> tensor<4x1517x3056xf32>
      %5150 = stablehlo.divide %cst_40, %5149 : tensor<4x1517x3056xf32>
      %5151 = stablehlo.convert %5150 : (tensor<4x1517x3056xf32>) -> tensor<4x1517x3056xf64>
      %5152 = stablehlo.multiply %5138, %5151 : tensor<4x1517x3056xf64>
      %5153 = stablehlo.negate %5148 : tensor<4x1517x3056xf64>
      %5154 = stablehlo.multiply %5152, %5153 : tensor<4x1517x3056xf64>
      %5155 = stablehlo.add %5154, %5138 : tensor<4x1517x3056xf64>
      %5156 = stablehlo.add %5155, %5138 : tensor<4x1517x3056xf64>
      %5157 = stablehlo.multiply %5151, %5156 : tensor<4x1517x3056xf64>
      %5158 = stablehlo.multiply %5157, %5157 : tensor<4x1517x3056xf64>
      %5159 = stablehlo.add %5158, %cst_108 : tensor<4x1517x3056xf64>
      %5160 = stablehlo.multiply %5159, %cst_70 : tensor<4x1517x3056xf64>
      %5161 = stablehlo.add %5160, %5147 : tensor<4x1517x3056xf64>
      %5162 = stablehlo.divide %cst_108, %5161 : tensor<4x1517x3056xf64>
      %5163 = stablehlo.multiply %5147, %5162 : tensor<4x1517x3056xf64>
      %5164 = stablehlo.multiply %5124, %5163 : tensor<4x1517x3056xf64>
      %5165 = stablehlo.add %5104, %5103 : tensor<4x1517x3056xf64>
      %5166 = stablehlo.multiply %cst_107, %5165 : tensor<4x1517x3056xf64>
      %5167 = stablehlo.multiply %5160, %5162 : tensor<4x1517x3056xf64>
      %5168 = stablehlo.multiply %5166, %5167 : tensor<4x1517x3056xf64>
      %5169 = stablehlo.add %5164, %5168 : tensor<4x1517x3056xf64>
      %5170 = stablehlo.slice %5169 [0:4, 1516:1517, 0:3056] : (tensor<4x1517x3056xf64>) -> tensor<4x1x3056xf64>
      %5171 = stablehlo.slice %408 [0:4, 0:1515, 0:3056] : (tensor<4x1520x3056xf64>) -> tensor<4x1515x3056xf64>
      %5172 = stablehlo.multiply %5171, %cst_69 : tensor<4x1515x3056xf64>
      %5173 = stablehlo.slice %408 [0:4, 1:1516, 0:3056] : (tensor<4x1520x3056xf64>) -> tensor<4x1515x3056xf64>
      %5174 = stablehlo.multiply %5173, %cst_68 : tensor<4x1515x3056xf64>
      %5175 = stablehlo.add %5172, %5174 : tensor<4x1515x3056xf64>
      %5176 = stablehlo.slice %408 [0:4, 3:1518, 0:3056] : (tensor<4x1520x3056xf64>) -> tensor<4x1515x3056xf64>
      %5177 = stablehlo.multiply %5176, %cst_67 : tensor<4x1515x3056xf64>
      %5178 = stablehlo.select %4347, %5175, %5177 : tensor<4x1515x3056xi1>, tensor<4x1515x3056xf64>
      %5179 = stablehlo.slice %4852 [0:4, 2:1517, 0:3056] : (tensor<4x1520x3056xf64>) -> tensor<4x1515x3056xf64>
      %5180 = stablehlo.slice %408 [0:4, 5:1520, 0:3056] : (tensor<4x1520x3056xf64>) -> tensor<4x1515x3056xf64>
      %5181 = stablehlo.multiply %5180, %cst_69 : tensor<4x1515x3056xf64>
      %5182 = stablehlo.slice %408 [0:4, 4:1519, 0:3056] : (tensor<4x1520x3056xf64>) -> tensor<4x1515x3056xf64>
      %5183 = stablehlo.multiply %5182, %cst_68 : tensor<4x1515x3056xf64>
      %5184 = stablehlo.add %5181, %5183 : tensor<4x1515x3056xf64>
      %5185 = stablehlo.select %4347, %5179, %5184 : tensor<4x1515x3056xi1>, tensor<4x1515x3056xf64>
      %5186 = stablehlo.add %5178, %5185 : tensor<4x1515x3056xf64>
      %5187 = stablehlo.multiply %5121, %cst_27 : tensor<4x1515x3056xf64>
      %5188 = stablehlo.multiply %5117, %cst_23 : tensor<4x1515x3056xf64>
      %5189 = stablehlo.multiply %5110, %cst_22 : tensor<4x1515x3056xf64>
      %5190 = stablehlo.add %5188, %5189 : tensor<4x1515x3056xf64>
      %5191 = stablehlo.multiply %5117, %5190 : tensor<4x1515x3056xf64>
      %5192 = stablehlo.select %4347, %5171, %5180 : tensor<4x1515x3056xi1>, tensor<4x1515x3056xf64>
      %5193 = stablehlo.multiply %5110, %cst_17 : tensor<4x1515x3056xf64>
      %5194 = stablehlo.multiply %5192, %cst_26 : tensor<4x1515x3056xf64>
      %5195 = stablehlo.multiply %5117, %cst_16 : tensor<4x1515x3056xf64>
      %5196 = stablehlo.add %5194, %5195 : tensor<4x1515x3056xf64>
      %5197 = stablehlo.add %5193, %5196 : tensor<4x1515x3056xf64>
      %5198 = stablehlo.multiply %5192, %5197 : tensor<4x1515x3056xf64>
      %5199 = stablehlo.add %5191, %5198 : tensor<4x1515x3056xf64>
      %5200 = stablehlo.add %5187, %5199 : tensor<4x1515x3056xf64>
      %5201 = stablehlo.add %5200, %cst_31 : tensor<4x1515x3056xf64>
      %5202 = stablehlo.convert %5201 : (tensor<4x1515x3056xf64>) -> tensor<4x1515x3056xf32>
      %5203 = stablehlo.divide %cst_36, %5202 : tensor<4x1515x3056xf32>
      %5204 = stablehlo.convert %5203 : (tensor<4x1515x3056xf32>) -> tensor<4x1515x3056xf64>
      %5205 = stablehlo.select %4347, %5182, %5173 : tensor<4x1515x3056xi1>, tensor<4x1515x3056xf64>
      %5206 = stablehlo.multiply %5205, %5205 : tensor<4x1515x3056xf64>
      %5207 = stablehlo.multiply %5206, %cst_26 : tensor<4x1515x3056xf64>
      %5208 = stablehlo.multiply %5106, %cst_23 : tensor<4x1515x3056xf64>
      %5209 = stablehlo.multiply %5205, %cst_16 : tensor<4x1515x3056xf64>
      %5210 = stablehlo.add %5208, %5209 : tensor<4x1515x3056xf64>
      %5211 = stablehlo.multiply %5106, %5210 : tensor<4x1515x3056xf64>
      %5212 = stablehlo.multiply %5205, %cst_17 : tensor<4x1515x3056xf64>
      %5213 = stablehlo.multiply %5110, %cst_27 : tensor<4x1515x3056xf64>
      %5214 = stablehlo.multiply %5106, %cst_22 : tensor<4x1515x3056xf64>
      %5215 = stablehlo.add %5213, %5214 : tensor<4x1515x3056xf64>
      %5216 = stablehlo.add %5212, %5215 : tensor<4x1515x3056xf64>
      %5217 = stablehlo.multiply %5110, %5216 : tensor<4x1515x3056xf64>
      %5218 = stablehlo.add %5211, %5217 : tensor<4x1515x3056xf64>
      %5219 = stablehlo.add %5207, %5218 : tensor<4x1515x3056xf64>
      %5220 = stablehlo.subtract %5219, %5200 {enzymexla.non_negative = [#enzymexla<guaranteed NOTGUARANTEED>]} : tensor<4x1515x3056xf64>
      %5221 = stablehlo.abs %5220 : tensor<4x1515x3056xf64>
      %5222 = stablehlo.multiply %5221, %5204 : tensor<4x1515x3056xf64>
      %5223 = stablehlo.negate %5201 : tensor<4x1515x3056xf64>
      %5224 = stablehlo.multiply %5222, %5223 : tensor<4x1515x3056xf64>
      %5225 = stablehlo.add %5224, %5221 : tensor<4x1515x3056xf64>
      %5226 = stablehlo.add %5225, %5221 : tensor<4x1515x3056xf64>
      %5227 = stablehlo.multiply %5204, %5226 : tensor<4x1515x3056xf64>
      %5228 = stablehlo.multiply %5227, %5227 : tensor<4x1515x3056xf64>
      %5229 = stablehlo.add %5228, %cst_65 : tensor<4x1515x3056xf64>
      %5230 = stablehlo.multiply %5229, %cst_66 : tensor<4x1515x3056xf64>
      %5231 = stablehlo.add %5219, %cst_31 : tensor<4x1515x3056xf64>
      %5232 = stablehlo.convert %5231 : (tensor<4x1515x3056xf64>) -> tensor<4x1515x3056xf32>
      %5233 = stablehlo.divide %cst_36, %5232 : tensor<4x1515x3056xf32>
      %5234 = stablehlo.convert %5233 : (tensor<4x1515x3056xf32>) -> tensor<4x1515x3056xf64>
      %5235 = stablehlo.multiply %5221, %5234 : tensor<4x1515x3056xf64>
      %5236 = stablehlo.negate %5231 : tensor<4x1515x3056xf64>
      %5237 = stablehlo.multiply %5235, %5236 : tensor<4x1515x3056xf64>
      %5238 = stablehlo.add %5237, %5221 : tensor<4x1515x3056xf64>
      %5239 = stablehlo.add %5238, %5221 : tensor<4x1515x3056xf64>
      %5240 = stablehlo.multiply %5234, %5239 : tensor<4x1515x3056xf64>
      %5241 = stablehlo.multiply %5240, %5240 : tensor<4x1515x3056xf64>
      %5242 = stablehlo.add %5241, %cst_65 : tensor<4x1515x3056xf64>
      %5243 = stablehlo.multiply %5242, %cst_48 : tensor<4x1515x3056xf64>
      %5244 = stablehlo.multiply %5119, %cst_26 : tensor<4x1515x3056xf64>
      %5245 = stablehlo.subtract %5110, %5106 : tensor<4x1515x3056xf64>
      %5246 = stablehlo.multiply %cst_21, %5245 : tensor<4x1515x3056xf64>
      %5247 = stablehlo.multiply %5110, %5246 : tensor<4x1515x3056xf64>
      %5248 = stablehlo.multiply %5106, %cst_13 : tensor<4x1515x3056xf64>
      %5249 = stablehlo.multiply %5117, %cst_26 : tensor<4x1515x3056xf64>
      %5250 = stablehlo.multiply %5110, %cst_7 : tensor<4x1515x3056xf64>
      %5251 = stablehlo.add %5249, %5250 : tensor<4x1515x3056xf64>
      %5252 = stablehlo.add %5248, %5251 : tensor<4x1515x3056xf64>
      %5253 = stablehlo.multiply %5117, %5252 : tensor<4x1515x3056xf64>
      %5254 = stablehlo.add %5247, %5253 : tensor<4x1515x3056xf64>
      %5255 = stablehlo.add %5244, %5254 : tensor<4x1515x3056xf64>
      %5256 = stablehlo.add %5255, %cst_31 : tensor<4x1515x3056xf64>
      %5257 = stablehlo.convert %5256 : (tensor<4x1515x3056xf64>) -> tensor<4x1515x3056xf32>
      %5258 = stablehlo.divide %cst_36, %5257 : tensor<4x1515x3056xf32>
      %5259 = stablehlo.convert %5258 : (tensor<4x1515x3056xf32>) -> tensor<4x1515x3056xf64>
      %5260 = stablehlo.multiply %5221, %5259 : tensor<4x1515x3056xf64>
      %5261 = stablehlo.negate %5256 : tensor<4x1515x3056xf64>
      %5262 = stablehlo.multiply %5260, %5261 : tensor<4x1515x3056xf64>
      %5263 = stablehlo.add %5262, %5221 : tensor<4x1515x3056xf64>
      %5264 = stablehlo.add %5263, %5221 : tensor<4x1515x3056xf64>
      %5265 = stablehlo.multiply %5259, %5264 : tensor<4x1515x3056xf64>
      %5266 = stablehlo.multiply %5265, %5265 : tensor<4x1515x3056xf64>
      %5267 = stablehlo.add %5266, %cst_65 : tensor<4x1515x3056xf64>
      %5268 = stablehlo.multiply %5267, %cst_47 : tensor<4x1515x3056xf64>
      %5269 = stablehlo.add %5243, %5268 : tensor<4x1515x3056xf64>
      %5270 = stablehlo.add %5269, %5230 : tensor<4x1515x3056xf64>
      %5271 = stablehlo.divide %cst_65, %5270 : tensor<4x1515x3056xf64>
      %5272 = stablehlo.multiply %5230, %5271 : tensor<4x1515x3056xf64>
      %5273 = stablehlo.multiply %5186, %5272 : tensor<4x1515x3056xf64>
      %5274 = stablehlo.slice %4855 [0:4, 2:1517, 0:3056] : (tensor<4x1520x3056xf64>) -> tensor<4x1515x3056xf64>
      %5275 = stablehlo.multiply %5173, %cst_63 : tensor<4x1515x3056xf64>
      %5276 = stablehlo.add %5274, %5275 : tensor<4x1515x3056xf64>
      %5277 = stablehlo.slice %4865 [0:4, 2:1517, 0:3056] : (tensor<4x1520x3056xf64>) -> tensor<4x1515x3056xf64>
      %5278 = stablehlo.select %4347, %5276, %5277 : tensor<4x1515x3056xi1>, tensor<4x1515x3056xf64>
      %5279 = stablehlo.multiply %5176, %cst_62 : tensor<4x1515x3056xf64>
      %5280 = stablehlo.multiply %5176, %cst_64 : tensor<4x1515x3056xf64>
      %5281 = stablehlo.multiply %5182, %cst_63 : tensor<4x1515x3056xf64>
      %5282 = stablehlo.add %5280, %5281 : tensor<4x1515x3056xf64>
      %5283 = stablehlo.select %4347, %5279, %5282 : tensor<4x1515x3056xi1>, tensor<4x1515x3056xf64>
      %5284 = stablehlo.add %5278, %5283 : tensor<4x1515x3056xf64>
      %5285 = stablehlo.multiply %5268, %5271 : tensor<4x1515x3056xf64>
      %5286 = stablehlo.multiply %5284, %5285 : tensor<4x1515x3056xf64>
      %5287 = stablehlo.slice %408 [0:4, 2:1517, 0:3056] : (tensor<4x1520x3056xf64>) -> tensor<4x1515x3056xf64>
      %5288 = stablehlo.multiply %5287, %4533 : tensor<4x1515x3056xf64>
      %5289 = stablehlo.multiply %5176, %4535 : tensor<4x1515x3056xf64>
      %5290 = stablehlo.add %5288, %5289 : tensor<4x1515x3056xf64>
      %5291 = stablehlo.multiply %5205, %cst_59 : tensor<4x1515x3056xf64>
      %5292 = stablehlo.add %5290, %5291 : tensor<4x1515x3056xf64>
      %5293 = stablehlo.multiply %5243, %5271 : tensor<4x1515x3056xf64>
      %5294 = stablehlo.multiply %5292, %5293 : tensor<4x1515x3056xf64>
      %5295 = stablehlo.add %5286, %5294 : tensor<4x1515x3056xf64>
      %5296 = stablehlo.add %5273, %5295 : tensor<4x1515x3056xf64>
      %5297 = stablehlo.slice %5169 [0:4, 0:1, 0:3056] : (tensor<4x1517x3056xf64>) -> tensor<4x1x3056xf64>
      %5298 = stablehlo.concatenate %5113, %5297, %5296, %5170, %5112, dim = 1 : (tensor<4x1x3056xf64>, tensor<4x1x3056xf64>, tensor<4x1515x3056xf64>, tensor<4x1x3056xf64>, tensor<4x1x3056xf64>) -> tensor<4x1519x3056xf64>
      %5299 = stablehlo.multiply %5298, %2285 : tensor<4x1519x3056xf64>
      %5300 = stablehlo.pad %5299, %cst_379, low = [0, 0, 0], high = [0, 1, 0], interior = [0, 0, 0] : (tensor<4x1519x3056xf64>, tensor<f64>) -> tensor<4x1520x3056xf64>
      %5301 = stablehlo.select %3302, %5182, %5173 : tensor<4x1515x3056xi1>, tensor<4x1515x3056xf64>
      %5302 = stablehlo.select %3298, %5103, %5104 : tensor<4x1517x3056xi1>, tensor<4x1517x3056xf64>
      %5303 = stablehlo.slice %5302 [0:4, 1:1516, 0:3056] : (tensor<4x1517x3056xf64>) -> tensor<4x1515x3056xf64>
      %5304 = stablehlo.select %3297, %5107, %5108 : tensor<4x1519x3056xi1>, tensor<4x1519x3056xf64>
      %5305 = stablehlo.slice %5304 [0:4, 1:1518, 0:3056] : (tensor<4x1519x3056xf64>) -> tensor<4x1517x3056xf64>
      %5306 = stablehlo.slice %5304 [0:4, 1518:1519, 0:3056] : (tensor<4x1519x3056xf64>) -> tensor<4x1x3056xf64>
      %5307 = stablehlo.slice %5304 [0:4, 0:1, 0:3056] : (tensor<4x1519x3056xf64>) -> tensor<4x1x3056xf64>
      %5308 = stablehlo.select %3298, %5114, %5115 : tensor<4x1517x3056xi1>, tensor<4x1517x3056xf64>
      %5309 = stablehlo.slice %5308 [0:4, 1:1516, 0:3056] : (tensor<4x1517x3056xf64>) -> tensor<4x1515x3056xf64>
      %5310 = stablehlo.multiply %5302, %5302 : tensor<4x1517x3056xf64>
      %5311 = stablehlo.slice %5310 [0:4, 1:1516, 0:3056] : (tensor<4x1517x3056xf64>) -> tensor<4x1515x3056xf64>
      %5312 = stablehlo.multiply %5302, %cst_28 : tensor<4x1517x3056xf64>
      %5313 = stablehlo.add %5305, %5312 : tensor<4x1517x3056xf64>
      %5314 = stablehlo.multiply %5305, %5313 : tensor<4x1517x3056xf64>
      %5315 = stablehlo.add %5310, %5314 : tensor<4x1517x3056xf64>
      %5316 = stablehlo.add %5315, %cst_37 : tensor<4x1517x3056xf64>
      %5317 = stablehlo.convert %5316 : (tensor<4x1517x3056xf64>) -> tensor<4x1517x3056xf32>
      %5318 = stablehlo.divide %cst_40, %5317 : tensor<4x1517x3056xf32>
      %5319 = stablehlo.convert %5318 : (tensor<4x1517x3056xf32>) -> tensor<4x1517x3056xf64>
      %5320 = stablehlo.multiply %5305, %5305 : tensor<4x1517x3056xf64>
      %5321 = stablehlo.slice %5320 [0:4, 1:1516, 0:3056] : (tensor<4x1517x3056xf64>) -> tensor<4x1515x3056xf64>
      %5322 = stablehlo.multiply %5305, %cst_28 : tensor<4x1517x3056xf64>
      %5323 = stablehlo.add %5308, %5322 : tensor<4x1517x3056xf64>
      %5324 = stablehlo.multiply %5308, %5323 : tensor<4x1517x3056xf64>
      %5325 = stablehlo.add %5320, %5324 : tensor<4x1517x3056xf64>
      %5326 = stablehlo.add %5325, %cst_37 : tensor<4x1517x3056xf64>
      %5327 = stablehlo.convert %5326 : (tensor<4x1517x3056xf64>) -> tensor<4x1517x3056xf32>
      %5328 = stablehlo.divide %cst_40, %5327 : tensor<4x1517x3056xf32>
      %5329 = stablehlo.convert %5328 : (tensor<4x1517x3056xf32>) -> tensor<4x1517x3056xf64>
      %5330 = stablehlo.multiply %5305, %cst_110 : tensor<4x1517x3056xf64>
      %5331 = stablehlo.multiply %5308, %cst_109 : tensor<4x1517x3056xf64>
      %5332 = stablehlo.add %5330, %5331 : tensor<4x1517x3056xf64>
      %5333 = stablehlo.subtract %5315, %5325 {enzymexla.non_negative = [#enzymexla<guaranteed NOTGUARANTEED>]} : tensor<4x1517x3056xf64>
      %5334 = stablehlo.abs %5333 : tensor<4x1517x3056xf64>
      %5335 = stablehlo.multiply %5334, %5329 : tensor<4x1517x3056xf64>
      %5336 = stablehlo.negate %5326 : tensor<4x1517x3056xf64>
      %5337 = stablehlo.multiply %5335, %5336 : tensor<4x1517x3056xf64>
      %5338 = stablehlo.add %5337, %5334 : tensor<4x1517x3056xf64>
      %5339 = stablehlo.add %5338, %5334 : tensor<4x1517x3056xf64>
      %5340 = stablehlo.multiply %5329, %5339 : tensor<4x1517x3056xf64>
      %5341 = stablehlo.multiply %5340, %5340 : tensor<4x1517x3056xf64>
      %5342 = stablehlo.add %5341, %cst_108 : tensor<4x1517x3056xf64>
      %5343 = stablehlo.multiply %5342, %cst_71 : tensor<4x1517x3056xf64>
      %5344 = stablehlo.multiply %5334, %5319 : tensor<4x1517x3056xf64>
      %5345 = stablehlo.negate %5316 : tensor<4x1517x3056xf64>
      %5346 = stablehlo.multiply %5344, %5345 : tensor<4x1517x3056xf64>
      %5347 = stablehlo.add %5346, %5334 : tensor<4x1517x3056xf64>
      %5348 = stablehlo.add %5347, %5334 : tensor<4x1517x3056xf64>
      %5349 = stablehlo.multiply %5319, %5348 : tensor<4x1517x3056xf64>
      %5350 = stablehlo.multiply %5349, %5349 : tensor<4x1517x3056xf64>
      %5351 = stablehlo.add %5350, %cst_108 : tensor<4x1517x3056xf64>
      %5352 = stablehlo.multiply %5351, %cst_70 : tensor<4x1517x3056xf64>
      %5353 = stablehlo.add %5352, %5343 : tensor<4x1517x3056xf64>
      %5354 = stablehlo.divide %cst_108, %5353 : tensor<4x1517x3056xf64>
      %5355 = stablehlo.multiply %5343, %5354 : tensor<4x1517x3056xf64>
      %5356 = stablehlo.multiply %5332, %5355 : tensor<4x1517x3056xf64>
      %5357 = stablehlo.multiply %5352, %5354 : tensor<4x1517x3056xf64>
      %5358 = stablehlo.multiply %5166, %5357 : tensor<4x1517x3056xf64>
      %5359 = stablehlo.add %5356, %5358 : tensor<4x1517x3056xf64>
      %5360 = stablehlo.slice %5359 [0:4, 1516:1517, 0:3056] : (tensor<4x1517x3056xf64>) -> tensor<4x1x3056xf64>
      %5361 = stablehlo.slice %4852 [0:4, 3:1518, 0:3056] : (tensor<4x1520x3056xf64>) -> tensor<4x1515x3056xf64>
      %5362 = stablehlo.select %3302, %5175, %5361 : tensor<4x1515x3056xi1>, tensor<4x1515x3056xf64>
      %5363 = stablehlo.multiply %5287, %cst_67 : tensor<4x1515x3056xf64>
      %5364 = stablehlo.select %3302, %5363, %5184 : tensor<4x1515x3056xi1>, tensor<4x1515x3056xf64>
      %5365 = stablehlo.add %5362, %5364 : tensor<4x1515x3056xf64>
      %5366 = stablehlo.multiply %5321, %cst_27 : tensor<4x1515x3056xf64>
      %5367 = stablehlo.multiply %5309, %cst_23 : tensor<4x1515x3056xf64>
      %5368 = stablehlo.slice %5304 [0:4, 2:1517, 0:3056] : (tensor<4x1519x3056xf64>) -> tensor<4x1515x3056xf64>
      %5369 = stablehlo.multiply %5368, %cst_22 : tensor<4x1515x3056xf64>
      %5370 = stablehlo.add %5367, %5369 : tensor<4x1515x3056xf64>
      %5371 = stablehlo.multiply %5309, %5370 : tensor<4x1515x3056xf64>
      %5372 = stablehlo.select %3302, %5171, %5180 : tensor<4x1515x3056xi1>, tensor<4x1515x3056xf64>
      %5373 = stablehlo.multiply %5368, %cst_17 : tensor<4x1515x3056xf64>
      %5374 = stablehlo.multiply %5372, %cst_26 : tensor<4x1515x3056xf64>
      %5375 = stablehlo.multiply %5309, %cst_16 : tensor<4x1515x3056xf64>
      %5376 = stablehlo.add %5374, %5375 : tensor<4x1515x3056xf64>
      %5377 = stablehlo.add %5373, %5376 : tensor<4x1515x3056xf64>
      %5378 = stablehlo.multiply %5372, %5377 : tensor<4x1515x3056xf64>
      %5379 = stablehlo.add %5371, %5378 : tensor<4x1515x3056xf64>
      %5380 = stablehlo.add %5366, %5379 : tensor<4x1515x3056xf64>
      %5381 = stablehlo.add %5380, %cst_31 : tensor<4x1515x3056xf64>
      %5382 = stablehlo.convert %5381 : (tensor<4x1515x3056xf64>) -> tensor<4x1515x3056xf32>
      %5383 = stablehlo.divide %cst_36, %5382 : tensor<4x1515x3056xf32>
      %5384 = stablehlo.convert %5383 : (tensor<4x1515x3056xf32>) -> tensor<4x1515x3056xf64>
      %5385 = stablehlo.multiply %5301, %5301 : tensor<4x1515x3056xf64>
      %5386 = stablehlo.multiply %5385, %cst_26 : tensor<4x1515x3056xf64>
      %5387 = stablehlo.multiply %5303, %cst_23 : tensor<4x1515x3056xf64>
      %5388 = stablehlo.multiply %5301, %cst_16 : tensor<4x1515x3056xf64>
      %5389 = stablehlo.add %5387, %5388 : tensor<4x1515x3056xf64>
      %5390 = stablehlo.multiply %5303, %5389 : tensor<4x1515x3056xf64>
      %5391 = stablehlo.multiply %5301, %cst_17 : tensor<4x1515x3056xf64>
      %5392 = stablehlo.multiply %5368, %cst_27 : tensor<4x1515x3056xf64>
      %5393 = stablehlo.multiply %5303, %cst_22 : tensor<4x1515x3056xf64>
      %5394 = stablehlo.add %5392, %5393 : tensor<4x1515x3056xf64>
      %5395 = stablehlo.add %5391, %5394 : tensor<4x1515x3056xf64>
      %5396 = stablehlo.multiply %5368, %5395 : tensor<4x1515x3056xf64>
      %5397 = stablehlo.add %5390, %5396 : tensor<4x1515x3056xf64>
      %5398 = stablehlo.add %5386, %5397 : tensor<4x1515x3056xf64>
      %5399 = stablehlo.subtract %5398, %5380 {enzymexla.non_negative = [#enzymexla<guaranteed NOTGUARANTEED>]} : tensor<4x1515x3056xf64>
      %5400 = stablehlo.abs %5399 : tensor<4x1515x3056xf64>
      %5401 = stablehlo.multiply %5400, %5384 : tensor<4x1515x3056xf64>
      %5402 = stablehlo.negate %5381 : tensor<4x1515x3056xf64>
      %5403 = stablehlo.multiply %5401, %5402 : tensor<4x1515x3056xf64>
      %5404 = stablehlo.add %5403, %5400 : tensor<4x1515x3056xf64>
      %5405 = stablehlo.add %5404, %5400 : tensor<4x1515x3056xf64>
      %5406 = stablehlo.multiply %5384, %5405 : tensor<4x1515x3056xf64>
      %5407 = stablehlo.multiply %5406, %5406 : tensor<4x1515x3056xf64>
      %5408 = stablehlo.add %5407, %cst_65 : tensor<4x1515x3056xf64>
      %5409 = stablehlo.multiply %5408, %cst_66 : tensor<4x1515x3056xf64>
      %5410 = stablehlo.add %5398, %cst_31 : tensor<4x1515x3056xf64>
      %5411 = stablehlo.convert %5410 : (tensor<4x1515x3056xf64>) -> tensor<4x1515x3056xf32>
      %5412 = stablehlo.divide %cst_36, %5411 : tensor<4x1515x3056xf32>
      %5413 = stablehlo.convert %5412 : (tensor<4x1515x3056xf32>) -> tensor<4x1515x3056xf64>
      %5414 = stablehlo.multiply %5400, %5413 : tensor<4x1515x3056xf64>
      %5415 = stablehlo.negate %5410 : tensor<4x1515x3056xf64>
      %5416 = stablehlo.multiply %5414, %5415 : tensor<4x1515x3056xf64>
      %5417 = stablehlo.add %5416, %5400 : tensor<4x1515x3056xf64>
      %5418 = stablehlo.add %5417, %5400 : tensor<4x1515x3056xf64>
      %5419 = stablehlo.multiply %5413, %5418 : tensor<4x1515x3056xf64>
      %5420 = stablehlo.multiply %5419, %5419 : tensor<4x1515x3056xf64>
      %5421 = stablehlo.add %5420, %cst_65 : tensor<4x1515x3056xf64>
      %5422 = stablehlo.multiply %5421, %cst_48 : tensor<4x1515x3056xf64>
      %5423 = stablehlo.multiply %5311, %cst_26 : tensor<4x1515x3056xf64>
      %5424 = stablehlo.subtract %5368, %5303 : tensor<4x1515x3056xf64>
      %5425 = stablehlo.multiply %cst_21, %5424 : tensor<4x1515x3056xf64>
      %5426 = stablehlo.multiply %5368, %5425 : tensor<4x1515x3056xf64>
      %5427 = stablehlo.multiply %5303, %cst_13 : tensor<4x1515x3056xf64>
      %5428 = stablehlo.multiply %5309, %cst_26 : tensor<4x1515x3056xf64>
      %5429 = stablehlo.multiply %5368, %cst_7 : tensor<4x1515x3056xf64>
      %5430 = stablehlo.add %5428, %5429 : tensor<4x1515x3056xf64>
      %5431 = stablehlo.add %5427, %5430 : tensor<4x1515x3056xf64>
      %5432 = stablehlo.multiply %5309, %5431 : tensor<4x1515x3056xf64>
      %5433 = stablehlo.add %5426, %5432 : tensor<4x1515x3056xf64>
      %5434 = stablehlo.add %5423, %5433 : tensor<4x1515x3056xf64>
      %5435 = stablehlo.add %5434, %cst_31 : tensor<4x1515x3056xf64>
      %5436 = stablehlo.convert %5435 : (tensor<4x1515x3056xf64>) -> tensor<4x1515x3056xf32>
      %5437 = stablehlo.divide %cst_36, %5436 : tensor<4x1515x3056xf32>
      %5438 = stablehlo.convert %5437 : (tensor<4x1515x3056xf32>) -> tensor<4x1515x3056xf64>
      %5439 = stablehlo.multiply %5400, %5438 : tensor<4x1515x3056xf64>
      %5440 = stablehlo.negate %5435 : tensor<4x1515x3056xf64>
      %5441 = stablehlo.multiply %5439, %5440 : tensor<4x1515x3056xf64>
      %5442 = stablehlo.add %5441, %5400 : tensor<4x1515x3056xf64>
      %5443 = stablehlo.add %5442, %5400 : tensor<4x1515x3056xf64>
      %5444 = stablehlo.multiply %5438, %5443 : tensor<4x1515x3056xf64>
      %5445 = stablehlo.multiply %5444, %5444 : tensor<4x1515x3056xf64>
      %5446 = stablehlo.add %5445, %cst_65 : tensor<4x1515x3056xf64>
      %5447 = stablehlo.multiply %5446, %cst_47 : tensor<4x1515x3056xf64>
      %5448 = stablehlo.add %5422, %5447 : tensor<4x1515x3056xf64>
      %5449 = stablehlo.add %5448, %5409 : tensor<4x1515x3056xf64>
      %5450 = stablehlo.divide %cst_65, %5449 : tensor<4x1515x3056xf64>
      %5451 = stablehlo.multiply %5409, %5450 : tensor<4x1515x3056xf64>
      %5452 = stablehlo.multiply %5365, %5451 : tensor<4x1515x3056xf64>
      %5453 = stablehlo.multiply %5287, %cst_64 : tensor<4x1515x3056xf64>
      %5454 = stablehlo.add %5453, %5275 : tensor<4x1515x3056xf64>
      %5455 = stablehlo.multiply %5287, %cst_62 : tensor<4x1515x3056xf64>
      %5456 = stablehlo.select %3302, %5454, %5455 : tensor<4x1515x3056xi1>, tensor<4x1515x3056xf64>
      %5457 = stablehlo.slice %4865 [0:4, 3:1518, 0:3056] : (tensor<4x1520x3056xf64>) -> tensor<4x1515x3056xf64>
      %5458 = stablehlo.slice %4855 [0:4, 3:1518, 0:3056] : (tensor<4x1520x3056xf64>) -> tensor<4x1515x3056xf64>
      %5459 = stablehlo.add %5458, %5281 : tensor<4x1515x3056xf64>
      %5460 = stablehlo.select %3302, %5457, %5459 : tensor<4x1515x3056xi1>, tensor<4x1515x3056xf64>
      %5461 = stablehlo.add %5456, %5460 : tensor<4x1515x3056xf64>
      %5462 = stablehlo.multiply %5447, %5450 : tensor<4x1515x3056xf64>
      %5463 = stablehlo.multiply %5461, %5462 : tensor<4x1515x3056xf64>
      %5464 = stablehlo.multiply %5287, %3615 : tensor<4x1515x3056xf64>
      %5465 = stablehlo.multiply %5176, %3617 : tensor<4x1515x3056xf64>
      %5466 = stablehlo.add %5464, %5465 : tensor<4x1515x3056xf64>
      %5467 = stablehlo.multiply %5301, %cst_59 : tensor<4x1515x3056xf64>
      %5468 = stablehlo.add %5466, %5467 : tensor<4x1515x3056xf64>
      %5469 = stablehlo.multiply %5422, %5450 : tensor<4x1515x3056xf64>
      %5470 = stablehlo.multiply %5468, %5469 : tensor<4x1515x3056xf64>
      %5471 = stablehlo.add %5463, %5470 : tensor<4x1515x3056xf64>
      %5472 = stablehlo.add %5452, %5471 : tensor<4x1515x3056xf64>
      %5473 = stablehlo.slice %5359 [0:4, 0:1, 0:3056] : (tensor<4x1517x3056xf64>) -> tensor<4x1x3056xf64>
      %5474 = stablehlo.concatenate %5307, %5473, %5472, %5360, %5306, dim = 1 : (tensor<4x1x3056xf64>, tensor<4x1x3056xf64>, tensor<4x1515x3056xf64>, tensor<4x1x3056xf64>, tensor<4x1x3056xf64>) -> tensor<4x1519x3056xf64>
      %5475 = stablehlo.multiply %5474, %2287 : tensor<4x1519x3056xf64>
      %5476 = stablehlo.pad %5475, %cst_379, low = [0, 1, 0], high = [0, 0, 0], interior = [0, 0, 0] : (tensor<4x1519x3056xf64>, tensor<f64>) -> tensor<4x1520x3056xf64>
      %5477 = stablehlo.subtract %5300, %5476 : tensor<4x1520x3056xf64>
      %5478 = "enzymexla.extend"(%1272) <{dimension = 0 : i64, lhs = 1 : i64, rhs = 0 : i64}> : (tensor<3x1520x3056xf64>) -> tensor<4x1520x3056xf64>
      %5479 = stablehlo.select %4725, %1254, %408 : tensor<4x1520x3056xi1>, tensor<4x1520x3056xf64>
      %5480 = stablehlo.select %4725, %408, %1254 : tensor<4x1520x3056xi1>, tensor<4x1520x3056xf64>
      %5481 = stablehlo.select %4725, %5478, %1252 : tensor<4x1520x3056xi1>, tensor<4x1520x3056xf64>
      %5482 = stablehlo.multiply %5479, %5479 : tensor<4x1520x3056xf64>
      %5483 = stablehlo.multiply %5479, %cst_142 : tensor<4x1520x3056xf64>
      %5484 = stablehlo.add %5480, %5483 : tensor<4x1520x3056xf64>
      %5485 = stablehlo.multiply %5480, %5484 : tensor<4x1520x3056xf64>
      %5486 = stablehlo.add %5482, %5485 : tensor<4x1520x3056xf64>
      %5487 = stablehlo.multiply %5480, %5480 : tensor<4x1520x3056xf64>
      %5488 = stablehlo.multiply %5480, %cst_142 : tensor<4x1520x3056xf64>
      %5489 = stablehlo.add %5481, %5488 : tensor<4x1520x3056xf64>
      %5490 = stablehlo.multiply %5481, %5489 : tensor<4x1520x3056xf64>
      %5491 = stablehlo.add %5487, %5490 : tensor<4x1520x3056xf64>
      %5492 = stablehlo.subtract %5486, %5491 {enzymexla.non_negative = [#enzymexla<guaranteed NOTGUARANTEED>]} : tensor<4x1520x3056xf64>
      %5493 = stablehlo.abs %5492 : tensor<4x1520x3056xf64>
      %5494 = stablehlo.add %5486, %cst_166 : tensor<4x1520x3056xf64>
      %5495 = stablehlo.convert %5494 : (tensor<4x1520x3056xf64>) -> tensor<4x1520x3056xf32>
      %5496 = stablehlo.divide %cst_165, %5495 : tensor<4x1520x3056xf32>
      %5497 = stablehlo.convert %5496 : (tensor<4x1520x3056xf32>) -> tensor<4x1520x3056xf64>
      %5498 = stablehlo.multiply %5493, %5497 : tensor<4x1520x3056xf64>
      %5499 = stablehlo.negate %5494 : tensor<4x1520x3056xf64>
      %5500 = stablehlo.multiply %5498, %5499 : tensor<4x1520x3056xf64>
      %5501 = stablehlo.add %5500, %5493 : tensor<4x1520x3056xf64>
      %5502 = stablehlo.add %5501, %5493 : tensor<4x1520x3056xf64>
      %5503 = stablehlo.multiply %5497, %5502 : tensor<4x1520x3056xf64>
      %5504 = stablehlo.multiply %5503, %5503 : tensor<4x1520x3056xf64>
      %5505 = stablehlo.add %5504, %cst_171 : tensor<4x1520x3056xf64>
      %5506 = stablehlo.multiply %5505, %cst_160 : tensor<4x1520x3056xf64>
      %5507 = stablehlo.add %5491, %cst_166 : tensor<4x1520x3056xf64>
      %5508 = stablehlo.convert %5507 : (tensor<4x1520x3056xf64>) -> tensor<4x1520x3056xf32>
      %5509 = stablehlo.divide %cst_165, %5508 : tensor<4x1520x3056xf32>
      %5510 = stablehlo.convert %5509 : (tensor<4x1520x3056xf32>) -> tensor<4x1520x3056xf64>
      %5511 = stablehlo.multiply %5493, %5510 : tensor<4x1520x3056xf64>
      %5512 = stablehlo.negate %5507 : tensor<4x1520x3056xf64>
      %5513 = stablehlo.multiply %5511, %5512 : tensor<4x1520x3056xf64>
      %5514 = stablehlo.add %5513, %5493 : tensor<4x1520x3056xf64>
      %5515 = stablehlo.add %5514, %5493 : tensor<4x1520x3056xf64>
      %5516 = stablehlo.multiply %5510, %5515 : tensor<4x1520x3056xf64>
      %5517 = stablehlo.multiply %5516, %5516 : tensor<4x1520x3056xf64>
      %5518 = stablehlo.add %5517, %cst_171 : tensor<4x1520x3056xf64>
      %5519 = stablehlo.multiply %5518, %cst_159 : tensor<4x1520x3056xf64>
      %5520 = stablehlo.add %5506, %5519 : tensor<4x1520x3056xf64>
      %5521 = stablehlo.divide %cst_171, %5520 : tensor<4x1520x3056xf64>
      %5522 = stablehlo.multiply %5506, %5521 : tensor<4x1520x3056xf64>
      %5523 = stablehlo.multiply %5519, %5521 : tensor<4x1520x3056xf64>
      %5524 = stablehlo.multiply %5480, %cst_158 : tensor<4x1520x3056xf64>
      %5525 = stablehlo.multiply %5481, %cst_167 : tensor<4x1520x3056xf64>
      %5526 = stablehlo.add %5524, %5525 : tensor<4x1520x3056xf64>
      %5527 = stablehlo.add %408, %1254 : tensor<4x1520x3056xf64>
      %5528 = stablehlo.multiply %cst_192, %5527 : tensor<4x1520x3056xf64>
      %5529 = stablehlo.multiply %5528, %5522 : tensor<4x1520x3056xf64>
      %5530 = stablehlo.multiply %5526, %5523 : tensor<4x1520x3056xf64>
      %5531 = stablehlo.add %5530, %5529 : tensor<4x1520x3056xf64>
      %5532 = stablehlo.select %219, %5531, %5480 : tensor<4x1520x3056xi1>, tensor<4x1520x3056xf64>
      %5533 = stablehlo.multiply %5532, %2535 : tensor<4x1520x3056xf64>
      %5534 = stablehlo.select %4782, %1272, %1253 : tensor<3x1520x3056xi1>, tensor<3x1520x3056xf64>
      %5535 = stablehlo.multiply %5534, %cst_99 : tensor<3x1520x3056xf64>
      %5536 = stablehlo.slice %1238 [0:3, 0:1520, 0:3056] : (tensor<5x1520x3056xf64>) -> tensor<3x1520x3056xf64>
      %5537 = stablehlo.slice %408 [2:4, 0:1520, 0:3056] : (tensor<4x1520x3056xf64>) -> tensor<2x1520x3056xf64>
      %5538 = "enzymexla.extend"(%5537) <{dimension = 0 : i64, lhs = 0 : i64, rhs = 1 : i64}> : (tensor<2x1520x3056xf64>) -> tensor<3x1520x3056xf64>
      %5539 = stablehlo.select %4782, %5536, %5538 : tensor<3x1520x3056xi1>, tensor<3x1520x3056xf64>
      %5540 = stablehlo.multiply %5539, %cst_98 : tensor<3x1520x3056xf64>
      %5541 = stablehlo.add %5535, %5540 : tensor<3x1520x3056xf64>
      %5542 = stablehlo.multiply %5534, %5534 : tensor<3x1520x3056xf64>
      %5543 = stablehlo.multiply %5534, %cst_35 : tensor<3x1520x3056xf64>
      %5544 = stablehlo.add %5539, %5543 : tensor<3x1520x3056xf64>
      %5545 = stablehlo.multiply %5539, %5544 : tensor<3x1520x3056xf64>
      %5546 = stablehlo.add %5542, %5545 : tensor<3x1520x3056xf64>
      %5547 = stablehlo.add %5546, %cst_46 : tensor<3x1520x3056xf64>
      %5548 = stablehlo.convert %5547 : (tensor<3x1520x3056xf64>) -> tensor<3x1520x3056xf32>
      %5549 = stablehlo.divide %cst_55, %5548 : tensor<3x1520x3056xf32>
      %5550 = stablehlo.convert %5549 : (tensor<3x1520x3056xf32>) -> tensor<3x1520x3056xf64>
      %5551 = stablehlo.select %4782, %1253, %1272 : tensor<3x1520x3056xi1>, tensor<3x1520x3056xf64>
      %5552 = stablehlo.multiply %5551, %5551 : tensor<3x1520x3056xf64>
      %5553 = stablehlo.multiply %5551, %cst_35 : tensor<3x1520x3056xf64>
      %5554 = stablehlo.add %5534, %5553 : tensor<3x1520x3056xf64>
      %5555 = stablehlo.multiply %5534, %5554 : tensor<3x1520x3056xf64>
      %5556 = stablehlo.add %5552, %5555 : tensor<3x1520x3056xf64>
      %5557 = stablehlo.subtract %5556, %5546 {enzymexla.non_negative = [#enzymexla<guaranteed NOTGUARANTEED>]} : tensor<3x1520x3056xf64>
      %5558 = stablehlo.abs %5557 : tensor<3x1520x3056xf64>
      %5559 = stablehlo.multiply %5558, %5550 : tensor<3x1520x3056xf64>
      %5560 = stablehlo.negate %5547 : tensor<3x1520x3056xf64>
      %5561 = stablehlo.multiply %5559, %5560 : tensor<3x1520x3056xf64>
      %5562 = stablehlo.add %5561, %5558 : tensor<3x1520x3056xf64>
      %5563 = stablehlo.add %5562, %5558 : tensor<3x1520x3056xf64>
      %5564 = stablehlo.multiply %5550, %5563 : tensor<3x1520x3056xf64>
      %5565 = stablehlo.multiply %5564, %5564 : tensor<3x1520x3056xf64>
      %5566 = stablehlo.add %5565, %cst_97 : tensor<3x1520x3056xf64>
      %5567 = stablehlo.multiply %5566, %cst_96 : tensor<3x1520x3056xf64>
      %5568 = stablehlo.add %5556, %cst_46 : tensor<3x1520x3056xf64>
      %5569 = stablehlo.convert %5568 : (tensor<3x1520x3056xf64>) -> tensor<3x1520x3056xf32>
      %5570 = stablehlo.divide %cst_55, %5569 : tensor<3x1520x3056xf32>
      %5571 = stablehlo.convert %5570 : (tensor<3x1520x3056xf32>) -> tensor<3x1520x3056xf64>
      %5572 = stablehlo.multiply %5558, %5571 : tensor<3x1520x3056xf64>
      %5573 = stablehlo.negate %5568 : tensor<3x1520x3056xf64>
      %5574 = stablehlo.multiply %5572, %5573 : tensor<3x1520x3056xf64>
      %5575 = stablehlo.add %5574, %5558 : tensor<3x1520x3056xf64>
      %5576 = stablehlo.add %5575, %5558 : tensor<3x1520x3056xf64>
      %5577 = stablehlo.multiply %5571, %5576 : tensor<3x1520x3056xf64>
      %5578 = stablehlo.multiply %5577, %5577 : tensor<3x1520x3056xf64>
      %5579 = stablehlo.add %5578, %cst_97 : tensor<3x1520x3056xf64>
      %5580 = stablehlo.multiply %5579, %cst_95 : tensor<3x1520x3056xf64>
      %5581 = stablehlo.add %5580, %5567 : tensor<3x1520x3056xf64>
      %5582 = stablehlo.divide %cst_97, %5581 : tensor<3x1520x3056xf64>
      %5583 = stablehlo.multiply %5567, %5582 : tensor<3x1520x3056xf64>
      %5584 = stablehlo.multiply %5541, %5583 : tensor<3x1520x3056xf64>
      %5585 = stablehlo.add %1272, %1253 : tensor<3x1520x3056xf64>
      %5586 = stablehlo.multiply %cst_94, %5585 : tensor<3x1520x3056xf64>
      %5587 = stablehlo.multiply %5580, %5582 : tensor<3x1520x3056xf64>
      %5588 = stablehlo.multiply %5586, %5587 : tensor<3x1520x3056xf64>
      %5589 = stablehlo.add %5584, %5588 : tensor<3x1520x3056xf64>
      %5590 = stablehlo.select %239, %5589, %5534 : tensor<3x1520x3056xi1>, tensor<3x1520x3056xf64>
      %5591 = stablehlo.multiply %5590, %2607 : tensor<3x1520x3056xf64>
      %5592 = stablehlo.pad %5591, %cst_379, low = [1, 0, 0], high = [0, 0, 0], interior = [0, 0, 0] : (tensor<3x1520x3056xf64>, tensor<f64>) -> tensor<4x1520x3056xf64>
      %5593 = stablehlo.subtract %5533, %5592 : tensor<4x1520x3056xf64>
      %5594 = stablehlo.add %5102, %5477 : tensor<4x1520x3056xf64>
      %5595 = stablehlo.add %5594, %5593 : tensor<4x1520x3056xf64>
      %5596 = stablehlo.multiply %140, %5595 : tensor<4x1520x3056xf64>
      %5597 = stablehlo.negate %5596 : tensor<4x1520x3056xf64>
      stablehlo.return %353, %1186, %1180, %1185, %1184, %1180, %1197, %1198, %1265, %1243, %1290, %404, %408, %1756, %2929, %4085, %390, %389, %4846, %5597, %iterArg_396, %iterArg_397, %390, %389, %iterArg_400, %iterArg_401 : tensor<i64>, tensor<f64>, tensor<1x1520x3056xf64>, tensor<1x1520x3056xf64>, tensor<1x1520x3056xf64>, tensor<1x1520x3056xf64>, tensor<1x1520x3056xf64>, tensor<1x1520x3056xf64>, tensor<20x1536x3056xf64>, tensor<20x1536x3056xf64>, tensor<4x1534x3070xf64>, tensor<4x1520x3056xf64>, tensor<4x1520x3056xf64>, tensor<4x1522x3058xf64>, tensor<4x1520x3056xf64>, tensor<4x1520x3056xf64>, tensor<1x1520x3056xf64>, tensor<1x1520x3056xf64>, tensor<4x1520x3056xf64>, tensor<4x1520x3056xf64>, tensor<4x1520x3056xf64>, tensor<4x1520x3056xf64>, tensor<1x1520x3056xf64>, tensor<1x1520x3056xf64>, tensor<4x1520x3056xf64>, tensor<4x1520x3056xf64>
    }
    %296 = "enzymexla.extend"(%295#11) <{dimension = 0 : i64, lhs = 1 : i64, rhs = 1 : i64}> : (tensor<4x1520x3056xf64>) -> tensor<6x1520x3056xf64>
    %297 = "enzymexla.extend"(%295#12) <{dimension = 0 : i64, lhs = 1 : i64, rhs = 1 : i64}> : (tensor<4x1520x3056xf64>) -> tensor<6x1520x3056xf64>
    %298 = "enzymexla.extend"(%296) <{dimension = 1 : i64, lhs = 1 : i64, rhs = 1 : i64}> : (tensor<6x1520x3056xf64>) -> tensor<6x1522x3056xf64>
    %299 = "enzymexla.extend"(%297) <{dimension = 1 : i64, lhs = 1 : i64, rhs = 1 : i64}> : (tensor<6x1520x3056xf64>) -> tensor<6x1522x3056xf64>
    %300 = "enzymexla.update_without_corners"(%79, %298) <{dimensionX = 0 : i64, dimensionY = 1 : i64, x1 = 1 : i64, x2 = 5 : i64, y1 = 1 : i64, y2 = 1521 : i64}> : (tensor<6x1522x3056xf64>, tensor<6x1522x3056xf64>) -> tensor<6x1522x3056xf64>
    %301 = "enzymexla.update_without_corners"(%80, %299) <{dimensionX = 0 : i64, dimensionY = 1 : i64, x1 = 1 : i64, x2 = 5 : i64, y1 = 1 : i64, y2 = 1521 : i64}> : (tensor<6x1522x3056xf64>, tensor<6x1522x3056xf64>) -> tensor<6x1522x3056xf64>
    %302 = stablehlo.compare LT, %c_381, %arg38 : (tensor<i64>, tensor<i64>) -> tensor<i1>
    %303 = stablehlo.pad %295#5, %cst_379, low = [0, 8, 8], high = [0, 8, 8], interior = [0, 0, 0] : (tensor<1x1520x3056xf64>, tensor<f64>) -> tensor<1x1536x3072xf64>
    %304 = stablehlo.pad %295#6, %cst_379, low = [0, 8, 8], high = [0, 8, 8], interior = [0, 0, 0] : (tensor<1x1520x3056xf64>, tensor<f64>) -> tensor<1x1536x3072xf64>
    %305 = stablehlo.pad %295#7, %cst_379, low = [0, 8, 8], high = [0, 8, 8], interior = [0, 0, 0] : (tensor<1x1520x3056xf64>, tensor<f64>) -> tensor<1x1536x3072xf64>
    %306 = stablehlo.pad %295#10, %cst_379, low = [1, 0, 0], high = [0, 0, 0], interior = [0, 0, 0] : (tensor<4x1534x3070xf64>, tensor<f64>) -> tensor<5x1534x3070xf64>
    %307 = stablehlo.select %302, %303, %arg17 : tensor<i1>, tensor<1x1536x3072xf64>
    %308 = stablehlo.select %302, %304, %arg18 : tensor<i1>, tensor<1x1536x3072xf64>
    %309 = stablehlo.select %302, %305, %arg19 : tensor<i1>, tensor<1x1536x3072xf64>
    %310 = stablehlo.select %302, %306, %128 : tensor<i1>, tensor<5x1534x3070xf64>
    %311 = stablehlo.dynamic_update_slice %arg22, %310, %c_314, %c_378, %c_378 : (tensor<20x1536x3072xf64>, tensor<5x1534x3070xf64>, tensor<i32>, tensor<i32>, tensor<i32>) -> tensor<20x1536x3072xf64>
    %312 = stablehlo.dynamic_update_slice %arg25, %295#13, %c_314, %c_312, %c_312 : (tensor<20x1536x3072xf64>, tensor<4x1522x3058xf64>, tensor<i32>, tensor<i32>, tensor<i32>) -> tensor<20x1536x3072xf64>
    %313 = stablehlo.dynamic_update_slice %arg26, %295#14, %c_314, %c_314, %c_314 : (tensor<20x1536x3072xf64>, tensor<4x1520x3056xf64>, tensor<i32>, tensor<i32>, tensor<i32>) -> tensor<20x1536x3072xf64>
    %314 = stablehlo.dynamic_update_slice %arg27, %295#15, %c_314, %c_314, %c_314 : (tensor<20x1536x3072xf64>, tensor<4x1520x3056xf64>, tensor<i32>, tensor<i32>, tensor<i32>) -> tensor<20x1536x3072xf64>
    %315 = stablehlo.dynamic_update_slice %arg30, %295#18, %c_314, %c_314, %c_314 : (tensor<20x1536x3072xf64>, tensor<4x1520x3056xf64>, tensor<i32>, tensor<i32>, tensor<i32>) -> tensor<20x1536x3072xf64>
    %316 = stablehlo.dynamic_update_slice %arg31, %295#19, %c_314, %c_314, %c_314 : (tensor<20x1536x3072xf64>, tensor<4x1520x3056xf64>, tensor<i32>, tensor<i32>, tensor<i32>) -> tensor<20x1536x3072xf64>
    %317 = stablehlo.dynamic_update_slice %arg32, %295#20, %c_314, %c_314, %c_314 : (tensor<20x1536x3072xf64>, tensor<4x1520x3056xf64>, tensor<i32>, tensor<i32>, tensor<i32>) -> tensor<20x1536x3072xf64>
    %318 = stablehlo.dynamic_update_slice %arg33, %295#21, %c_314, %c_314, %c_314 : (tensor<20x1536x3072xf64>, tensor<4x1520x3056xf64>, tensor<i32>, tensor<i32>, tensor<i32>) -> tensor<20x1536x3072xf64>
    %319 = stablehlo.dynamic_update_slice %arg34, %295#22, %c_377, %c_314, %c_314 : (tensor<1x1536x3072xf64>, tensor<1x1520x3056xf64>, tensor<i32>, tensor<i32>, tensor<i32>) -> tensor<1x1536x3072xf64>
    %320 = stablehlo.dynamic_update_slice %arg35, %295#23, %c_377, %c_314, %c_314 : (tensor<1x1536x3072xf64>, tensor<1x1520x3056xf64>, tensor<i32>, tensor<i32>, tensor<i32>) -> tensor<1x1536x3072xf64>
    %321 = stablehlo.dynamic_update_slice %arg36, %295#24, %c_314, %c_314, %c_314 : (tensor<20x1536x3072xf64>, tensor<4x1520x3056xf64>, tensor<i32>, tensor<i32>, tensor<i32>) -> tensor<20x1536x3072xf64>
    %322 = stablehlo.dynamic_update_slice %arg37, %295#25, %c_314, %c_314, %c_314 : (tensor<20x1536x3072xf64>, tensor<4x1520x3056xf64>, tensor<i32>, tensor<i32>, tensor<i32>) -> tensor<20x1536x3072xf64>
    %323 = "enzymexla.extend"(%295#2) <{dimension = 1 : i64, lhs = 1 : i64, rhs = 1 : i64}> : (tensor<1x1520x3056xf64>) -> tensor<1x1522x3056xf64>
    %324 = "enzymexla.extend"(%295#3) <{dimension = 1 : i64, lhs = 1 : i64, rhs = 1 : i64}> : (tensor<1x1520x3056xf64>) -> tensor<1x1522x3056xf64>
    %325 = "enzymexla.extend"(%295#16) <{dimension = 1 : i64, lhs = 1 : i64, rhs = 1 : i64}> : (tensor<1x1520x3056xf64>) -> tensor<1x1522x3056xf64>
    %326 = stablehlo.slice %arg16 [0:1, 0:8, 8:3064] : (tensor<1x1536x3072xf64>) -> tensor<1x8x3056xf64>
    %327 = stablehlo.slice %arg16 [0:1, 1528:1536, 8:3064] : (tensor<1x1536x3072xf64>) -> tensor<1x8x3056xf64>
    %328 = stablehlo.concatenate %326, %295#4, %327, dim = 1 : (tensor<1x8x3056xf64>, tensor<1x1520x3056xf64>, tensor<1x8x3056xf64>) -> tensor<1x1536x3056xf64>
    %329 = "enzymexla.wrap"(%328) <{dimension = 2 : i64, lhs = 8 : i64, rhs = 8 : i64}> : (tensor<1x1536x3056xf64>) -> tensor<1x1536x3072xf64>
    %330 = stablehlo.dynamic_update_slice %32, %300, %c_312, %c_312, %c_377 : (tensor<20x1536x3056xf64>, tensor<6x1522x3056xf64>, tensor<i32>, tensor<i32>, tensor<i32>) -> tensor<20x1536x3056xf64>
    %331 = stablehlo.dynamic_update_slice %33, %301, %c_312, %c_312, %c_377 : (tensor<20x1536x3056xf64>, tensor<6x1522x3056xf64>, tensor<i32>, tensor<i32>, tensor<i32>) -> tensor<20x1536x3056xf64>
    %332 = stablehlo.slice %arg14 [0:1, 0:7, 8:3064] : (tensor<1x1536x3072xf64>) -> tensor<1x7x3056xf64>
    %333 = stablehlo.slice %arg14 [0:1, 1529:1536, 8:3064] : (tensor<1x1536x3072xf64>) -> tensor<1x7x3056xf64>
    %334 = stablehlo.concatenate %332, %323, %333, dim = 1 : (tensor<1x7x3056xf64>, tensor<1x1522x3056xf64>, tensor<1x7x3056xf64>) -> tensor<1x1536x3056xf64>
    %335 = stablehlo.slice %arg15 [0:1, 0:7, 8:3064] : (tensor<1x1536x3072xf64>) -> tensor<1x7x3056xf64>
    %336 = stablehlo.slice %arg15 [0:1, 1529:1536, 8:3064] : (tensor<1x1536x3072xf64>) -> tensor<1x7x3056xf64>
    %337 = stablehlo.concatenate %335, %324, %336, dim = 1 : (tensor<1x7x3056xf64>, tensor<1x1522x3056xf64>, tensor<1x7x3056xf64>) -> tensor<1x1536x3056xf64>
    %338 = stablehlo.slice %arg28 [0:1, 0:7, 8:3064] : (tensor<1x1536x3072xf64>) -> tensor<1x7x3056xf64>
    %339 = stablehlo.slice %arg28 [0:1, 1529:1536, 8:3064] : (tensor<1x1536x3072xf64>) -> tensor<1x7x3056xf64>
    %340 = stablehlo.concatenate %338, %325, %339, dim = 1 : (tensor<1x7x3056xf64>, tensor<1x1522x3056xf64>, tensor<1x7x3056xf64>) -> tensor<1x1536x3056xf64>
    %341 = stablehlo.slice %arg29 [0:1, 0:8, 8:3064] : (tensor<1x1536x3072xf64>) -> tensor<1x8x3056xf64>
    %342 = stablehlo.slice %arg29 [0:1, 1528:1536, 8:3064] : (tensor<1x1536x3072xf64>) -> tensor<1x8x3056xf64>
    %343 = stablehlo.concatenate %341, %295#17, %342, dim = 1 : (tensor<1x8x3056xf64>, tensor<1x1520x3056xf64>, tensor<1x8x3056xf64>) -> tensor<1x1536x3056xf64>
    %344 = "enzymexla.wrap"(%334) <{dimension = 2 : i64, lhs = 8 : i64, rhs = 8 : i64}> : (tensor<1x1536x3056xf64>) -> tensor<1x1536x3072xf64>
    %345 = "enzymexla.wrap"(%337) <{dimension = 2 : i64, lhs = 8 : i64, rhs = 8 : i64}> : (tensor<1x1536x3056xf64>) -> tensor<1x1536x3072xf64>
    %346 = "enzymexla.wrap"(%295#8) <{dimension = 2 : i64, lhs = 8 : i64, rhs = 8 : i64}> : (tensor<20x1536x3056xf64>) -> tensor<20x1536x3072xf64>
    %347 = "enzymexla.wrap"(%295#9) <{dimension = 2 : i64, lhs = 8 : i64, rhs = 8 : i64}> : (tensor<20x1536x3056xf64>) -> tensor<20x1536x3072xf64>
    %348 = "enzymexla.wrap"(%330) <{dimension = 2 : i64, lhs = 8 : i64, rhs = 8 : i64}> : (tensor<20x1536x3056xf64>) -> tensor<20x1536x3072xf64>
    %349 = "enzymexla.wrap"(%331) <{dimension = 2 : i64, lhs = 8 : i64, rhs = 8 : i64}> : (tensor<20x1536x3056xf64>) -> tensor<20x1536x3072xf64>
    %350 = "enzymexla.wrap"(%340) <{dimension = 2 : i64, lhs = 8 : i64, rhs = 8 : i64}> : (tensor<1x1536x3056xf64>) -> tensor<1x1536x3072xf64>
    %351 = "enzymexla.wrap"(%343) <{dimension = 2 : i64, lhs = 8 : i64, rhs = 8 : i64}> : (tensor<1x1536x3056xf64>) -> tensor<1x1536x3072xf64>
    %352 = stablehlo.add %arg13, %arg38 : tensor<i64>
    return %295#1, %352, %344, %345, %329, %307, %308, %309, %346, %347, %311, %348, %349, %312, %313, %314, %350, %351, %315, %316, %317, %318, %319, %320, %321, %322 : tensor<f64>, tensor<i64>, tensor<1x1536x3072xf64>, tensor<1x1536x3072xf64>, tensor<1x1536x3072xf64>, tensor<1x1536x3072xf64>, tensor<1x1536x3072xf64>, tensor<1x1536x3072xf64>, tensor<20x1536x3072xf64>, tensor<20x1536x3072xf64>, tensor<20x1536x3072xf64>, tensor<20x1536x3072xf64>, tensor<20x1536x3072xf64>, tensor<20x1536x3072xf64>, tensor<20x1536x3072xf64>, tensor<20x1536x3072xf64>, tensor<1x1536x3072xf64>, tensor<1x1536x3072xf64>, tensor<20x1536x3072xf64>, tensor<20x1536x3072xf64>, tensor<20x1536x3072xf64>, tensor<20x1536x3072xf64>, tensor<1x1536x3072xf64>, tensor<1x1536x3072xf64>, tensor<20x1536x3072xf64>, tensor<20x1536x3072xf64>
  }
}